…
I0319 07:24:18.901235  6981 net.cpp:313] The NetState phase (0) differed from the phase (1) specified by a rule in layer pair_data
I0319 07:24:18.901275  6981 net.cpp:313] The NetState phase (0) differed from the phase (1) specified by a rule in layer siamese_accuracy
I0319 07:24:18.901453  6981 net.cpp:49] Initializing net from parameters: 
name: "mnist_siamese_train_test"
state {
  phase: TRAIN
}
layer {
  name: "pair_data"
  type: "Data"
  top: "pair_data"
  top: "sim"
  include {
    phase: TRAIN
  }
  transform_param {
    scale: 0.00390625
    crop_size: 32
  }
  data_param {
    source: "/home/ubuntu/fyp/data/data-fyp/siamese_train_leveldb"
    batch_size: 64
  }
}
layer {
  name: "slice_pair"
  type: "Slice"
  bottom: "pair_data"
  top: "data"
  top: "data_p"
  slice_param {
    slice_dim: 1
    slice_point: 3
  }
}
layer {
  name: "conv1"
  type: "Convolution"
  bottom: "data"
  top: "conv1"
  param {
    name: "conv1_w"
    lr_mult: 1
  }
  param {
    name: "conv1_b"
    lr_mult: 2
  }
  convolution_param {
    num_output: 20
    kernel_size: 5
    stride: 1
    weight_filler {
      type: "xavier"
    }
    bias_filler {
      type: "constant"
    }
  }
}
layer {
  name: "pool1"
  type: "Pooling"
  bottom: "conv1"
  top: "pool1"
  pooling_param {
    pool: MAX
    kernel_size: 2
    stride: 2
  }
}
layer {
  name: "conv2"
  type: "Convolution"
  bottom: "pool1"
  top: "conv2"
  param {
    name: "conv2_w"
    lr_mult: 1
  }
  param {
    name: "conv2_b"
    lr_mult: 2
  }
  convolution_param {
    num_output: 50
    kernel_size: 5
    stride: 1
    weight_filler {
      type: "xavier"
    }
    bias_filler {
      type: "constant"
    }
  }
}
layer {
  name: "pool2"
  type: "Pooling"
  bottom: "conv2"
  top: "pool2"
  pooling_param {
    pool: MAX
    kernel_size: 2
    stride: 2
  }
}
layer {
  name: "ip2"
  type: "InnerProduct"
  bottom: "pool2"
  top: "ip2"
  param {
    name: "ip2_w"
    lr_mult: 1
  }
  param {
    name: "ip2_b"
    lr_mult: 2
  }
  inner_product_param {
    num_output: 10
    weight_filler {
      type: "xavier"
    }
    bias_filler {
      type: "constant"
    }
  }
}
layer {
  name: "feat"
  type: "InnerProduct"
  bottom: "ip2"
  top: "feat"
  param {
    name: "feat_w"
    lr_mult: 1
  }
  param {
    name: "feat_b"
    lr_mult: 2
  }
  inner_product_param {
    num_output: 2
    weight_filler {
      type: "xavier"
    }
    bias_filler {
      type: "constant"
    }
  }
}
layer {
  name: "conv1_p"
  type: "Convolution"
  bottom: "data_p"
  top: "conv1_p"
  param {
    name: "conv1_w"
    lr_mult: 1
  }
  param {
    name: "conv1_b"
    lr_mult: 2
  }
  convolution_param {
    num_output: 20
    kernel_size: 5
    stride: 1
    weight_filler {
      type: "xavier"
    }
    bias_filler {
      type: "constant"
    }
  }
}
layer {
  name: "pool1_p"
  type: "Pooling"
  bottom: "conv1_p"
  top: "pool1_p"
  pooling_param {
    pool: MAX
    kernel_size: 2
    stride: 2
  }
}
layer {
  name: "conv2_p"
  type: "Convolution"
  bottom: "pool1_p"
  top: "conv2_p"
  param {
    name: "conv2_w"
    lr_mult: 1
  }
  param {
    name: "conv2_b"
    lr_mult: 2
  }
  convolution_param {
    num_output: 50
    kernel_size: 5
    stride: 1
    weight_filler {
      type: "xavier"
    }
    bias_filler {
      type: "constant"
    }
  }
}
layer {
  name: "pool2_p"
  type: "Pooling"
  bottom: "conv2_p"
  top: "pool2_p"
  pooling_param {
    pool: MAX
    kernel_size: 2
    stride: 2
  }
}
layer {
  name: "ip2_p"
  type: "InnerProduct"
  bottom: "pool2_p"
  top: "ip2_p"
  param {
    name: "ip2_w"
    lr_mult: 1
  }
  param {
    name: "ip2_b"
    lr_mult: 2
  }
  inner_product_param {
    num_output: 10
    weight_filler {
      type: "xavier"
    }
    bias_filler {
      type: "constant"
    }
  }
}
layer {
  name: "feat_p"
  type: "InnerProduct"
  bottom: "ip2_p"
  top: "feat_p"
  param {
    name: "feat_w"
    lr_mult: 1
  }
  param {
    name: "feat_b"
    lr_mult: 2
  }
  inner_product_param {
    num_output: 2
    weight_filler {
      type: "xavier"
    }
    bias_filler {
      type: "constant"
    }
  }
}
layer {
  name: "loss"
  type: "ContrastiveLoss"
  bottom: "feat"
  bottom: "feat_p"
  bottom: "sim"
  top: "loss"
  contrastive_loss_param {
    margin: 100
  }
}
I0319 07:24:18.901619  6981 layer_factory.hpp:77] Creating layer pair_data
I0319 07:24:18.902140  6981 net.cpp:91] Creating Layer pair_data
I0319 07:24:18.902168  6981 net.cpp:399] pair_data -> pair_data
I0319 07:24:18.902254  6981 net.cpp:399] pair_data -> sim
I0319 07:24:18.911108  6985 db_leveldb.cpp:18] Opened leveldb /home/ubuntu/fyp/data/data-fyp/siamese_train_leveldb
I0319 07:24:18.928783  6981 data_layer.cpp:41] output data size: 64,6,32,32
I0319 07:24:18.932467  6981 net.cpp:141] Setting up pair_data
I0319 07:24:18.932543  6981 net.cpp:148] Top shape: 64 6 32 32 (393216)
I0319 07:24:18.932559  6981 net.cpp:148] Top shape: 64 (64)
I0319 07:24:18.932564  6981 net.cpp:156] Memory required for data: 1573120
I0319 07:24:18.932581  6981 layer_factory.hpp:77] Creating layer slice_pair
I0319 07:24:18.932603  6981 net.cpp:91] Creating Layer slice_pair
I0319 07:24:18.932612  6981 net.cpp:425] slice_pair <- pair_data
I0319 07:24:18.932631  6981 net.cpp:399] slice_pair -> data
I0319 07:24:18.932648  6981 net.cpp:399] slice_pair -> data_p
I0319 07:24:18.932740  6981 net.cpp:141] Setting up slice_pair
I0319 07:24:18.932756  6981 net.cpp:148] Top shape: 64 3 32 32 (196608)
I0319 07:24:18.932763  6981 net.cpp:148] Top shape: 64 3 32 32 (196608)
I0319 07:24:18.932768  6981 net.cpp:156] Memory required for data: 3145984
I0319 07:24:18.932773  6981 layer_factory.hpp:77] Creating layer conv1
I0319 07:24:18.932807  6981 net.cpp:91] Creating Layer conv1
I0319 07:24:18.932813  6981 net.cpp:425] conv1 <- data
I0319 07:24:18.932824  6981 net.cpp:399] conv1 -> conv1
I0319 07:24:18.934623  6986 blocking_queue.cpp:50] Waiting for data
I0319 07:24:19.135069  6981 net.cpp:141] Setting up conv1
I0319 07:24:19.135120  6981 net.cpp:148] Top shape: 64 20 28 28 (1003520)
I0319 07:24:19.135129  6981 net.cpp:156] Memory required for data: 7160064
I0319 07:24:19.135159  6981 layer_factory.hpp:77] Creating layer pool1
I0319 07:24:19.135179  6981 net.cpp:91] Creating Layer pool1
I0319 07:24:19.135190  6981 net.cpp:425] pool1 <- conv1
I0319 07:24:19.135200  6981 net.cpp:399] pool1 -> pool1
I0319 07:24:19.135284  6981 net.cpp:141] Setting up pool1
I0319 07:24:19.135303  6981 net.cpp:148] Top shape: 64 20 14 14 (250880)
I0319 07:24:19.135309  6981 net.cpp:156] Memory required for data: 8163584
I0319 07:24:19.135314  6981 layer_factory.hpp:77] Creating layer conv2
I0319 07:24:19.135335  6981 net.cpp:91] Creating Layer conv2
I0319 07:24:19.135342  6981 net.cpp:425] conv2 <- pool1
I0319 07:24:19.135351  6981 net.cpp:399] conv2 -> conv2
I0319 07:24:19.136896  6981 net.cpp:141] Setting up conv2
I0319 07:24:19.136920  6981 net.cpp:148] Top shape: 64 50 10 10 (320000)
I0319 07:24:19.136926  6981 net.cpp:156] Memory required for data: 9443584
I0319 07:24:19.136939  6981 layer_factory.hpp:77] Creating layer pool2
I0319 07:24:19.136955  6981 net.cpp:91] Creating Layer pool2
I0319 07:24:19.136965  6981 net.cpp:425] pool2 <- conv2
I0319 07:24:19.136971  6981 net.cpp:399] pool2 -> pool2
I0319 07:24:19.137017  6981 net.cpp:141] Setting up pool2
I0319 07:24:19.137034  6981 net.cpp:148] Top shape: 64 50 5 5 (80000)
I0319 07:24:19.137039  6981 net.cpp:156] Memory required for data: 9763584
I0319 07:24:19.137044  6981 layer_factory.hpp:77] Creating layer ip2
I0319 07:24:19.137059  6981 net.cpp:91] Creating Layer ip2
I0319 07:24:19.137065  6981 net.cpp:425] ip2 <- pool2
I0319 07:24:19.137073  6981 net.cpp:399] ip2 -> ip2
I0319 07:24:19.137804  6981 net.cpp:141] Setting up ip2
I0319 07:24:19.137825  6981 net.cpp:148] Top shape: 64 10 (640)
I0319 07:24:19.137831  6981 net.cpp:156] Memory required for data: 9766144
I0319 07:24:19.137842  6981 layer_factory.hpp:77] Creating layer feat
I0319 07:24:19.137852  6981 net.cpp:91] Creating Layer feat
I0319 07:24:19.137858  6981 net.cpp:425] feat <- ip2
I0319 07:24:19.137866  6981 net.cpp:399] feat -> feat
I0319 07:24:19.137981  6981 net.cpp:141] Setting up feat
I0319 07:24:19.137998  6981 net.cpp:148] Top shape: 64 2 (128)
I0319 07:24:19.138005  6981 net.cpp:156] Memory required for data: 9766656
I0319 07:24:19.138013  6981 layer_factory.hpp:77] Creating layer conv1_p
I0319 07:24:19.138026  6981 net.cpp:91] Creating Layer conv1_p
I0319 07:24:19.138032  6981 net.cpp:425] conv1_p <- data_p
I0319 07:24:19.138041  6981 net.cpp:399] conv1_p -> conv1_p
I0319 07:24:19.138811  6981 net.cpp:141] Setting up conv1_p
I0319 07:24:19.138833  6981 net.cpp:148] Top shape: 64 20 28 28 (1003520)
I0319 07:24:19.138839  6981 net.cpp:156] Memory required for data: 13780736
I0319 07:24:19.138847  6981 net.cpp:484] Sharing parameters 'conv1_w' owned by layer 'conv1', param index 0
I0319 07:24:19.138854  6981 net.cpp:484] Sharing parameters 'conv1_b' owned by layer 'conv1', param index 1
I0319 07:24:19.138859  6981 layer_factory.hpp:77] Creating layer pool1_p
I0319 07:24:19.138869  6981 net.cpp:91] Creating Layer pool1_p
I0319 07:24:19.138873  6981 net.cpp:425] pool1_p <- conv1_p
I0319 07:24:19.138883  6981 net.cpp:399] pool1_p -> pool1_p
I0319 07:24:19.138947  6981 net.cpp:141] Setting up pool1_p
I0319 07:24:19.138963  6981 net.cpp:148] Top shape: 64 20 14 14 (250880)
I0319 07:24:19.138969  6981 net.cpp:156] Memory required for data: 14784256
I0319 07:24:19.138974  6981 layer_factory.hpp:77] Creating layer conv2_p
I0319 07:24:19.138989  6981 net.cpp:91] Creating Layer conv2_p
I0319 07:24:19.138994  6981 net.cpp:425] conv2_p <- pool1_p
I0319 07:24:19.139005  6981 net.cpp:399] conv2_p -> conv2_p
I0319 07:24:19.140090  6981 net.cpp:141] Setting up conv2_p
I0319 07:24:19.140113  6981 net.cpp:148] Top shape: 64 50 10 10 (320000)
I0319 07:24:19.140118  6981 net.cpp:156] Memory required for data: 16064256
I0319 07:24:19.140125  6981 net.cpp:484] Sharing parameters 'conv2_w' owned by layer 'conv2', param index 0
I0319 07:24:19.140132  6981 net.cpp:484] Sharing parameters 'conv2_b' owned by layer 'conv2', param index 1
I0319 07:24:19.140137  6981 layer_factory.hpp:77] Creating layer pool2_p
I0319 07:24:19.140146  6981 net.cpp:91] Creating Layer pool2_p
I0319 07:24:19.140151  6981 net.cpp:425] pool2_p <- conv2_p
I0319 07:24:19.140158  6981 net.cpp:399] pool2_p -> pool2_p
I0319 07:24:19.140206  6981 net.cpp:141] Setting up pool2_p
I0319 07:24:19.140223  6981 net.cpp:148] Top shape: 64 50 5 5 (80000)
I0319 07:24:19.140228  6981 net.cpp:156] Memory required for data: 16384256
I0319 07:24:19.140233  6981 layer_factory.hpp:77] Creating layer ip2_p
I0319 07:24:19.140246  6981 net.cpp:91] Creating Layer ip2_p
I0319 07:24:19.140251  6981 net.cpp:425] ip2_p <- pool2_p
I0319 07:24:19.140262  6981 net.cpp:399] ip2_p -> ip2_p
I0319 07:24:19.140517  6981 net.cpp:141] Setting up ip2_p
I0319 07:24:19.140539  6981 net.cpp:148] Top shape: 64 10 (640)
I0319 07:24:19.140544  6981 net.cpp:156] Memory required for data: 16386816
I0319 07:24:19.140550  6981 net.cpp:484] Sharing parameters 'ip2_w' owned by layer 'ip2', param index 0
I0319 07:24:19.140558  6981 net.cpp:484] Sharing parameters 'ip2_b' owned by layer 'ip2', param index 1
I0319 07:24:19.140563  6981 layer_factory.hpp:77] Creating layer feat_p
I0319 07:24:19.140571  6981 net.cpp:91] Creating Layer feat_p
I0319 07:24:19.140578  6981 net.cpp:425] feat_p <- ip2_p
I0319 07:24:19.140588  6981 net.cpp:399] feat_p -> feat_p
I0319 07:24:19.140694  6981 net.cpp:141] Setting up feat_p
I0319 07:24:19.140712  6981 net.cpp:148] Top shape: 64 2 (128)
I0319 07:24:19.140717  6981 net.cpp:156] Memory required for data: 16387328
I0319 07:24:19.140722  6981 net.cpp:484] Sharing parameters 'feat_w' owned by layer 'feat', param index 0
I0319 07:24:19.140743  6981 net.cpp:484] Sharing parameters 'feat_b' owned by layer 'feat', param index 1
I0319 07:24:19.140748  6981 layer_factory.hpp:77] Creating layer loss
I0319 07:24:19.140763  6981 net.cpp:91] Creating Layer loss
…
I0319 07:24:19.141892  6981 solver.cpp:181] Creating test net (#0) specified by net file: ./siamese_lenet_train.prototxt
I0319 07:24:19.141950  6981 net.cpp:313] The NetState phase (1) differed from the phase (0) specified by a rule in layer pair_data
I0319 07:24:19.142138  6981 net.cpp:49] Initializing net from parameters: 
name: "mnist_siamese_train_test"
state {
  phase: TEST
}
layer {
  name: "pair_data"
  type: "Data"
  top: "pair_data"
  top: "sim"
  include {
    phase: TEST
  }
  transform_param {
    scale: 0.00390625
    crop_size: 32
  }
  data_param {
    source: "/home/ubuntu/fyp/data/data-fyp/siamese_test_leveldb"
    batch_size: 100
  }
}
layer {
  name: "slice_pair"
  type: "Slice"
  bottom: "pair_data"
  top: "data"
  top: "data_p"
  slice_param {
    slice_dim: 1
    slice_point: 3
  }
}
layer {
  name: "conv1"
  type: "Convolution"
  bottom: "data"
  top: "conv1"
  param {
    name: "conv1_w"
    lr_mult: 1
  }
  param {
    name: "conv1_b"
    lr_mult: 2
  }
  convolution_param {
    num_output: 20
    kernel_size: 5
    stride: 1
    weight_filler {
      type: "xavier"
    }
    bias_filler {
      type: "constant"
    }
  }
}
layer {
  name: "pool1"
  type: "Pooling"
  bottom: "conv1"
  top: "pool1"
  pooling_param {
    pool: MAX
    kernel_size: 2
    stride: 2
  }
}
layer {
  name: "conv2"
  type: "Convolution"
  bottom: "pool1"
  top: "conv2"
  param {
    name: "conv2_w"
    lr_mult: 1
  }
  param {
    name: "conv2_b"
    lr_mult: 2
  }
  convolution_param {
    num_output: 50
    kernel_size: 5
    stride: 1
    weight_filler {
      type: "xavier"
    }
    bias_filler {
      type: "constant"
    }
  }
}
layer {
  name: "pool2"
  type: "Pooling"
  bottom: "conv2"
  top: "pool2"
  pooling_param {
    pool: MAX
    kernel_size: 2
    stride: 2
  }
}
layer {
  name: "ip2"
  type: "InnerProduct"
  bottom: "pool2"
  top: "ip2"
  param {
    name: "ip2_w"
    lr_mult: 1
  }
  param {
    name: "ip2_b"
    lr_mult: 2
  }
  inner_product_param {
    num_output: 10
    weight_filler {
      type: "xavier"
    }
    bias_filler {
      type: "constant"
    }
  }
}
layer {
  name: "feat"
  type: "InnerProduct"
  bottom: "ip2"
  top: "feat"
  param {
    name: "feat_w"
    lr_mult: 1
  }
  param {
    name: "feat_b"
    lr_mult: 2
  }
  inner_product_param {
    num_output: 2
    weight_filler {
      type: "xavier"
    }
    bias_filler {
      type: "constant"
    }
  }
}
layer {
  name: "conv1_p"
  type: "Convolution"
  bottom: "data_p"
  top: "conv1_p"
  param {
    name: "conv1_w"
    lr_mult: 1
  }
  param {
    name: "conv1_b"
    lr_mult: 2
  }
  convolution_param {
    num_output: 20
    kernel_size: 5
    stride: 1
    weight_filler {
      type: "xavier"
    }
    bias_filler {
      type: "constant"
    }
  }
}
layer {
  name: "pool1_p"
  type: "Pooling"
  bottom: "conv1_p"
  top: "pool1_p"
  pooling_param {
    pool: MAX
    kernel_size: 2
    stride: 2
  }
}
layer {
  name: "conv2_p"
  type: "Convolution"
  bottom: "pool1_p"
  top: "conv2_p"
  param {
    name: "conv2_w"
    lr_mult: 1
  }
  param {
    name: "conv2_b"
    lr_mult: 2
  }
  convolution_param {
    num_output: 50
    kernel_size: 5
    stride: 1
    weight_filler {
      type: "xavier"
    }
    bias_filler {
      type: "constant"
    }
  }
}
layer {
  name: "pool2_p"
  type: "Pooling"
  bottom: "conv2_p"
  top: "pool2_p"
  pooling_param {
    pool: MAX
    kernel_size: 2
    stride: 2
  }
}
layer {
  name: "ip2_p"
  type: "InnerProduct"
  bottom: "pool2_p"
  top: "ip2_p"
  param {
    name: "ip2_w"
    lr_mult: 1
  }
  param {
    name: "ip2_b"
    lr_mult: 2
  }
  inner_product_param {
    num_output: 10
    weight_filler {
      type: "xavier"
    }
    bias_filler {
      type: "constant"
    }
  }
}
layer {
  name: "feat_p"
  type: "InnerProduct"
  bottom: "ip2_p"
  top: "feat_p"
  param {
    name: "feat_w"
    lr_mult: 1
  }
  param {
    name: "feat_b"
    lr_mult: 2
  }
  inner_product_param {
    num_output: 2
    weight_filler {
      type: "xavier"
    }
    bias_filler {
      type: "constant"
    }
  }
}
layer {
  name: "siamese_accuracy"
  type: "SiameseAccuracy"
  bottom: "feat"
  bottom: "feat_p"
  bottom: "sim"
  top: "siamese_accuracy"
  include {
    phase: TEST
  }
}
layer {
  name: "loss"
  type: "ContrastiveLoss"
  bottom: "feat"
  bottom: "feat_p"
  bottom: "sim"
  top: "loss"
  contrastive_loss_param {
    margin: 100
  }
}
I0319 07:24:19.142285  6981 layer_factory.hpp:77] Creating layer pair_data
I0319 07:24:19.142459  6981 net.cpp:91] Creating Layer pair_data
I0319 07:24:19.142472  6981 net.cpp:399] pair_data -> pair_data
I0319 07:24:19.142487  6981 net.cpp:399] pair_data -> sim
I0319 07:24:19.150349  6987 db_leveldb.cpp:18] Opened leveldb /home/ubuntu/fyp/data/data-fyp/siamese_test_leveldb
I0319 07:24:19.152607  6981 data_layer.cpp:41] output data size: 100,6,32,32
I0319 07:24:19.158231  6981 net.cpp:141] Setting up pair_data
I0319 07:24:19.158272  6981 net.cpp:148] Top shape: 100 6 32 32 (614400)
I0319 07:24:19.158280  6981 net.cpp:148] Top shape: 100 (100)
I0319 07:24:19.158287  6981 net.cpp:156] Memory required for data: 2458000
I0319 07:24:19.158295  6981 layer_factory.hpp:77] Creating layer sim_pair_data_1_split
I0319 07:24:19.158319  6981 net.cpp:91] Creating Layer sim_pair_data_1_split
I0319 07:24:19.158326  6981 net.cpp:425] sim_pair_data_1_split <- sim
I0319 07:24:19.158336  6981 net.cpp:399] sim_pair_data_1_split -> sim_pair_data_1_split_0
I0319 07:24:19.158354  6981 net.cpp:399] sim_pair_data_1_split -> sim_pair_data_1_split_1
I0319 07:24:19.158521  6981 net.cpp:141] Setting up sim_pair_data_1_split
I0319 07:24:19.158538  6981 net.cpp:148] Top shape: 100 (100)
I0319 07:24:19.158545  6981 net.cpp:148] Top shape: 100 (100)
I0319 07:24:19.158550  6981 net.cpp:156] Memory required for data: 2458800
I0319 07:24:19.158556  6981 layer_factory.hpp:77] Creating layer slice_pair
I0319 07:24:19.158571  6981 net.cpp:91] Creating Layer slice_pair
I0319 07:24:19.158576  6981 net.cpp:425] slice_pair <- pair_data
I0319 07:24:19.158583  6981 net.cpp:399] slice_pair -> data
I0319 07:24:19.158594  6981 net.cpp:399] slice_pair -> data_p
I0319 07:24:19.158756  6981 net.cpp:141] Setting up slice_pair
I0319 07:24:19.158776  6981 net.cpp:148] Top shape: 100 3 32 32 (307200)
I0319 07:24:19.158782  6981 net.cpp:148] Top shape: 100 3 32 32 (307200)
I0319 07:24:19.158787  6981 net.cpp:156] Memory required for data: 4916400
I0319 07:24:19.158792  6981 layer_factory.hpp:77] Creating layer conv1
I0319 07:24:19.158813  6981 net.cpp:91] Creating Layer conv1
I0319 07:24:19.158819  6981 net.cpp:425] conv1 <- data
I0319 07:24:19.158830  6981 net.cpp:399] conv1 -> conv1
I0319 07:24:19.160462  6981 net.cpp:141] Setting up conv1
I0319 07:24:19.160486  6981 net.cpp:148] Top shape: 100 20 28 28 (1568000)
I0319 07:24:19.160492  6981 net.cpp:156] Memory required for data: 11188400
I0319 07:24:19.160507  6981 layer_factory.hpp:77] Creating layer pool1
I0319 07:24:19.160521  6981 net.cpp:91] Creating Layer pool1
I0319 07:24:19.160526  6981 net.cpp:425] pool1 <- conv1
I0319 07:24:19.160533  6981 net.cpp:399] pool1 -> pool1
I0319 07:24:19.160588  6981 net.cpp:141] Setting up pool1
I0319 07:24:19.160605  6981 net.cpp:148] Top shape: 100 20 14 14 (392000)
I0319 07:24:19.160617  6981 net.cpp:156] Memory required for data: 12756400
I0319 07:24:19.160624  6981 layer_factory.hpp:77] Creating layer conv2
I0319 07:24:19.160687  6981 net.cpp:91] Creating Layer conv2
I0319 07:24:19.160702  6981 net.cpp:425] conv2 <- pool1
I0319 07:24:19.160717  6981 net.cpp:399] conv2 -> conv2
I0319 07:24:19.162066  6981 net.cpp:141] Setting up conv2
I0319 07:24:19.162091  6981 net.cpp:148] Top shape: 100 50 10 10 (500000)
I0319 07:24:19.162096  6981 net.cpp:156] Memory required for data: 14756400
I0319 07:24:19.162107  6981 layer_factory.hpp:77] Creating layer pool2
I0319 07:24:19.162118  6981 net.cpp:91] Creating Layer pool2
I0319 07:24:19.162124  6981 net.cpp:425] pool2 <- conv2
I0319 07:24:19.162133  6981 net.cpp:399] pool2 -> pool2
I0319 07:24:19.162184  6981 net.cpp:141] Setting up pool2
I0319 07:24:19.162201  6981 net.cpp:148] Top shape: 100 50 5 5 (125000)
I0319 07:24:19.162206  6981 net.cpp:156] Memory required for data: 15256400
I0319 07:24:19.162211  6981 layer_factory.hpp:77] Creating layer ip2
I0319 07:24:19.162225  6981 net.cpp:91] Creating Layer ip2
I0319 07:24:19.162230  6981 net.cpp:425] ip2 <- pool2
I0319 07:24:19.162238  6981 net.cpp:399] ip2 -> ip2
I0319 07:24:19.162457  6981 net.cpp:141] Setting up ip2
I0319 07:24:19.162475  6981 net.cpp:148] Top shape: 100 10 (1000)
I0319 07:24:19.162480  6981 net.cpp:156] Memory required for data: 15260400
I0319 07:24:19.162490  6981 layer_factory.hpp:77] Creating layer feat
I0319 07:24:19.162506  6981 net.cpp:91] Creating Layer feat
I0319 07:24:19.162511  6981 net.cpp:425] feat <- ip2
I0319 07:24:19.162521  6981 net.cpp:399] feat -> feat
I0319 07:24:19.162629  6981 net.cpp:141] Setting up feat
I0319 07:24:19.162647  6981 net.cpp:148] Top shape: 100 2 (200)
I0319 07:24:19.162652  6981 net.cpp:156] Memory required for data: 15261200
I0319 07:24:19.162659  6981 layer_factory.hpp:77] Creating layer feat_feat_0_split
I0319 07:24:19.162667  6981 net.cpp:91] Creating Layer feat_feat_0_split
I0319 07:24:19.162672  6981 net.cpp:425] feat_feat_0_split <- feat
I0319 07:24:19.162678  6981 net.cpp:399] feat_feat_0_split -> feat_feat_0_split_0
I0319 07:24:19.162689  6981 net.cpp:399] feat_feat_0_split -> feat_feat_0_split_1
I0319 07:24:19.162734  6981 net.cpp:141] Setting up feat_feat_0_split
I0319 07:24:19.162750  6981 net.cpp:148] Top shape: 100 2 (200)
I0319 07:24:19.162755  6981 net.cpp:148] Top shape: 100 2 (200)
I0319 07:24:19.162760  6981 net.cpp:156] Memory required for data: 15262800
I0319 07:24:19.162765  6981 layer_factory.hpp:77] Creating layer conv1_p
I0319 07:24:19.162781  6981 net.cpp:91] Creating Layer conv1_p
I0319 07:24:19.162787  6981 net.cpp:425] conv1_p <- data_p
I0319 07:24:19.162796  6981 net.cpp:399] conv1_p -> conv1_p
I0319 07:24:19.163766  6981 net.cpp:141] Setting up conv1_p
I0319 07:24:19.163789  6981 net.cpp:148] Top shape: 100 20 28 28 (1568000)
I0319 07:24:19.163794  6981 net.cpp:156] Memory required for data: 21534800
I0319 07:24:19.163817  6981 net.cpp:484] Sharing parameters 'conv1_w' owned by layer 'conv1', param index 0
I0319 07:24:19.163825  6981 net.cpp:484] Sharing parameters 'conv1_b' owned by layer 'conv1', param index 1
I0319 07:24:19.163830  6981 layer_factory.hpp:77] Creating layer pool1_p
I0319 07:24:19.163838  6981 net.cpp:91] Creating Layer pool1_p
I0319 07:24:19.163844  6981 net.cpp:425] pool1_p <- conv1_p
I0319 07:24:19.163854  6981 net.cpp:399] pool1_p -> pool1_p
I0319 07:24:19.163904  6981 net.cpp:141] Setting up pool1_p
I0319 07:24:19.163923  6981 net.cpp:148] Top shape: 100 20 14 14 (392000)
I0319 07:24:19.163928  6981 net.cpp:156] Memory required for data: 23102800
I0319 07:24:19.163933  6981 layer_factory.hpp:77] Creating layer conv2_p
I0319 07:24:19.163951  6981 net.cpp:91] Creating Layer conv2_p
I0319 07:24:19.163957  6981 net.cpp:425] conv2_p <- pool1_p
I0319 07:24:19.163965  6981 net.cpp:399] conv2_p -> conv2_p
I0319 07:24:19.165067  6981 net.cpp:141] Setting up conv2_p
I0319 07:24:19.165091  6981 net.cpp:148] Top shape: 100 50 10 10 (500000)
I0319 07:24:19.165096  6981 net.cpp:156] Memory required for data: 25102800
I0319 07:24:19.165102  6981 net.cpp:484] Sharing parameters 'conv2_w' owned by layer 'conv2', param index 0
I0319 07:24:19.165108  6981 net.cpp:484] Sharing parameters 'conv2_b' owned by layer 'conv2', param index 1
I0319 07:24:19.165113  6981 layer_factory.hpp:77] Creating layer pool2_p
I0319 07:24:19.165122  6981 net.cpp:91] Creating Layer pool2_p
I0319 07:24:19.165127  6981 net.cpp:425] pool2_p <- conv2_p
I0319 07:24:19.165138  6981 net.cpp:399] pool2_p -> pool2_p
I0319 07:24:19.165191  6981 net.cpp:141] Setting up pool2_p
I0319 07:24:19.165208  6981 net.cpp:148] Top shape: 100 50 5 5 (125000)
I0319 07:24:19.165215  6981 net.cpp:156] Memory required for data: 25602800
I0319 07:24:19.165220  6981 layer_factory.hpp:77] Creating layer ip2_p
I0319 07:24:19.165235  6981 net.cpp:91] Creating Layer ip2_p
I0319 07:24:19.165241  6981 net.cpp:425] ip2_p <- pool2_p
I0319 07:24:19.165251  6981 net.cpp:399] ip2_p -> ip2_p
I0319 07:24:19.165465  6981 net.cpp:141] Setting up ip2_p
I0319 07:24:19.165483  6981 net.cpp:148] Top shape: 100 10 (1000)
I0319 07:24:19.165488  6981 net.cpp:156] Memory required for data: 25606800
I0319 07:24:19.165494  6981 net.cpp:484] Sharing parameters 'ip2_w' owned by layer 'ip2', param index 0
I0319 07:24:19.165500  6981 net.cpp:484] Sharing parameters 'ip2_b' owned by layer 'ip2', param index 1
I0319 07:24:19.165505  6981 layer_factory.hpp:77] Creating layer feat_p
I0319 07:24:19.165515  6981 net.cpp:91] Creating Layer feat_p
I0319 07:24:19.165520  6981 net.cpp:425] feat_p <- ip2_p
I0319 07:24:19.165531  6981 net.cpp:399] feat_p -> feat_p
I0319 07:24:19.165681  6981 net.cpp:141] Setting up feat_p
I0319 07:24:19.165700  6981 net.cpp:148] Top shape: 100 2 (200)
I0319 07:24:19.165706  6981 net.cpp:156] Memory required for data: 25607600
I0319 07:24:19.165712  6981 net.cpp:484] Sharing parameters 'feat_w' owned by layer 'feat', param index 0
I0319 07:24:19.165719  6981 net.cpp:484] Sharing parameters 'feat_b' owned by layer 'feat', param index 1
I0319 07:24:19.165724  6981 layer_factory.hpp:77] Creating layer feat_p_feat_p_0_split
I0319 07:24:19.165735  6981 net.cpp:91] Creating Layer feat_p_feat_p_0_split
I0319 07:24:19.165740  6981 net.cpp:425] feat_p_feat_p_0_split <- feat_p
I0319 07:24:19.165746  6981 net.cpp:399] feat_p_feat_p_0_split -> feat_p_feat_p_0_split_0
I0319 07:24:19.165755  6981 net.cpp:399] feat_p_feat_p_0_split -> feat_p_feat_p_0_split_1
I0319 07:24:19.165803  6981 net.cpp:141] Setting up feat_p_feat_p_0_split
I0319 07:24:19.165822  6981 net.cpp:148] Top shape: 100 2 (200)
I0319 07:24:19.165828  6981 net.cpp:148] Top shape: 100 2 (200)
I0319 07:24:19.165834  6981 net.cpp:156] Memory required for data: 25609200
I0319 07:24:19.165839  6981 layer_factory.hpp:77] Creating layer siamese_accuracy
I0319 07:24:19.165851  6981 net.cpp:91] Creating Layer siamese_accuracy
I0319 07:24:19.165858  6981 net.cpp:425] siamese_accuracy <- feat_feat_0_split_0
I0319 07:24:19.165877  6981 net.cpp:425] siamese_accuracy <- feat_p_feat_p_0_split_0
…
