…
I0319 07:09:01.028777  6893 net.cpp:313] The NetState phase (0) differed from the phase (1) specified by a rule in layer pair_data
I0319 07:09:01.028818  6893 net.cpp:313] The NetState phase (0) differed from the phase (1) specified by a rule in layer siamese_accuracy
I0319 07:09:01.028995  6893 net.cpp:49] Initializing net from parameters: 
name: "mnist_siamese_train_test"
state {
  phase: TRAIN
}
layer {
  name: "pair_data"
  type: "Data"
  top: "pair_data"
  top: "sim"
  include {
    phase: TRAIN
  }
  transform_param {
    scale: 0.00390625
    crop_size: 32
  }
  data_param {
    source: "/home/ubuntu/fyp/data/data-fyp/siamese_train_leveldb"
    batch_size: 64
  }
}
layer {
  name: "slice_pair"
  type: "Slice"
  bottom: "pair_data"
  top: "data"
  top: "data_p"
  slice_param {
    slice_dim: 1
    slice_point: 3
  }
}
layer {
  name: "conv1"
  type: "Convolution"
  bottom: "data"
  top: "conv1"
  param {
    name: "conv1_w"
    lr_mult: 1
  }
  param {
    name: "conv1_b"
    lr_mult: 2
  }
  convolution_param {
    num_output: 20
    kernel_size: 5
    stride: 1
    weight_filler {
      type: "xavier"
    }
    bias_filler {
      type: "constant"
    }
  }
}
layer {
  name: "pool1"
  type: "Pooling"
  bottom: "conv1"
  top: "pool1"
  pooling_param {
    pool: MAX
    kernel_size: 2
    stride: 2
  }
}
layer {
  name: "conv2"
  type: "Convolution"
  bottom: "pool1"
  top: "conv2"
  param {
    name: "conv2_w"
    lr_mult: 1
  }
  param {
    name: "conv2_b"
    lr_mult: 2
  }
  convolution_param {
    num_output: 50
    kernel_size: 5
    stride: 1
    weight_filler {
      type: "xavier"
    }
    bias_filler {
      type: "constant"
    }
  }
}
layer {
  name: "pool2"
  type: "Pooling"
  bottom: "conv2"
  top: "pool2"
  pooling_param {
    pool: MAX
    kernel_size: 2
    stride: 2
  }
}
layer {
  name: "ip2"
  type: "InnerProduct"
  bottom: "pool2"
  top: "ip2"
  param {
    name: "ip2_w"
    lr_mult: 1
  }
  param {
    name: "ip2_b"
    lr_mult: 2
  }
  inner_product_param {
    num_output: 10
    weight_filler {
      type: "xavier"
    }
    bias_filler {
      type: "constant"
    }
  }
}
layer {
  name: "feat"
  type: "InnerProduct"
  bottom: "ip2"
  top: "feat"
  param {
    name: "feat_w"
    lr_mult: 1
  }
  param {
    name: "feat_b"
    lr_mult: 2
  }
  inner_product_param {
    num_output: 2
    weight_filler {
      type: "xavier"
    }
    bias_filler {
      type: "constant"
    }
  }
}
layer {
  name: "conv1_p"
  type: "Convolution"
  bottom: "data_p"
  top: "conv1_p"
  param {
    name: "conv1_w"
    lr_mult: 1
  }
  param {
    name: "conv1_b"
    lr_mult: 2
  }
  convolution_param {
    num_output: 20
    kernel_size: 5
    stride: 1
    weight_filler {
      type: "xavier"
    }
    bias_filler {
      type: "constant"
    }
  }
}
layer {
  name: "pool1_p"
  type: "Pooling"
  bottom: "conv1_p"
  top: "pool1_p"
  pooling_param {
    pool: MAX
    kernel_size: 2
    stride: 2
  }
}
layer {
  name: "conv2_p"
  type: "Convolution"
  bottom: "pool1_p"
  top: "conv2_p"
  param {
    name: "conv2_w"
    lr_mult: 1
  }
  param {
    name: "conv2_b"
    lr_mult: 2
  }
  convolution_param {
    num_output: 50
    kernel_size: 5
    stride: 1
    weight_filler {
      type: "xavier"
    }
    bias_filler {
      type: "constant"
    }
  }
}
layer {
  name: "pool2_p"
  type: "Pooling"
  bottom: "conv2_p"
  top: "pool2_p"
  pooling_param {
    pool: MAX
    kernel_size: 2
    stride: 2
  }
}
layer {
  name: "ip2_p"
  type: "InnerProduct"
  bottom: "pool2_p"
  top: "ip2_p"
  param {
    name: "ip2_w"
    lr_mult: 1
  }
  param {
    name: "ip2_b"
    lr_mult: 2
  }
  inner_product_param {
    num_output: 10
    weight_filler {
      type: "xavier"
    }
    bias_filler {
      type: "constant"
    }
  }
}
layer {
  name: "feat_p"
  type: "InnerProduct"
  bottom: "ip2_p"
  top: "feat_p"
  param {
    name: "feat_w"
    lr_mult: 1
  }
  param {
    name: "feat_b"
    lr_mult: 2
  }
  inner_product_param {
    num_output: 2
    weight_filler {
      type: "xavier"
    }
    bias_filler {
      type: "constant"
    }
  }
}
layer {
  name: "loss"
  type: "ContrastiveLoss"
  bottom: "feat"
  bottom: "feat_p"
  bottom: "sim"
  top: "loss"
  contrastive_loss_param {
    margin: 10
  }
}
I0319 07:09:01.029177  6893 layer_factory.hpp:77] Creating layer pair_data
I0319 07:09:01.029724  6893 net.cpp:91] Creating Layer pair_data
I0319 07:09:01.029780  6893 net.cpp:399] pair_data -> pair_data
I0319 07:09:01.029830  6893 net.cpp:399] pair_data -> sim
I0319 07:09:01.040462  6897 db_leveldb.cpp:18] Opened leveldb /home/ubuntu/fyp/data/data-fyp/siamese_train_leveldb
I0319 07:09:01.057241  6893 data_layer.cpp:41] output data size: 64,6,32,32
I0319 07:09:01.060976  6893 net.cpp:141] Setting up pair_data
I0319 07:09:01.061058  6893 net.cpp:148] Top shape: 64 6 32 32 (393216)
I0319 07:09:01.061075  6893 net.cpp:148] Top shape: 64 (64)
I0319 07:09:01.061081  6893 net.cpp:156] Memory required for data: 1573120
I0319 07:09:01.061097  6893 layer_factory.hpp:77] Creating layer slice_pair
I0319 07:09:01.061121  6893 net.cpp:91] Creating Layer slice_pair
I0319 07:09:01.061131  6893 net.cpp:425] slice_pair <- pair_data
I0319 07:09:01.061151  6893 net.cpp:399] slice_pair -> data
I0319 07:09:01.061177  6893 net.cpp:399] slice_pair -> data_p
I0319 07:09:01.061233  6893 net.cpp:141] Setting up slice_pair
I0319 07:09:01.061251  6893 net.cpp:148] Top shape: 64 3 32 32 (196608)
I0319 07:09:01.061259  6893 net.cpp:148] Top shape: 64 3 32 32 (196608)
I0319 07:09:01.061264  6893 net.cpp:156] Memory required for data: 3145984
I0319 07:09:01.061269  6893 layer_factory.hpp:77] Creating layer conv1
I0319 07:09:01.061301  6893 net.cpp:91] Creating Layer conv1
I0319 07:09:01.061311  6893 net.cpp:425] conv1 <- data
I0319 07:09:01.061322  6893 net.cpp:399] conv1 -> conv1
I0319 07:09:01.063104  6898 blocking_queue.cpp:50] Waiting for data
I0319 07:09:01.267627  6893 net.cpp:141] Setting up conv1
I0319 07:09:01.267683  6893 net.cpp:148] Top shape: 64 20 28 28 (1003520)
I0319 07:09:01.267690  6893 net.cpp:156] Memory required for data: 7160064
I0319 07:09:01.267719  6893 layer_factory.hpp:77] Creating layer pool1
I0319 07:09:01.267740  6893 net.cpp:91] Creating Layer pool1
I0319 07:09:01.267747  6893 net.cpp:425] pool1 <- conv1
I0319 07:09:01.267756  6893 net.cpp:399] pool1 -> pool1
I0319 07:09:01.267835  6893 net.cpp:141] Setting up pool1
I0319 07:09:01.267854  6893 net.cpp:148] Top shape: 64 20 14 14 (250880)
I0319 07:09:01.267860  6893 net.cpp:156] Memory required for data: 8163584
I0319 07:09:01.267866  6893 layer_factory.hpp:77] Creating layer conv2
I0319 07:09:01.267886  6893 net.cpp:91] Creating Layer conv2
I0319 07:09:01.267900  6893 net.cpp:425] conv2 <- pool1
I0319 07:09:01.267910  6893 net.cpp:399] conv2 -> conv2
I0319 07:09:01.269482  6893 net.cpp:141] Setting up conv2
I0319 07:09:01.269505  6893 net.cpp:148] Top shape: 64 50 10 10 (320000)
I0319 07:09:01.269511  6893 net.cpp:156] Memory required for data: 9443584
I0319 07:09:01.269523  6893 layer_factory.hpp:77] Creating layer pool2
I0319 07:09:01.269533  6893 net.cpp:91] Creating Layer pool2
I0319 07:09:01.269538  6893 net.cpp:425] pool2 <- conv2
I0319 07:09:01.269546  6893 net.cpp:399] pool2 -> pool2
I0319 07:09:01.269590  6893 net.cpp:141] Setting up pool2
I0319 07:09:01.269616  6893 net.cpp:148] Top shape: 64 50 5 5 (80000)
I0319 07:09:01.269623  6893 net.cpp:156] Memory required for data: 9763584
I0319 07:09:01.269632  6893 layer_factory.hpp:77] Creating layer ip2
I0319 07:09:01.269649  6893 net.cpp:91] Creating Layer ip2
I0319 07:09:01.269654  6893 net.cpp:425] ip2 <- pool2
I0319 07:09:01.269666  6893 net.cpp:399] ip2 -> ip2
I0319 07:09:01.270453  6893 net.cpp:141] Setting up ip2
I0319 07:09:01.270476  6893 net.cpp:148] Top shape: 64 10 (640)
I0319 07:09:01.270481  6893 net.cpp:156] Memory required for data: 9766144
I0319 07:09:01.270493  6893 layer_factory.hpp:77] Creating layer feat
I0319 07:09:01.270504  6893 net.cpp:91] Creating Layer feat
I0319 07:09:01.270509  6893 net.cpp:425] feat <- ip2
I0319 07:09:01.270519  6893 net.cpp:399] feat -> feat
I0319 07:09:01.270623  6893 net.cpp:141] Setting up feat
I0319 07:09:01.270640  6893 net.cpp:148] Top shape: 64 2 (128)
I0319 07:09:01.270647  6893 net.cpp:156] Memory required for data: 9766656
I0319 07:09:01.270654  6893 layer_factory.hpp:77] Creating layer conv1_p
I0319 07:09:01.270668  6893 net.cpp:91] Creating Layer conv1_p
I0319 07:09:01.270674  6893 net.cpp:425] conv1_p <- data_p
I0319 07:09:01.270684  6893 net.cpp:399] conv1_p -> conv1_p
I0319 07:09:01.271462  6893 net.cpp:141] Setting up conv1_p
I0319 07:09:01.271484  6893 net.cpp:148] Top shape: 64 20 28 28 (1003520)
I0319 07:09:01.271491  6893 net.cpp:156] Memory required for data: 13780736
I0319 07:09:01.271499  6893 net.cpp:484] Sharing parameters 'conv1_w' owned by layer 'conv1', param index 0
I0319 07:09:01.271507  6893 net.cpp:484] Sharing parameters 'conv1_b' owned by layer 'conv1', param index 1
I0319 07:09:01.271512  6893 layer_factory.hpp:77] Creating layer pool1_p
I0319 07:09:01.271520  6893 net.cpp:91] Creating Layer pool1_p
I0319 07:09:01.271526  6893 net.cpp:425] pool1_p <- conv1_p
I0319 07:09:01.271535  6893 net.cpp:399] pool1_p -> pool1_p
I0319 07:09:01.271584  6893 net.cpp:141] Setting up pool1_p
I0319 07:09:01.271600  6893 net.cpp:148] Top shape: 64 20 14 14 (250880)
I0319 07:09:01.271605  6893 net.cpp:156] Memory required for data: 14784256
I0319 07:09:01.271611  6893 layer_factory.hpp:77] Creating layer conv2_p
I0319 07:09:01.271625  6893 net.cpp:91] Creating Layer conv2_p
I0319 07:09:01.271631  6893 net.cpp:425] conv2_p <- pool1_p
I0319 07:09:01.271639  6893 net.cpp:399] conv2_p -> conv2_p
I0319 07:09:01.272683  6893 net.cpp:141] Setting up conv2_p
I0319 07:09:01.272706  6893 net.cpp:148] Top shape: 64 50 10 10 (320000)
I0319 07:09:01.272712  6893 net.cpp:156] Memory required for data: 16064256
I0319 07:09:01.272719  6893 net.cpp:484] Sharing parameters 'conv2_w' owned by layer 'conv2', param index 0
I0319 07:09:01.272727  6893 net.cpp:484] Sharing parameters 'conv2_b' owned by layer 'conv2', param index 1
I0319 07:09:01.272732  6893 layer_factory.hpp:77] Creating layer pool2_p
I0319 07:09:01.272740  6893 net.cpp:91] Creating Layer pool2_p
I0319 07:09:01.272747  6893 net.cpp:425] pool2_p <- conv2_p
I0319 07:09:01.272754  6893 net.cpp:399] pool2_p -> pool2_p
I0319 07:09:01.272800  6893 net.cpp:141] Setting up pool2_p
I0319 07:09:01.272820  6893 net.cpp:148] Top shape: 64 50 5 5 (80000)
I0319 07:09:01.272826  6893 net.cpp:156] Memory required for data: 16384256
I0319 07:09:01.272831  6893 layer_factory.hpp:77] Creating layer ip2_p
I0319 07:09:01.272842  6893 net.cpp:91] Creating Layer ip2_p
I0319 07:09:01.272848  6893 net.cpp:425] ip2_p <- pool2_p
I0319 07:09:01.272863  6893 net.cpp:399] ip2_p -> ip2_p
I0319 07:09:01.273077  6893 net.cpp:141] Setting up ip2_p
I0319 07:09:01.273093  6893 net.cpp:148] Top shape: 64 10 (640)
I0319 07:09:01.273099  6893 net.cpp:156] Memory required for data: 16386816
I0319 07:09:01.273105  6893 net.cpp:484] Sharing parameters 'ip2_w' owned by layer 'ip2', param index 0
I0319 07:09:01.273111  6893 net.cpp:484] Sharing parameters 'ip2_b' owned by layer 'ip2', param index 1
I0319 07:09:01.273118  6893 layer_factory.hpp:77] Creating layer feat_p
I0319 07:09:01.273128  6893 net.cpp:91] Creating Layer feat_p
I0319 07:09:01.273133  6893 net.cpp:425] feat_p <- ip2_p
I0319 07:09:01.273144  6893 net.cpp:399] feat_p -> feat_p
I0319 07:09:01.273252  6893 net.cpp:141] Setting up feat_p
I0319 07:09:01.273268  6893 net.cpp:148] Top shape: 64 2 (128)
I0319 07:09:01.273274  6893 net.cpp:156] Memory required for data: 16387328
I0319 07:09:01.273280  6893 net.cpp:484] Sharing parameters 'feat_w' owned by layer 'feat', param index 0
I0319 07:09:01.273300  6893 net.cpp:484] Sharing parameters 'feat_b' owned by layer 'feat', param index 1
I0319 07:09:01.273306  6893 layer_factory.hpp:77] Creating layer loss
I0319 07:09:01.273320  6893 net.cpp:91] Creating Layer loss
…
I0319 07:09:01.274458  6893 solver.cpp:181] Creating test net (#0) specified by net file: ./siamese_lenet_train.prototxt
I0319 07:09:01.274520  6893 net.cpp:313] The NetState phase (1) differed from the phase (0) specified by a rule in layer pair_data
I0319 07:09:01.274708  6893 net.cpp:49] Initializing net from parameters: 
name: "mnist_siamese_train_test"
state {
  phase: TEST
}
layer {
  name: "pair_data"
  type: "Data"
  top: "pair_data"
  top: "sim"
  include {
    phase: TEST
  }
  transform_param {
    scale: 0.00390625
    crop_size: 32
  }
  data_param {
    source: "/home/ubuntu/fyp/data/data-fyp/siamese_test_leveldb"
    batch_size: 100
  }
}
layer {
  name: "slice_pair"
  type: "Slice"
  bottom: "pair_data"
  top: "data"
  top: "data_p"
  slice_param {
    slice_dim: 1
    slice_point: 3
  }
}
layer {
  name: "conv1"
  type: "Convolution"
  bottom: "data"
  top: "conv1"
  param {
    name: "conv1_w"
    lr_mult: 1
  }
  param {
    name: "conv1_b"
    lr_mult: 2
  }
  convolution_param {
    num_output: 20
    kernel_size: 5
    stride: 1
    weight_filler {
      type: "xavier"
    }
    bias_filler {
      type: "constant"
    }
  }
}
layer {
  name: "pool1"
  type: "Pooling"
  bottom: "conv1"
  top: "pool1"
  pooling_param {
    pool: MAX
    kernel_size: 2
    stride: 2
  }
}
layer {
  name: "conv2"
  type: "Convolution"
  bottom: "pool1"
  top: "conv2"
  param {
    name: "conv2_w"
    lr_mult: 1
  }
  param {
    name: "conv2_b"
    lr_mult: 2
  }
  convolution_param {
    num_output: 50
    kernel_size: 5
    stride: 1
    weight_filler {
      type: "xavier"
    }
    bias_filler {
      type: "constant"
    }
  }
}
layer {
  name: "pool2"
  type: "Pooling"
  bottom: "conv2"
  top: "pool2"
  pooling_param {
    pool: MAX
    kernel_size: 2
    stride: 2
  }
}
layer {
  name: "ip2"
  type: "InnerProduct"
  bottom: "pool2"
  top: "ip2"
  param {
    name: "ip2_w"
    lr_mult: 1
  }
  param {
    name: "ip2_b"
    lr_mult: 2
  }
  inner_product_param {
    num_output: 10
    weight_filler {
      type: "xavier"
    }
    bias_filler {
      type: "constant"
    }
  }
}
layer {
  name: "feat"
  type: "InnerProduct"
  bottom: "ip2"
  top: "feat"
  param {
    name: "feat_w"
    lr_mult: 1
  }
  param {
    name: "feat_b"
    lr_mult: 2
  }
  inner_product_param {
    num_output: 2
    weight_filler {
      type: "xavier"
    }
    bias_filler {
      type: "constant"
    }
  }
}
layer {
  name: "conv1_p"
  type: "Convolution"
  bottom: "data_p"
  top: "conv1_p"
  param {
    name: "conv1_w"
    lr_mult: 1
  }
  param {
    name: "conv1_b"
    lr_mult: 2
  }
  convolution_param {
    num_output: 20
    kernel_size: 5
    stride: 1
    weight_filler {
      type: "xavier"
    }
    bias_filler {
      type: "constant"
    }
  }
}
layer {
  name: "pool1_p"
  type: "Pooling"
  bottom: "conv1_p"
  top: "pool1_p"
  pooling_param {
    pool: MAX
    kernel_size: 2
    stride: 2
  }
}
layer {
  name: "conv2_p"
  type: "Convolution"
  bottom: "pool1_p"
  top: "conv2_p"
  param {
    name: "conv2_w"
    lr_mult: 1
  }
  param {
    name: "conv2_b"
    lr_mult: 2
  }
  convolution_param {
    num_output: 50
    kernel_size: 5
    stride: 1
    weight_filler {
      type: "xavier"
    }
    bias_filler {
      type: "constant"
    }
  }
}
layer {
  name: "pool2_p"
  type: "Pooling"
  bottom: "conv2_p"
  top: "pool2_p"
  pooling_param {
    pool: MAX
    kernel_size: 2
    stride: 2
  }
}
layer {
  name: "ip2_p"
  type: "InnerProduct"
  bottom: "pool2_p"
  top: "ip2_p"
  param {
    name: "ip2_w"
    lr_mult: 1
  }
  param {
    name: "ip2_b"
    lr_mult: 2
  }
  inner_product_param {
    num_output: 10
    weight_filler {
      type: "xavier"
    }
    bias_filler {
      type: "constant"
    }
  }
}
layer {
  name: "feat_p"
  type: "InnerProduct"
  bottom: "ip2_p"
  top: "feat_p"
  param {
    name: "feat_w"
    lr_mult: 1
  }
  param {
    name: "feat_b"
    lr_mult: 2
  }
  inner_product_param {
    num_output: 2
    weight_filler {
      type: "xavier"
    }
    bias_filler {
      type: "constant"
    }
  }
}
layer {
  name: "siamese_accuracy"
  type: "SiameseAccuracy"
  bottom: "feat"
  bottom: "feat_p"
  bottom: "sim"
  top: "siamese_accuracy"
  include {
    phase: TEST
  }
}
layer {
  name: "loss"
  type: "ContrastiveLoss"
  bottom: "feat"
  bottom: "feat_p"
  bottom: "sim"
  top: "loss"
  contrastive_loss_param {
    margin: 10
  }
}
I0319 07:09:01.274850  6893 layer_factory.hpp:77] Creating layer pair_data
I0319 07:09:01.275001  6893 net.cpp:91] Creating Layer pair_data
I0319 07:09:01.275013  6893 net.cpp:399] pair_data -> pair_data
I0319 07:09:01.275025  6893 net.cpp:399] pair_data -> sim
I0319 07:09:01.285154  6899 db_leveldb.cpp:18] Opened leveldb /home/ubuntu/fyp/data/data-fyp/siamese_test_leveldb
I0319 07:09:01.287362  6893 data_layer.cpp:41] output data size: 100,6,32,32
I0319 07:09:01.293509  6893 net.cpp:141] Setting up pair_data
I0319 07:09:01.293550  6893 net.cpp:148] Top shape: 100 6 32 32 (614400)
I0319 07:09:01.293560  6893 net.cpp:148] Top shape: 100 (100)
I0319 07:09:01.293565  6893 net.cpp:156] Memory required for data: 2458000
I0319 07:09:01.293573  6893 layer_factory.hpp:77] Creating layer sim_pair_data_1_split
I0319 07:09:01.293686  6893 net.cpp:91] Creating Layer sim_pair_data_1_split
I0319 07:09:01.293701  6893 net.cpp:425] sim_pair_data_1_split <- sim
I0319 07:09:01.293717  6893 net.cpp:399] sim_pair_data_1_split -> sim_pair_data_1_split_0
I0319 07:09:01.293733  6893 net.cpp:399] sim_pair_data_1_split -> sim_pair_data_1_split_1
I0319 07:09:01.293871  6893 net.cpp:141] Setting up sim_pair_data_1_split
I0319 07:09:01.293889  6893 net.cpp:148] Top shape: 100 (100)
I0319 07:09:01.293895  6893 net.cpp:148] Top shape: 100 (100)
I0319 07:09:01.293900  6893 net.cpp:156] Memory required for data: 2458800
I0319 07:09:01.293905  6893 layer_factory.hpp:77] Creating layer slice_pair
I0319 07:09:01.293918  6893 net.cpp:91] Creating Layer slice_pair
I0319 07:09:01.293923  6893 net.cpp:425] slice_pair <- pair_data
I0319 07:09:01.293936  6893 net.cpp:399] slice_pair -> data
I0319 07:09:01.293947  6893 net.cpp:399] slice_pair -> data_p
I0319 07:09:01.294029  6893 net.cpp:141] Setting up slice_pair
I0319 07:09:01.294047  6893 net.cpp:148] Top shape: 100 3 32 32 (307200)
I0319 07:09:01.294054  6893 net.cpp:148] Top shape: 100 3 32 32 (307200)
I0319 07:09:01.294059  6893 net.cpp:156] Memory required for data: 4916400
I0319 07:09:01.294064  6893 layer_factory.hpp:77] Creating layer conv1
I0319 07:09:01.294085  6893 net.cpp:91] Creating Layer conv1
I0319 07:09:01.294090  6893 net.cpp:425] conv1 <- data
I0319 07:09:01.294101  6893 net.cpp:399] conv1 -> conv1
I0319 07:09:01.295678  6893 net.cpp:141] Setting up conv1
I0319 07:09:01.295702  6893 net.cpp:148] Top shape: 100 20 28 28 (1568000)
I0319 07:09:01.295708  6893 net.cpp:156] Memory required for data: 11188400
I0319 07:09:01.295722  6893 layer_factory.hpp:77] Creating layer pool1
I0319 07:09:01.295737  6893 net.cpp:91] Creating Layer pool1
I0319 07:09:01.295742  6893 net.cpp:425] pool1 <- conv1
I0319 07:09:01.295749  6893 net.cpp:399] pool1 -> pool1
I0319 07:09:01.295802  6893 net.cpp:141] Setting up pool1
I0319 07:09:01.295819  6893 net.cpp:148] Top shape: 100 20 14 14 (392000)
I0319 07:09:01.295825  6893 net.cpp:156] Memory required for data: 12756400
I0319 07:09:01.295830  6893 layer_factory.hpp:77] Creating layer conv2
I0319 07:09:01.295845  6893 net.cpp:91] Creating Layer conv2
I0319 07:09:01.295853  6893 net.cpp:425] conv2 <- pool1
I0319 07:09:01.295864  6893 net.cpp:399] conv2 -> conv2
I0319 07:09:01.297148  6893 net.cpp:141] Setting up conv2
I0319 07:09:01.297171  6893 net.cpp:148] Top shape: 100 50 10 10 (500000)
I0319 07:09:01.297178  6893 net.cpp:156] Memory required for data: 14756400
I0319 07:09:01.297188  6893 layer_factory.hpp:77] Creating layer pool2
I0319 07:09:01.297200  6893 net.cpp:91] Creating Layer pool2
I0319 07:09:01.297206  6893 net.cpp:425] pool2 <- conv2
I0319 07:09:01.297214  6893 net.cpp:399] pool2 -> pool2
I0319 07:09:01.297269  6893 net.cpp:141] Setting up pool2
I0319 07:09:01.297287  6893 net.cpp:148] Top shape: 100 50 5 5 (125000)
I0319 07:09:01.297292  6893 net.cpp:156] Memory required for data: 15256400
I0319 07:09:01.297297  6893 layer_factory.hpp:77] Creating layer ip2
I0319 07:09:01.297312  6893 net.cpp:91] Creating Layer ip2
I0319 07:09:01.297317  6893 net.cpp:425] ip2 <- pool2
I0319 07:09:01.297325  6893 net.cpp:399] ip2 -> ip2
I0319 07:09:01.297564  6893 net.cpp:141] Setting up ip2
I0319 07:09:01.297581  6893 net.cpp:148] Top shape: 100 10 (1000)
I0319 07:09:01.297586  6893 net.cpp:156] Memory required for data: 15260400
I0319 07:09:01.297597  6893 layer_factory.hpp:77] Creating layer feat
I0319 07:09:01.297611  6893 net.cpp:91] Creating Layer feat
I0319 07:09:01.297621  6893 net.cpp:425] feat <- ip2
I0319 07:09:01.297650  6893 net.cpp:399] feat -> feat
I0319 07:09:01.297775  6893 net.cpp:141] Setting up feat
I0319 07:09:01.297794  6893 net.cpp:148] Top shape: 100 2 (200)
I0319 07:09:01.297801  6893 net.cpp:156] Memory required for data: 15261200
I0319 07:09:01.297808  6893 layer_factory.hpp:77] Creating layer feat_feat_0_split
I0319 07:09:01.297816  6893 net.cpp:91] Creating Layer feat_feat_0_split
I0319 07:09:01.297821  6893 net.cpp:425] feat_feat_0_split <- feat
I0319 07:09:01.297828  6893 net.cpp:399] feat_feat_0_split -> feat_feat_0_split_0
I0319 07:09:01.297837  6893 net.cpp:399] feat_feat_0_split -> feat_feat_0_split_1
I0319 07:09:01.297886  6893 net.cpp:141] Setting up feat_feat_0_split
I0319 07:09:01.297904  6893 net.cpp:148] Top shape: 100 2 (200)
I0319 07:09:01.297910  6893 net.cpp:148] Top shape: 100 2 (200)
I0319 07:09:01.297914  6893 net.cpp:156] Memory required for data: 15262800
I0319 07:09:01.297919  6893 layer_factory.hpp:77] Creating layer conv1_p
I0319 07:09:01.297935  6893 net.cpp:91] Creating Layer conv1_p
I0319 07:09:01.297940  6893 net.cpp:425] conv1_p <- data_p
I0319 07:09:01.297951  6893 net.cpp:399] conv1_p -> conv1_p
I0319 07:09:01.298912  6893 net.cpp:141] Setting up conv1_p
I0319 07:09:01.298935  6893 net.cpp:148] Top shape: 100 20 28 28 (1568000)
I0319 07:09:01.298941  6893 net.cpp:156] Memory required for data: 21534800
I0319 07:09:01.298964  6893 net.cpp:484] Sharing parameters 'conv1_w' owned by layer 'conv1', param index 0
I0319 07:09:01.298971  6893 net.cpp:484] Sharing parameters 'conv1_b' owned by layer 'conv1', param index 1
I0319 07:09:01.298976  6893 layer_factory.hpp:77] Creating layer pool1_p
I0319 07:09:01.298985  6893 net.cpp:91] Creating Layer pool1_p
I0319 07:09:01.298990  6893 net.cpp:425] pool1_p <- conv1_p
I0319 07:09:01.298997  6893 net.cpp:399] pool1_p -> pool1_p
I0319 07:09:01.299052  6893 net.cpp:141] Setting up pool1_p
I0319 07:09:01.299068  6893 net.cpp:148] Top shape: 100 20 14 14 (392000)
I0319 07:09:01.299074  6893 net.cpp:156] Memory required for data: 23102800
I0319 07:09:01.299079  6893 layer_factory.hpp:77] Creating layer conv2_p
I0319 07:09:01.299095  6893 net.cpp:91] Creating Layer conv2_p
I0319 07:09:01.299101  6893 net.cpp:425] conv2_p <- pool1_p
I0319 07:09:01.299118  6893 net.cpp:399] conv2_p -> conv2_p
I0319 07:09:01.300210  6893 net.cpp:141] Setting up conv2_p
I0319 07:09:01.300235  6893 net.cpp:148] Top shape: 100 50 10 10 (500000)
I0319 07:09:01.300241  6893 net.cpp:156] Memory required for data: 25102800
I0319 07:09:01.300248  6893 net.cpp:484] Sharing parameters 'conv2_w' owned by layer 'conv2', param index 0
I0319 07:09:01.300254  6893 net.cpp:484] Sharing parameters 'conv2_b' owned by layer 'conv2', param index 1
I0319 07:09:01.300261  6893 layer_factory.hpp:77] Creating layer pool2_p
I0319 07:09:01.300268  6893 net.cpp:91] Creating Layer pool2_p
I0319 07:09:01.300274  6893 net.cpp:425] pool2_p <- conv2_p
I0319 07:09:01.300282  6893 net.cpp:399] pool2_p -> pool2_p
I0319 07:09:01.300360  6893 net.cpp:141] Setting up pool2_p
I0319 07:09:01.300379  6893 net.cpp:148] Top shape: 100 50 5 5 (125000)
I0319 07:09:01.300384  6893 net.cpp:156] Memory required for data: 25602800
I0319 07:09:01.300389  6893 layer_factory.hpp:77] Creating layer ip2_p
I0319 07:09:01.300401  6893 net.cpp:91] Creating Layer ip2_p
I0319 07:09:01.300407  6893 net.cpp:425] ip2_p <- pool2_p
I0319 07:09:01.300416  6893 net.cpp:399] ip2_p -> ip2_p
I0319 07:09:01.300634  6893 net.cpp:141] Setting up ip2_p
I0319 07:09:01.300652  6893 net.cpp:148] Top shape: 100 10 (1000)
I0319 07:09:01.300657  6893 net.cpp:156] Memory required for data: 25606800
I0319 07:09:01.300663  6893 net.cpp:484] Sharing parameters 'ip2_w' owned by layer 'ip2', param index 0
I0319 07:09:01.300669  6893 net.cpp:484] Sharing parameters 'ip2_b' owned by layer 'ip2', param index 1
I0319 07:09:01.300674  6893 layer_factory.hpp:77] Creating layer feat_p
I0319 07:09:01.300686  6893 net.cpp:91] Creating Layer feat_p
I0319 07:09:01.300693  6893 net.cpp:425] feat_p <- ip2_p
I0319 07:09:01.300700  6893 net.cpp:399] feat_p -> feat_p
I0319 07:09:01.300817  6893 net.cpp:141] Setting up feat_p
I0319 07:09:01.300834  6893 net.cpp:148] Top shape: 100 2 (200)
I0319 07:09:01.300839  6893 net.cpp:156] Memory required for data: 25607600
I0319 07:09:01.300845  6893 net.cpp:484] Sharing parameters 'feat_w' owned by layer 'feat', param index 0
I0319 07:09:01.300854  6893 net.cpp:484] Sharing parameters 'feat_b' owned by layer 'feat', param index 1
I0319 07:09:01.300859  6893 layer_factory.hpp:77] Creating layer feat_p_feat_p_0_split
I0319 07:09:01.300873  6893 net.cpp:91] Creating Layer feat_p_feat_p_0_split
I0319 07:09:01.300881  6893 net.cpp:425] feat_p_feat_p_0_split <- feat_p
I0319 07:09:01.300889  6893 net.cpp:399] feat_p_feat_p_0_split -> feat_p_feat_p_0_split_0
I0319 07:09:01.300899  6893 net.cpp:399] feat_p_feat_p_0_split -> feat_p_feat_p_0_split_1
I0319 07:09:01.300943  6893 net.cpp:141] Setting up feat_p_feat_p_0_split
I0319 07:09:01.301017  6893 net.cpp:148] Top shape: 100 2 (200)
I0319 07:09:01.301033  6893 net.cpp:148] Top shape: 100 2 (200)
I0319 07:09:01.301038  6893 net.cpp:156] Memory required for data: 25609200
I0319 07:09:01.301043  6893 layer_factory.hpp:77] Creating layer siamese_accuracy
I0319 07:09:01.301065  6893 net.cpp:91] Creating Layer siamese_accuracy
I0319 07:09:01.301077  6893 net.cpp:425] siamese_accuracy <- feat_feat_0_split_0
I0319 07:09:01.301098  6893 net.cpp:425] siamese_accuracy <- feat_p_feat_p_0_split_0
…
