…
I0319 06:17:40.369954  6438 net.cpp:313] The NetState phase (0) differed from the phase (1) specified by a rule in layer pair_data
I0319 06:17:40.369997  6438 net.cpp:313] The NetState phase (0) differed from the phase (1) specified by a rule in layer siamese_accuracy
I0319 06:17:40.370182  6438 net.cpp:49] Initializing net from parameters: 
name: "mnist_siamese_train_test"
state {
  phase: TRAIN
}
layer {
  name: "pair_data"
  type: "Data"
  top: "pair_data"
  top: "sim"
  include {
    phase: TRAIN
  }
  transform_param {
    scale: 0.00390625
    crop_size: 32
  }
  data_param {
    source: "/home/ubuntu/fyp/data/data-fyp/siamese_train_leveldb"
    batch_size: 64
  }
}
layer {
  name: "slice_pair"
  type: "Slice"
  bottom: "pair_data"
  top: "data"
  top: "data_p"
  slice_param {
    slice_dim: 1
    slice_point: 3
  }
}
layer {
  name: "conv1"
  type: "Convolution"
  bottom: "data"
  top: "conv1"
  param {
    name: "conv1_w"
    lr_mult: 1
  }
  param {
    name: "conv1_b"
    lr_mult: 2
  }
  convolution_param {
    num_output: 20
    kernel_size: 5
    stride: 1
    weight_filler {
      type: "xavier"
    }
    bias_filler {
      type: "constant"
    }
  }
}
layer {
  name: "pool1"
  type: "Pooling"
  bottom: "conv1"
  top: "pool1"
  pooling_param {
    pool: MAX
    kernel_size: 2
    stride: 2
  }
}
layer {
  name: "conv2"
  type: "Convolution"
  bottom: "pool1"
  top: "conv2"
  param {
    name: "conv2_w"
    lr_mult: 1
  }
  param {
    name: "conv2_b"
    lr_mult: 2
  }
  convolution_param {
    num_output: 50
    kernel_size: 5
    stride: 1
    weight_filler {
      type: "xavier"
    }
    bias_filler {
      type: "constant"
    }
  }
}
layer {
  name: "pool2"
  type: "Pooling"
  bottom: "conv2"
  top: "pool2"
  pooling_param {
    pool: MAX
    kernel_size: 2
    stride: 2
  }
}
layer {
  name: "ip2"
  type: "InnerProduct"
  bottom: "pool2"
  top: "ip2"
  param {
    name: "ip2_w"
    lr_mult: 1
  }
  param {
    name: "ip2_b"
    lr_mult: 2
  }
  inner_product_param {
    num_output: 10
    weight_filler {
      type: "xavier"
    }
    bias_filler {
      type: "constant"
    }
  }
}
layer {
  name: "feat"
  type: "InnerProduct"
  bottom: "ip2"
  top: "feat"
  param {
    name: "feat_w"
    lr_mult: 1
  }
  param {
    name: "feat_b"
    lr_mult: 2
  }
  inner_product_param {
    num_output: 2
    weight_filler {
      type: "xavier"
    }
    bias_filler {
      type: "constant"
    }
  }
}
layer {
  name: "conv1_p"
  type: "Convolution"
  bottom: "data_p"
  top: "conv1_p"
  param {
    name: "conv1_w"
    lr_mult: 1
  }
  param {
    name: "conv1_b"
    lr_mult: 2
  }
  convolution_param {
    num_output: 20
    kernel_size: 5
    stride: 1
    weight_filler {
      type: "xavier"
    }
    bias_filler {
      type: "constant"
    }
  }
}
layer {
  name: "pool1_p"
  type: "Pooling"
  bottom: "conv1_p"
  top: "pool1_p"
  pooling_param {
    pool: MAX
    kernel_size: 2
    stride: 2
  }
}
layer {
  name: "conv2_p"
  type: "Convolution"
  bottom: "pool1_p"
  top: "conv2_p"
  param {
    name: "conv2_w"
    lr_mult: 1
  }
  param {
    name: "conv2_b"
    lr_mult: 2
  }
  convolution_param {
    num_output: 50
    kernel_size: 5
    stride: 1
    weight_filler {
      type: "xavier"
    }
    bias_filler {
      type: "constant"
    }
  }
}
layer {
  name: "pool2_p"
  type: "Pooling"
  bottom: "conv2_p"
  top: "pool2_p"
  pooling_param {
    pool: MAX
    kernel_size: 2
    stride: 2
  }
}
layer {
  name: "ip2_p"
  type: "InnerProduct"
  bottom: "pool2_p"
  top: "ip2_p"
  param {
    name: "ip2_w"
    lr_mult: 1
  }
  param {
    name: "ip2_b"
    lr_mult: 2
  }
  inner_product_param {
    num_output: 10
    weight_filler {
      type: "xavier"
    }
    bias_filler {
      type: "constant"
    }
  }
}
layer {
  name: "feat_p"
  type: "InnerProduct"
  bottom: "ip2_p"
  top: "feat_p"
  param {
    name: "feat_w"
    lr_mult: 1
  }
  param {
    name: "feat_b"
    lr_mult: 2
  }
  inner_product_param {
    num_output: 2
    weight_filler {
      type: "xavier"
    }
    bias_filler {
      type: "constant"
    }
  }
}
layer {
  name: "loss"
  type: "ContrastiveLoss"
  bottom: "feat"
  bottom: "feat_p"
  bottom: "sim"
  top: "loss"
  contrastive_loss_param {
    margin: 1
  }
}
I0319 06:17:40.370331  6438 layer_factory.hpp:77] Creating layer pair_data
I0319 06:17:40.371222  6438 net.cpp:91] Creating Layer pair_data
I0319 06:17:40.371249  6438 net.cpp:399] pair_data -> pair_data
I0319 06:17:40.371320  6438 net.cpp:399] pair_data -> sim
I0319 06:17:40.379026  6442 db_leveldb.cpp:18] Opened leveldb /home/ubuntu/fyp/data/data-fyp/siamese_train_leveldb
I0319 06:17:40.392863  6438 data_layer.cpp:41] output data size: 64,6,32,32
I0319 06:17:40.396702  6438 net.cpp:141] Setting up pair_data
I0319 06:17:40.396765  6438 net.cpp:148] Top shape: 64 6 32 32 (393216)
I0319 06:17:40.396782  6438 net.cpp:148] Top shape: 64 (64)
I0319 06:17:40.396788  6438 net.cpp:156] Memory required for data: 1573120
I0319 06:17:40.396803  6438 layer_factory.hpp:77] Creating layer slice_pair
I0319 06:17:40.396826  6438 net.cpp:91] Creating Layer slice_pair
I0319 06:17:40.396833  6438 net.cpp:425] slice_pair <- pair_data
I0319 06:17:40.396852  6438 net.cpp:399] slice_pair -> data
I0319 06:17:40.396869  6438 net.cpp:399] slice_pair -> data_p
I0319 06:17:40.396957  6438 net.cpp:141] Setting up slice_pair
I0319 06:17:40.396973  6438 net.cpp:148] Top shape: 64 3 32 32 (196608)
I0319 06:17:40.396981  6438 net.cpp:148] Top shape: 64 3 32 32 (196608)
I0319 06:17:40.396986  6438 net.cpp:156] Memory required for data: 3145984
I0319 06:17:40.396991  6438 layer_factory.hpp:77] Creating layer conv1
I0319 06:17:40.397023  6438 net.cpp:91] Creating Layer conv1
I0319 06:17:40.397030  6438 net.cpp:425] conv1 <- data
I0319 06:17:40.397040  6438 net.cpp:399] conv1 -> conv1
I0319 06:17:40.398759  6443 blocking_queue.cpp:50] Waiting for data
I0319 06:17:40.591220  6438 net.cpp:141] Setting up conv1
I0319 06:17:40.591274  6438 net.cpp:148] Top shape: 64 20 28 28 (1003520)
I0319 06:17:40.591280  6438 net.cpp:156] Memory required for data: 7160064
I0319 06:17:40.591327  6438 layer_factory.hpp:77] Creating layer pool1
I0319 06:17:40.591362  6438 net.cpp:91] Creating Layer pool1
I0319 06:17:40.591377  6438 net.cpp:425] pool1 <- conv1
I0319 06:17:40.591387  6438 net.cpp:399] pool1 -> pool1
I0319 06:17:40.591471  6438 net.cpp:141] Setting up pool1
I0319 06:17:40.591488  6438 net.cpp:148] Top shape: 64 20 14 14 (250880)
I0319 06:17:40.591495  6438 net.cpp:156] Memory required for data: 8163584
I0319 06:17:40.591500  6438 layer_factory.hpp:77] Creating layer conv2
I0319 06:17:40.591521  6438 net.cpp:91] Creating Layer conv2
I0319 06:17:40.591532  6438 net.cpp:425] conv2 <- pool1
I0319 06:17:40.591542  6438 net.cpp:399] conv2 -> conv2
I0319 06:17:40.593238  6438 net.cpp:141] Setting up conv2
I0319 06:17:40.593262  6438 net.cpp:148] Top shape: 64 50 10 10 (320000)
I0319 06:17:40.593268  6438 net.cpp:156] Memory required for data: 9443584
I0319 06:17:40.593281  6438 layer_factory.hpp:77] Creating layer pool2
I0319 06:17:40.593292  6438 net.cpp:91] Creating Layer pool2
I0319 06:17:40.593298  6438 net.cpp:425] pool2 <- conv2
I0319 06:17:40.593305  6438 net.cpp:399] pool2 -> pool2
I0319 06:17:40.593375  6438 net.cpp:141] Setting up pool2
I0319 06:17:40.593394  6438 net.cpp:148] Top shape: 64 50 5 5 (80000)
I0319 06:17:40.593399  6438 net.cpp:156] Memory required for data: 9763584
I0319 06:17:40.593405  6438 layer_factory.hpp:77] Creating layer ip2
I0319 06:17:40.593420  6438 net.cpp:91] Creating Layer ip2
I0319 06:17:40.593428  6438 net.cpp:425] ip2 <- pool2
I0319 06:17:40.593441  6438 net.cpp:399] ip2 -> ip2
I0319 06:17:40.594199  6438 net.cpp:141] Setting up ip2
I0319 06:17:40.594221  6438 net.cpp:148] Top shape: 64 10 (640)
I0319 06:17:40.594226  6438 net.cpp:156] Memory required for data: 9766144
I0319 06:17:40.594238  6438 layer_factory.hpp:77] Creating layer feat
I0319 06:17:40.594251  6438 net.cpp:91] Creating Layer feat
I0319 06:17:40.594259  6438 net.cpp:425] feat <- ip2
I0319 06:17:40.594267  6438 net.cpp:399] feat -> feat
I0319 06:17:40.594391  6438 net.cpp:141] Setting up feat
I0319 06:17:40.594409  6438 net.cpp:148] Top shape: 64 2 (128)
I0319 06:17:40.594414  6438 net.cpp:156] Memory required for data: 9766656
I0319 06:17:40.594424  6438 layer_factory.hpp:77] Creating layer conv1_p
I0319 06:17:40.594444  6438 net.cpp:91] Creating Layer conv1_p
I0319 06:17:40.594455  6438 net.cpp:425] conv1_p <- data_p
I0319 06:17:40.594465  6438 net.cpp:399] conv1_p -> conv1_p
I0319 06:17:40.595320  6438 net.cpp:141] Setting up conv1_p
I0319 06:17:40.595345  6438 net.cpp:148] Top shape: 64 20 28 28 (1003520)
I0319 06:17:40.595350  6438 net.cpp:156] Memory required for data: 13780736
I0319 06:17:40.595366  6438 net.cpp:484] Sharing parameters 'conv1_w' owned by layer 'conv1', param index 0
I0319 06:17:40.595381  6438 net.cpp:484] Sharing parameters 'conv1_b' owned by layer 'conv1', param index 1
I0319 06:17:40.595387  6438 layer_factory.hpp:77] Creating layer pool1_p
I0319 06:17:40.595396  6438 net.cpp:91] Creating Layer pool1_p
I0319 06:17:40.595401  6438 net.cpp:425] pool1_p <- conv1_p
I0319 06:17:40.595412  6438 net.cpp:399] pool1_p -> pool1_p
I0319 06:17:40.595463  6438 net.cpp:141] Setting up pool1_p
I0319 06:17:40.595479  6438 net.cpp:148] Top shape: 64 20 14 14 (250880)
I0319 06:17:40.595484  6438 net.cpp:156] Memory required for data: 14784256
I0319 06:17:40.595489  6438 layer_factory.hpp:77] Creating layer conv2_p
I0319 06:17:40.595505  6438 net.cpp:91] Creating Layer conv2_p
I0319 06:17:40.595513  6438 net.cpp:425] conv2_p <- pool1_p
I0319 06:17:40.595522  6438 net.cpp:399] conv2_p -> conv2_p
I0319 06:17:40.596627  6438 net.cpp:141] Setting up conv2_p
I0319 06:17:40.596652  6438 net.cpp:148] Top shape: 64 50 10 10 (320000)
I0319 06:17:40.596658  6438 net.cpp:156] Memory required for data: 16064256
I0319 06:17:40.596665  6438 net.cpp:484] Sharing parameters 'conv2_w' owned by layer 'conv2', param index 0
I0319 06:17:40.596671  6438 net.cpp:484] Sharing parameters 'conv2_b' owned by layer 'conv2', param index 1
I0319 06:17:40.596676  6438 layer_factory.hpp:77] Creating layer pool2_p
I0319 06:17:40.596684  6438 net.cpp:91] Creating Layer pool2_p
I0319 06:17:40.596690  6438 net.cpp:425] pool2_p <- conv2_p
I0319 06:17:40.596698  6438 net.cpp:399] pool2_p -> pool2_p
I0319 06:17:40.596748  6438 net.cpp:141] Setting up pool2_p
I0319 06:17:40.596765  6438 net.cpp:148] Top shape: 64 50 5 5 (80000)
I0319 06:17:40.596771  6438 net.cpp:156] Memory required for data: 16384256
I0319 06:17:40.596776  6438 layer_factory.hpp:77] Creating layer ip2_p
I0319 06:17:40.596787  6438 net.cpp:91] Creating Layer ip2_p
I0319 06:17:40.596793  6438 net.cpp:425] ip2_p <- pool2_p
I0319 06:17:40.596801  6438 net.cpp:399] ip2_p -> ip2_p
I0319 06:17:40.597030  6438 net.cpp:141] Setting up ip2_p
I0319 06:17:40.597048  6438 net.cpp:148] Top shape: 64 10 (640)
I0319 06:17:40.597054  6438 net.cpp:156] Memory required for data: 16386816
I0319 06:17:40.597060  6438 net.cpp:484] Sharing parameters 'ip2_w' owned by layer 'ip2', param index 0
I0319 06:17:40.597066  6438 net.cpp:484] Sharing parameters 'ip2_b' owned by layer 'ip2', param index 1
I0319 06:17:40.597071  6438 layer_factory.hpp:77] Creating layer feat_p
I0319 06:17:40.597082  6438 net.cpp:91] Creating Layer feat_p
I0319 06:17:40.597088  6438 net.cpp:425] feat_p <- ip2_p
I0319 06:17:40.597096  6438 net.cpp:399] feat_p -> feat_p
I0319 06:17:40.597204  6438 net.cpp:141] Setting up feat_p
I0319 06:17:40.597221  6438 net.cpp:148] Top shape: 64 2 (128)
I0319 06:17:40.597228  6438 net.cpp:156] Memory required for data: 16387328
I0319 06:17:40.597232  6438 net.cpp:484] Sharing parameters 'feat_w' owned by layer 'feat', param index 0
I0319 06:17:40.597252  6438 net.cpp:484] Sharing parameters 'feat_b' owned by layer 'feat', param index 1
I0319 06:17:40.597259  6438 layer_factory.hpp:77] Creating layer loss
I0319 06:17:40.597273  6438 net.cpp:91] Creating Layer loss
…
I0319 06:17:40.598397  6438 solver.cpp:181] Creating test net (#0) specified by net file: ./siamese_lenet_train.prototxt
I0319 06:17:40.598467  6438 net.cpp:313] The NetState phase (1) differed from the phase (0) specified by a rule in layer pair_data
I0319 06:17:40.598656  6438 net.cpp:49] Initializing net from parameters: 
name: "mnist_siamese_train_test"
state {
  phase: TEST
}
layer {
  name: "pair_data"
  type: "Data"
  top: "pair_data"
  top: "sim"
  include {
    phase: TEST
  }
  transform_param {
    scale: 0.00390625
    crop_size: 32
  }
  data_param {
    source: "/home/ubuntu/fyp/data/data-fyp/siamese_test_leveldb"
    batch_size: 100
  }
}
layer {
  name: "slice_pair"
  type: "Slice"
  bottom: "pair_data"
  top: "data"
  top: "data_p"
  slice_param {
    slice_dim: 1
    slice_point: 3
  }
}
layer {
  name: "conv1"
  type: "Convolution"
  bottom: "data"
  top: "conv1"
  param {
    name: "conv1_w"
    lr_mult: 1
  }
  param {
    name: "conv1_b"
    lr_mult: 2
  }
  convolution_param {
    num_output: 20
    kernel_size: 5
    stride: 1
    weight_filler {
      type: "xavier"
    }
    bias_filler {
      type: "constant"
    }
  }
}
layer {
  name: "pool1"
  type: "Pooling"
  bottom: "conv1"
  top: "pool1"
  pooling_param {
    pool: MAX
    kernel_size: 2
    stride: 2
  }
}
layer {
  name: "conv2"
  type: "Convolution"
  bottom: "pool1"
  top: "conv2"
  param {
    name: "conv2_w"
    lr_mult: 1
  }
  param {
    name: "conv2_b"
    lr_mult: 2
  }
  convolution_param {
    num_output: 50
    kernel_size: 5
    stride: 1
    weight_filler {
      type: "xavier"
    }
    bias_filler {
      type: "constant"
    }
  }
}
layer {
  name: "pool2"
  type: "Pooling"
  bottom: "conv2"
  top: "pool2"
  pooling_param {
    pool: MAX
    kernel_size: 2
    stride: 2
  }
}
layer {
  name: "ip2"
  type: "InnerProduct"
  bottom: "pool2"
  top: "ip2"
  param {
    name: "ip2_w"
    lr_mult: 1
  }
  param {
    name: "ip2_b"
    lr_mult: 2
  }
  inner_product_param {
    num_output: 10
    weight_filler {
      type: "xavier"
    }
    bias_filler {
      type: "constant"
    }
  }
}
layer {
  name: "feat"
  type: "InnerProduct"
  bottom: "ip2"
  top: "feat"
  param {
    name: "feat_w"
    lr_mult: 1
  }
  param {
    name: "feat_b"
    lr_mult: 2
  }
  inner_product_param {
    num_output: 2
    weight_filler {
      type: "xavier"
    }
    bias_filler {
      type: "constant"
    }
  }
}
layer {
  name: "conv1_p"
  type: "Convolution"
  bottom: "data_p"
  top: "conv1_p"
  param {
    name: "conv1_w"
    lr_mult: 1
  }
  param {
    name: "conv1_b"
    lr_mult: 2
  }
  convolution_param {
    num_output: 20
    kernel_size: 5
    stride: 1
    weight_filler {
      type: "xavier"
    }
    bias_filler {
      type: "constant"
    }
  }
}
layer {
  name: "pool1_p"
  type: "Pooling"
  bottom: "conv1_p"
  top: "pool1_p"
  pooling_param {
    pool: MAX
    kernel_size: 2
    stride: 2
  }
}
layer {
  name: "conv2_p"
  type: "Convolution"
  bottom: "pool1_p"
  top: "conv2_p"
  param {
    name: "conv2_w"
    lr_mult: 1
  }
  param {
    name: "conv2_b"
    lr_mult: 2
  }
  convolution_param {
    num_output: 50
    kernel_size: 5
    stride: 1
    weight_filler {
      type: "xavier"
    }
    bias_filler {
      type: "constant"
    }
  }
}
layer {
  name: "pool2_p"
  type: "Pooling"
  bottom: "conv2_p"
  top: "pool2_p"
  pooling_param {
    pool: MAX
    kernel_size: 2
    stride: 2
  }
}
layer {
  name: "ip2_p"
  type: "InnerProduct"
  bottom: "pool2_p"
  top: "ip2_p"
  param {
    name: "ip2_w"
    lr_mult: 1
  }
  param {
    name: "ip2_b"
    lr_mult: 2
  }
  inner_product_param {
    num_output: 10
    weight_filler {
      type: "xavier"
    }
    bias_filler {
      type: "constant"
    }
  }
}
layer {
  name: "feat_p"
  type: "InnerProduct"
  bottom: "ip2_p"
  top: "feat_p"
  param {
    name: "feat_w"
    lr_mult: 1
  }
  param {
    name: "feat_b"
    lr_mult: 2
  }
  inner_product_param {
    num_output: 2
    weight_filler {
      type: "xavier"
    }
    bias_filler {
      type: "constant"
    }
  }
}
layer {
  name: "siamese_accuracy"
  type: "SiameseAccuracy"
  bottom: "feat"
  bottom: "feat_p"
  bottom: "sim"
  top: "siamese_accuracy"
  include {
    phase: TEST
  }
}
layer {
  name: "loss"
  type: "ContrastiveLoss"
  bottom: "feat"
  bottom: "feat_p"
  bottom: "sim"
  top: "loss"
  contrastive_loss_param {
    margin: 1
  }
}
I0319 06:17:40.598805  6438 layer_factory.hpp:77] Creating layer pair_data
I0319 06:17:40.598997  6438 net.cpp:91] Creating Layer pair_data
I0319 06:17:40.599020  6438 net.cpp:399] pair_data -> pair_data
I0319 06:17:40.599040  6438 net.cpp:399] pair_data -> sim
I0319 06:17:40.606201  6444 db_leveldb.cpp:18] Opened leveldb /home/ubuntu/fyp/data/data-fyp/siamese_test_leveldb
I0319 06:17:40.608438  6438 data_layer.cpp:41] output data size: 100,6,32,32
I0319 06:17:40.613937  6438 net.cpp:141] Setting up pair_data
I0319 06:17:40.613976  6438 net.cpp:148] Top shape: 100 6 32 32 (614400)
I0319 06:17:40.613983  6438 net.cpp:148] Top shape: 100 (100)
I0319 06:17:40.613988  6438 net.cpp:156] Memory required for data: 2458000
I0319 06:17:40.613998  6438 layer_factory.hpp:77] Creating layer sim_pair_data_1_split
I0319 06:17:40.614020  6438 net.cpp:91] Creating Layer sim_pair_data_1_split
I0319 06:17:40.614027  6438 net.cpp:425] sim_pair_data_1_split <- sim
I0319 06:17:40.614042  6438 net.cpp:399] sim_pair_data_1_split -> sim_pair_data_1_split_0
I0319 06:17:40.614059  6438 net.cpp:399] sim_pair_data_1_split -> sim_pair_data_1_split_1
I0319 06:17:40.614143  6438 net.cpp:141] Setting up sim_pair_data_1_split
I0319 06:17:40.614159  6438 net.cpp:148] Top shape: 100 (100)
I0319 06:17:40.614166  6438 net.cpp:148] Top shape: 100 (100)
I0319 06:17:40.614171  6438 net.cpp:156] Memory required for data: 2458800
I0319 06:17:40.614176  6438 layer_factory.hpp:77] Creating layer slice_pair
I0319 06:17:40.614188  6438 net.cpp:91] Creating Layer slice_pair
I0319 06:17:40.614198  6438 net.cpp:425] slice_pair <- pair_data
I0319 06:17:40.614209  6438 net.cpp:399] slice_pair -> data
I0319 06:17:40.614228  6438 net.cpp:399] slice_pair -> data_p
I0319 06:17:40.614310  6438 net.cpp:141] Setting up slice_pair
I0319 06:17:40.614327  6438 net.cpp:148] Top shape: 100 3 32 32 (307200)
I0319 06:17:40.614333  6438 net.cpp:148] Top shape: 100 3 32 32 (307200)
I0319 06:17:40.614338  6438 net.cpp:156] Memory required for data: 4916400
I0319 06:17:40.614343  6438 layer_factory.hpp:77] Creating layer conv1
I0319 06:17:40.614385  6438 net.cpp:91] Creating Layer conv1
I0319 06:17:40.614397  6438 net.cpp:425] conv1 <- data
I0319 06:17:40.614408  6438 net.cpp:399] conv1 -> conv1
I0319 06:17:40.615998  6438 net.cpp:141] Setting up conv1
I0319 06:17:40.616019  6438 net.cpp:148] Top shape: 100 20 28 28 (1568000)
I0319 06:17:40.616024  6438 net.cpp:156] Memory required for data: 11188400
I0319 06:17:40.616039  6438 layer_factory.hpp:77] Creating layer pool1
I0319 06:17:40.616055  6438 net.cpp:91] Creating Layer pool1
I0319 06:17:40.616060  6438 net.cpp:425] pool1 <- conv1
I0319 06:17:40.616068  6438 net.cpp:399] pool1 -> pool1
I0319 06:17:40.616125  6438 net.cpp:141] Setting up pool1
I0319 06:17:40.616143  6438 net.cpp:148] Top shape: 100 20 14 14 (392000)
I0319 06:17:40.616148  6438 net.cpp:156] Memory required for data: 12756400
I0319 06:17:40.616153  6438 layer_factory.hpp:77] Creating layer conv2
I0319 06:17:40.616168  6438 net.cpp:91] Creating Layer conv2
I0319 06:17:40.616174  6438 net.cpp:425] conv2 <- pool1
I0319 06:17:40.616185  6438 net.cpp:399] conv2 -> conv2
I0319 06:17:40.617477  6438 net.cpp:141] Setting up conv2
I0319 06:17:40.617501  6438 net.cpp:148] Top shape: 100 50 10 10 (500000)
I0319 06:17:40.617508  6438 net.cpp:156] Memory required for data: 14756400
I0319 06:17:40.617519  6438 layer_factory.hpp:77] Creating layer pool2
I0319 06:17:40.617532  6438 net.cpp:91] Creating Layer pool2
I0319 06:17:40.617537  6438 net.cpp:425] pool2 <- conv2
I0319 06:17:40.617545  6438 net.cpp:399] pool2 -> pool2
I0319 06:17:40.617604  6438 net.cpp:141] Setting up pool2
I0319 06:17:40.617620  6438 net.cpp:148] Top shape: 100 50 5 5 (125000)
I0319 06:17:40.617625  6438 net.cpp:156] Memory required for data: 15256400
I0319 06:17:40.617631  6438 layer_factory.hpp:77] Creating layer ip2
I0319 06:17:40.617645  6438 net.cpp:91] Creating Layer ip2
I0319 06:17:40.617651  6438 net.cpp:425] ip2 <- pool2
I0319 06:17:40.617660  6438 net.cpp:399] ip2 -> ip2
I0319 06:17:40.617924  6438 net.cpp:141] Setting up ip2
I0319 06:17:40.617944  6438 net.cpp:148] Top shape: 100 10 (1000)
I0319 06:17:40.617949  6438 net.cpp:156] Memory required for data: 15260400
I0319 06:17:40.617960  6438 layer_factory.hpp:77] Creating layer feat
I0319 06:17:40.617974  6438 net.cpp:91] Creating Layer feat
I0319 06:17:40.617980  6438 net.cpp:425] feat <- ip2
I0319 06:17:40.617993  6438 net.cpp:399] feat -> feat
I0319 06:17:40.618106  6438 net.cpp:141] Setting up feat
I0319 06:17:40.618124  6438 net.cpp:148] Top shape: 100 2 (200)
I0319 06:17:40.618129  6438 net.cpp:156] Memory required for data: 15261200
I0319 06:17:40.618137  6438 layer_factory.hpp:77] Creating layer feat_feat_0_split
I0319 06:17:40.618146  6438 net.cpp:91] Creating Layer feat_feat_0_split
I0319 06:17:40.618151  6438 net.cpp:425] feat_feat_0_split <- feat
I0319 06:17:40.618158  6438 net.cpp:399] feat_feat_0_split -> feat_feat_0_split_0
I0319 06:17:40.618166  6438 net.cpp:399] feat_feat_0_split -> feat_feat_0_split_1
I0319 06:17:40.618213  6438 net.cpp:141] Setting up feat_feat_0_split
I0319 06:17:40.618230  6438 net.cpp:148] Top shape: 100 2 (200)
I0319 06:17:40.618237  6438 net.cpp:148] Top shape: 100 2 (200)
I0319 06:17:40.618242  6438 net.cpp:156] Memory required for data: 15262800
I0319 06:17:40.618247  6438 layer_factory.hpp:77] Creating layer conv1_p
I0319 06:17:40.618261  6438 net.cpp:91] Creating Layer conv1_p
I0319 06:17:40.618268  6438 net.cpp:425] conv1_p <- data_p
I0319 06:17:40.618278  6438 net.cpp:399] conv1_p -> conv1_p
I0319 06:17:40.619282  6438 net.cpp:141] Setting up conv1_p
I0319 06:17:40.619305  6438 net.cpp:148] Top shape: 100 20 28 28 (1568000)
I0319 06:17:40.619313  6438 net.cpp:156] Memory required for data: 21534800
I0319 06:17:40.619338  6438 net.cpp:484] Sharing parameters 'conv1_w' owned by layer 'conv1', param index 0
I0319 06:17:40.619344  6438 net.cpp:484] Sharing parameters 'conv1_b' owned by layer 'conv1', param index 1
I0319 06:17:40.619349  6438 layer_factory.hpp:77] Creating layer pool1_p
I0319 06:17:40.619359  6438 net.cpp:91] Creating Layer pool1_p
I0319 06:17:40.619364  6438 net.cpp:425] pool1_p <- conv1_p
I0319 06:17:40.619371  6438 net.cpp:399] pool1_p -> pool1_p
I0319 06:17:40.619436  6438 net.cpp:141] Setting up pool1_p
I0319 06:17:40.619454  6438 net.cpp:148] Top shape: 100 20 14 14 (392000)
I0319 06:17:40.619459  6438 net.cpp:156] Memory required for data: 23102800
I0319 06:17:40.619464  6438 layer_factory.hpp:77] Creating layer conv2_p
I0319 06:17:40.619482  6438 net.cpp:91] Creating Layer conv2_p
I0319 06:17:40.619487  6438 net.cpp:425] conv2_p <- pool1_p
I0319 06:17:40.619498  6438 net.cpp:399] conv2_p -> conv2_p
I0319 06:17:40.620651  6438 net.cpp:141] Setting up conv2_p
I0319 06:17:40.620676  6438 net.cpp:148] Top shape: 100 50 10 10 (500000)
I0319 06:17:40.620682  6438 net.cpp:156] Memory required for data: 25102800
I0319 06:17:40.620689  6438 net.cpp:484] Sharing parameters 'conv2_w' owned by layer 'conv2', param index 0
I0319 06:17:40.620695  6438 net.cpp:484] Sharing parameters 'conv2_b' owned by layer 'conv2', param index 1
I0319 06:17:40.620702  6438 layer_factory.hpp:77] Creating layer pool2_p
I0319 06:17:40.620709  6438 net.cpp:91] Creating Layer pool2_p
I0319 06:17:40.620715  6438 net.cpp:425] pool2_p <- conv2_p
I0319 06:17:40.620723  6438 net.cpp:399] pool2_p -> pool2_p
I0319 06:17:40.620782  6438 net.cpp:141] Setting up pool2_p
I0319 06:17:40.620800  6438 net.cpp:148] Top shape: 100 50 5 5 (125000)
I0319 06:17:40.620805  6438 net.cpp:156] Memory required for data: 25602800
I0319 06:17:40.620810  6438 layer_factory.hpp:77] Creating layer ip2_p
I0319 06:17:40.620822  6438 net.cpp:91] Creating Layer ip2_p
I0319 06:17:40.620828  6438 net.cpp:425] ip2_p <- pool2_p
I0319 06:17:40.620836  6438 net.cpp:399] ip2_p -> ip2_p
I0319 06:17:40.621070  6438 net.cpp:141] Setting up ip2_p
I0319 06:17:40.621088  6438 net.cpp:148] Top shape: 100 10 (1000)
I0319 06:17:40.621094  6438 net.cpp:156] Memory required for data: 25606800
I0319 06:17:40.621100  6438 net.cpp:484] Sharing parameters 'ip2_w' owned by layer 'ip2', param index 0
I0319 06:17:40.621106  6438 net.cpp:484] Sharing parameters 'ip2_b' owned by layer 'ip2', param index 1
I0319 06:17:40.621111  6438 layer_factory.hpp:77] Creating layer feat_p
I0319 06:17:40.621124  6438 net.cpp:91] Creating Layer feat_p
I0319 06:17:40.621130  6438 net.cpp:425] feat_p <- ip2_p
I0319 06:17:40.621139  6438 net.cpp:399] feat_p -> feat_p
I0319 06:17:40.621253  6438 net.cpp:141] Setting up feat_p
I0319 06:17:40.621270  6438 net.cpp:148] Top shape: 100 2 (200)
I0319 06:17:40.621276  6438 net.cpp:156] Memory required for data: 25607600
I0319 06:17:40.621282  6438 net.cpp:484] Sharing parameters 'feat_w' owned by layer 'feat', param index 0
I0319 06:17:40.621289  6438 net.cpp:484] Sharing parameters 'feat_b' owned by layer 'feat', param index 1
I0319 06:17:40.621294  6438 layer_factory.hpp:77] Creating layer feat_p_feat_p_0_split
I0319 06:17:40.621305  6438 net.cpp:91] Creating Layer feat_p_feat_p_0_split
I0319 06:17:40.621311  6438 net.cpp:425] feat_p_feat_p_0_split <- feat_p
I0319 06:17:40.621318  6438 net.cpp:399] feat_p_feat_p_0_split -> feat_p_feat_p_0_split_0
I0319 06:17:40.621327  6438 net.cpp:399] feat_p_feat_p_0_split -> feat_p_feat_p_0_split_1
I0319 06:17:40.621392  6438 net.cpp:141] Setting up feat_p_feat_p_0_split
I0319 06:17:40.621408  6438 net.cpp:148] Top shape: 100 2 (200)
I0319 06:17:40.621415  6438 net.cpp:148] Top shape: 100 2 (200)
I0319 06:17:40.621419  6438 net.cpp:156] Memory required for data: 25609200
I0319 06:17:40.621425  6438 layer_factory.hpp:77] Creating layer siamese_accuracy
I0319 06:17:40.621440  6438 net.cpp:91] Creating Layer siamese_accuracy
I0319 06:17:40.621445  6438 net.cpp:425] siamese_accuracy <- feat_feat_0_split_0
I0319 06:17:40.621466  6438 net.cpp:425] siamese_accuracy <- feat_p_feat_p_0_split_0
…
