…
I0317 17:40:35.437747  2881 net.cpp:313] The NetState phase (0) differed from the phase (1) specified by a rule in layer pair_data
I0317 17:40:35.437844  2881 net.cpp:313] The NetState phase (0) differed from the phase (1) specified by a rule in layer siamese_accuracy
I0317 17:40:35.438271  2881 net.cpp:49] Initializing net from parameters: 
name: "SiameseAlexNet"
state {
  phase: TRAIN
}
layer {
  name: "pair_data"
  type: "Data"
  top: "pair_data"
  top: "sim"
  include {
    phase: TRAIN
  }
  transform_param {
    scale: 0.00390625
  }
  data_param {
    source: "/home/ubuntu/fyp/data/data-fyp/siamese_train_leveldb"
    batch_size: 64
  }
}
layer {
  name: "slice_pair"
  type: "Slice"
  bottom: "pair_data"
  top: "data"
  top: "data_p"
  slice_param {
    slice_dim: 1
    slice_point: 3
  }
}
layer {
  name: "conv1"
  type: "Convolution"
  bottom: "data"
  top: "conv1"
  param {
    name: "conv1_w"
    lr_mult: 0
    decay_mult: 1
  }
  param {
    name: "conv1_b"
    lr_mult: 0
    decay_mult: 0
  }
  convolution_param {
    num_output: 96
    kernel_size: 11
    stride: 4
    weight_filler {
      type: "gaussian"
      std: 0.01
    }
    bias_filler {
      type: "constant"
      value: 0
    }
  }
}
layer {
  name: "relu1"
  type: "ReLU"
  bottom: "conv1"
  top: "conv1"
}
layer {
  name: "norm1"
  type: "LRN"
  bottom: "conv1"
  top: "norm1"
  lrn_param {
    local_size: 5
    alpha: 0.0001
    beta: 0.75
  }
}
layer {
  name: "pool1"
  type: "Pooling"
  bottom: "norm1"
  top: "pool1"
  pooling_param {
    pool: MAX
    kernel_size: 3
    stride: 2
  }
}
layer {
  name: "conv2"
  type: "Convolution"
  bottom: "pool1"
  top: "conv2"
  param {
    name: "conv2_w"
    lr_mult: 0
    decay_mult: 1
  }
  param {
    name: "conv2_b"
    lr_mult: 0
    decay_mult: 0
  }
  convolution_param {
    num_output: 256
    pad: 2
    kernel_size: 5
    group: 2
    weight_filler {
      type: "gaussian"
      std: 0.01
    }
    bias_filler {
      type: "constant"
      value: 0.1
    }
  }
}
layer {
  name: "relu2"
  type: "ReLU"
  bottom: "conv2"
  top: "conv2"
}
layer {
  name: "norm2"
  type: "LRN"
  bottom: "conv2"
  top: "norm2"
  lrn_param {
    local_size: 5
    alpha: 0.0001
    beta: 0.75
  }
}
layer {
  name: "pool2"
  type: "Pooling"
  bottom: "norm2"
  top: "pool2"
  pooling_param {
    pool: MAX
    kernel_size: 3
    stride: 2
  }
}
layer {
  name: "conv3"
  type: "Convolution"
  bottom: "pool2"
  top: "conv3"
  param {
    name: "conv3_w"
    lr_mult: 0
    decay_mult: 1
  }
  param {
    name: "conv3_b"
    lr_mult: 0
    decay_mult: 0
  }
  convolution_param {
    num_output: 384
    pad: 1
    kernel_size: 3
    weight_filler {
      type: "gaussian"
      std: 0.01
    }
    bias_filler {
      type: "constant"
      value: 0
    }
  }
}
layer {
  name: "relu3"
  type: "ReLU"
  bottom: "conv3"
  top: "conv3"
}
layer {
  name: "conv4"
  type: "Convolution"
  bottom: "conv3"
  top: "conv4"
  param {
    name: "conv4_w"
    lr_mult: 0
    decay_mult: 1
  }
  param {
    name: "conv4_b"
    lr_mult: 0
    decay_mult: 0
  }
  convolution_param {
    num_output: 384
    pad: 1
    kernel_size: 3
    group: 2
    weight_filler {
      type: "gaussian"
      std: 0.01
    }
    bias_filler {
      type: "constant"
      value: 0.1
    }
  }
}
layer {
  name: "relu4"
  type: "ReLU"
  bottom: "conv4"
  top: "conv4"
}
layer {
  name: "conv5"
  type: "Convolution"
  bottom: "conv4"
  top: "conv5"
  param {
    name: "conv5_w"
    lr_mult: 0
    decay_mult: 1
  }
  param {
    name: "conv5_b"
    lr_mult: 0
    decay_mult: 0
  }
  convolution_param {
    num_output: 256
    pad: 1
    kernel_size: 3
    group: 2
    weight_filler {
      type: "gaussian"
      std: 0.01
    }
    bias_filler {
      type: "constant"
      value: 0.1
    }
  }
}
layer {
  name: "relu5"
  type: "ReLU"
  bottom: "conv5"
  top: "conv5"
}
layer {
  name: "pool5"
  type: "Pooling"
  bottom: "conv5"
  top: "pool5"
  pooling_param {
    pool: MAX
    kernel_size: 3
    stride: 2
  }
}
layer {
  name: "fc6"
  type: "InnerProduct"
  bottom: "pool5"
  top: "fc6"
  param {
    name: "fc6_w"
    lr_mult: 0
    decay_mult: 1
  }
  param {
    name: "fc6_b"
    lr_mult: 0
    decay_mult: 0
  }
  inner_product_param {
    num_output: 4096
    weight_filler {
      type: "gaussian"
      std: 0.005
    }
    bias_filler {
      type: "constant"
      value: 0.1
    }
  }
}
layer {
  name: "relu6"
  type: "ReLU"
  bottom: "fc6"
  top: "fc6"
}
layer {
  name: "drop6"
  type: "Dropout"
  bottom: "fc6"
  top: "fc6"
  dropout_param {
    dropout_ratio: 0.5
  }
}
layer {
  name: "fc7"
  type: "InnerProduct"
  bottom: "fc6"
  top: "fc7"
  param {
    name: "fc7_w"
    lr_mult: 0
    decay_mult: 1
  }
  param {
    name: "fc7_b"
    lr_mult: 0
    decay_mult: 0
  }
  inner_product_param {
    num_output: 4096
    weight_filler {
      type: "gaussian"
      std: 0.01
    }
    bias_filler {
      type: "constant"
      value: 0
    }
  }
}
layer {
  name: "fc8"
  type: "InnerProduct"
  bottom: "fc7"
  top: "fc8"
  param {
    name: "fc8_w"
    lr_mult: 1
    decay_mult: 1
  }
  param {
    name: "fc8_b"
    lr_mult: 2
    decay_mult: 0
  }
  inner_product_param {
    num_output: 1000
    weight_filler {
      type: "gaussian"
      std: 0.01
    }
    bias_filler {
      type: "constant"
      value: 0
    }
  }
}
layer {
  name: "conv1_p"
  type: "Convolution"
  bottom: "data_p"
  top: "conv1_p"
  param {
    name: "conv1_w"
    lr_mult: 0
    decay_mult: 1
  }
  param {
    name: "conv1_b"
    lr_mult: 0
    decay_mult: 0
  }
  convolution_param {
    num_output: 96
    kernel_size: 11
    stride: 4
    weight_filler {
      type: "gaussian"
      std: 0.01
    }
    bias_filler {
      type: "constant"
      value: 0
    }
  }
}
layer {
  name: "relu1_p"
  type: "ReLU"
  bottom: "conv1_p"
  top: "conv1_p"
}
layer {
  name: "norm1_p"
  type: "LRN"
  bottom: "conv1_p"
  top: "norm1_p"
  lrn_param {
    local_size: 5
    alpha: 0.0001
    beta: 0.75
  }
}
layer {
  name: "pool1_p"
  type: "Pooling"
  bottom: "norm1_p"
  top: "pool1_p"
  pooling_param {
    pool: MAX
    kernel_size: 3
    stride: 2
  }
}
layer {
  name: "conv2_p"
  type: "Convolution"
  bottom: "pool1_p"
  top: "conv2_p"
  param {
    name: "conv2_w"
    lr_mult: 0
    decay_mult: 1
  }
  param {
    name: "conv2_b"
    lr_mult: 0
    decay_mult: 0
  }
  convolution_param {
    num_output: 256
    pad: 2
    kernel_size: 5
    group: 2
    weight_filler {
      type: "gaussian"
      std: 0.01
    }
    bias_filler {
      type: "constant"
      value: 0.1
    }
  }
}
layer {
  name: "relu2_p"
  type: "ReLU"
  bottom: "conv2_p"
  top: "conv2_p"
}
layer {
  name: "norm2_p"
  type: "LRN"
  bottom: "conv2_p"
  top: "norm2_p"
  lrn_param {
    local_size: 5
    alpha: 0.0001
    beta: 0.75
  }
}
layer {
  name: "pool2_p"
  type: "Pooling"
  bottom: "norm2_p"
  top: "pool2_p"
  pooling_param {
    pool: MAX
    kernel_size: 3
    stride: 2
  }
}
layer {
  name: "conv3_p"
  type: "Convolution"
  bottom: "pool2_p"
  top: "conv3_p"
  param {
    name: "conv3_w"
    lr_mult: 0
    decay_mult: 1
  }
  param {
    name: "conv3_b"
    lr_mult: 0
    decay_mult: 0
  }
  convolution_param {
    num_output: 384
    pad: 1
    kernel_size: 3
    weight_filler {
      type: "gaussian"
      std: 0.01
    }
    bias_filler {
      type: "constant"
      value: 0
    }
  }
}
layer {
  name: "relu3_p"
  type: "ReLU"
  bottom: "conv3_p"
  top: "conv3_p"
}
layer {
  name: "conv4_p"
  type: "Convolution"
  bottom: "conv3_p"
  top: "conv4_p"
  param {
    name: "conv4_w"
    lr_mult: 0
    decay_mult: 1
  }
  param {
    name: "conv4_b"
    lr_mult: 0
    decay_mult: 0
  }
  convolution_param {
    num_output: 384
    pad: 1
    kernel_size: 3
    group: 2
    weight_filler {
      type: "gaussian"
      std: 0.01
    }
    bias_filler {
      type: "constant"
      value: 0.1
    }
  }
}
layer {
  name: "relu4_p"
  type: "ReLU"
  bottom: "conv4_p"
  top: "conv4_p"
}
layer {
  name: "conv5_p"
  type: "Convolution"
  bottom: "conv4_p"
  top: "conv5_p"
  param {
    name: "conv5_w"
    lr_mult: 0
    decay_mult: 1
  }
  param {
    name: "conv5_b"
    lr_mult: 0
    decay_mult: 0
  }
  convolution_param {
    num_output: 256
    pad: 1
    kernel_size: 3
    group: 2
    weight_filler {
      type: "gaussian"
      std: 0.01
    }
    bias_filler {
      type: "constant"
      value: 0.1
    }
  }
}
layer {
  name: "relu5_p"
  type: "ReLU"
  bottom: "conv5_p"
  top: "conv5_p"
}
layer {
  name: "pool5_p"
  type: "Pooling"
  bottom: "conv5_p"
  top: "pool5_p"
  pooling_param {
    pool: MAX
    kernel_size: 3
    stride: 2
  }
}
layer {
  name: "fc6_p"
  type: "InnerProduct"
  bottom: "pool5_p"
  top: "fc6_p"
  param {
    name: "fc6_w"
    lr_mult: 0
    decay_mult: 1
  }
  param {
    name: "fc6_b"
    lr_mult: 0
    decay_mult: 0
  }
  inner_product_param {
    num_output: 4096
    weight_filler {
      type: "gaussian"
      std: 0.005
    }
    bias_filler {
      type: "constant"
      value: 0.1
    }
  }
}
layer {
  name: "relu6_p"
  type: "ReLU"
  bottom: "fc6_p"
  top: "fc6_p"
}
layer {
  name: "drop6_p"
  type: "Dropout"
  bottom: "fc6_p"
  top: "fc6_p"
  dropout_param {
    dropout_ratio: 0.5
  }
}
layer {
  name: "fc7_p"
  type: "InnerProduct"
  bottom: "fc6_p"
  top: "fc7_p"
  param {
    name: "fc7_w"
    lr_mult: 0
    decay_mult: 1
  }
  param {
    name: "fc7_b"
    lr_mult: 0
    decay_mult: 0
  }
  inner_product_param {
    num_output: 4096
    weight_filler {
      type: "gaussian"
      std: 0.01
    }
    bias_filler {
      type: "constant"
      value: 0
    }
  }
}
layer {
  name: "fc8_p"
  type: "InnerProduct"
  bottom: "fc7_p"
  top: "fc8_p"
  param {
    name: "fc8_w"
    lr_mult: 1
    decay_mult: 1
  }
  param {
    name: "fc8_b"
    lr_mult: 2
    decay_mult: 0
  }
  inner_product_param {
    num_output: 1000
    weight_filler {
      type: "gaussian"
      std: 0.01
    }
    bias_filler {
      type: "constant"
      value: 0
    }
  }
}
layer {
  name: "loss"
  type: "ContrastiveLoss"
  bottom: "fc8"
  bottom: "fc8_p"
  bottom: "sim"
  top: "loss"
  contrastive_loss_param {
    margin: 10
  }
}
I0317 17:40:35.438660  2881 layer_factory.hpp:77] Creating layer pair_data
I0317 17:40:35.439534  2881 net.cpp:91] Creating Layer pair_data
I0317 17:40:35.439586  2881 net.cpp:399] pair_data -> pair_data
I0317 17:40:35.439651  2881 net.cpp:399] pair_data -> sim
I0317 17:40:35.447643  2885 db_leveldb.cpp:18] Opened leveldb /home/ubuntu/fyp/data/data-fyp/siamese_train_leveldb
I0317 17:40:35.461033  2881 data_layer.cpp:41] output data size: 64,6,227,227
I0317 17:40:35.617537  2881 net.cpp:141] Setting up pair_data
I0317 17:40:35.617596  2881 net.cpp:148] Top shape: 64 6 227 227 (19787136)
I0317 17:40:35.617604  2881 net.cpp:148] Top shape: 64 (64)
I0317 17:40:35.617614  2881 net.cpp:156] Memory required for data: 79148800
I0317 17:40:35.617632  2881 layer_factory.hpp:77] Creating layer slice_pair
I0317 17:40:35.617656  2881 net.cpp:91] Creating Layer slice_pair
I0317 17:40:35.617667  2881 net.cpp:425] slice_pair <- pair_data
I0317 17:40:35.617688  2881 net.cpp:399] slice_pair -> data
I0317 17:40:35.617713  2881 net.cpp:399] slice_pair -> data_p
I0317 17:40:35.617781  2881 net.cpp:141] Setting up slice_pair
I0317 17:40:35.617799  2881 net.cpp:148] Top shape: 64 3 227 227 (9893568)
I0317 17:40:35.617806  2881 net.cpp:148] Top shape: 64 3 227 227 (9893568)
I0317 17:40:35.617810  2881 net.cpp:156] Memory required for data: 158297344
I0317 17:40:35.617815  2881 layer_factory.hpp:77] Creating layer conv1
I0317 17:40:35.617849  2881 net.cpp:91] Creating Layer conv1
I0317 17:40:35.617861  2881 net.cpp:425] conv1 <- data
I0317 17:40:35.617895  2881 net.cpp:399] conv1 -> conv1
I0317 17:40:35.867902  2881 net.cpp:141] Setting up conv1
I0317 17:40:35.867955  2881 net.cpp:148] Top shape: 64 96 55 55 (18585600)
I0317 17:40:35.867961  2881 net.cpp:156] Memory required for data: 232639744
I0317 17:40:35.867992  2881 layer_factory.hpp:77] Creating layer relu1
I0317 17:40:35.868010  2881 net.cpp:91] Creating Layer relu1
I0317 17:40:35.868017  2881 net.cpp:425] relu1 <- conv1
I0317 17:40:35.868027  2881 net.cpp:386] relu1 -> conv1 (in-place)
I0317 17:40:35.868207  2881 net.cpp:141] Setting up relu1
I0317 17:40:35.868227  2881 net.cpp:148] Top shape: 64 96 55 55 (18585600)
I0317 17:40:35.868233  2881 net.cpp:156] Memory required for data: 306982144
I0317 17:40:35.868239  2881 layer_factory.hpp:77] Creating layer norm1
I0317 17:40:35.868258  2881 net.cpp:91] Creating Layer norm1
I0317 17:40:35.868265  2881 net.cpp:425] norm1 <- conv1
I0317 17:40:35.868273  2881 net.cpp:399] norm1 -> norm1
I0317 17:40:35.868567  2881 net.cpp:141] Setting up norm1
I0317 17:40:35.868588  2881 net.cpp:148] Top shape: 64 96 55 55 (18585600)
I0317 17:40:35.868594  2881 net.cpp:156] Memory required for data: 381324544
I0317 17:40:35.868600  2881 layer_factory.hpp:77] Creating layer pool1
I0317 17:40:35.868610  2881 net.cpp:91] Creating Layer pool1
I0317 17:40:35.868616  2881 net.cpp:425] pool1 <- norm1
I0317 17:40:35.868623  2881 net.cpp:399] pool1 -> pool1
I0317 17:40:35.868681  2881 net.cpp:141] Setting up pool1
I0317 17:40:35.868698  2881 net.cpp:148] Top shape: 64 96 27 27 (4478976)
I0317 17:40:35.868703  2881 net.cpp:156] Memory required for data: 399240448
I0317 17:40:35.868710  2881 layer_factory.hpp:77] Creating layer conv2
I0317 17:40:35.868731  2881 net.cpp:91] Creating Layer conv2
I0317 17:40:35.868737  2881 net.cpp:425] conv2 <- pool1
I0317 17:40:35.868746  2881 net.cpp:399] conv2 -> conv2
I0317 17:40:35.880908  2881 net.cpp:141] Setting up conv2
I0317 17:40:35.880930  2881 net.cpp:148] Top shape: 64 256 27 27 (11943936)
I0317 17:40:35.880936  2881 net.cpp:156] Memory required for data: 447016192
I0317 17:40:35.880949  2881 layer_factory.hpp:77] Creating layer relu2
I0317 17:40:35.880957  2881 net.cpp:91] Creating Layer relu2
I0317 17:40:35.880962  2881 net.cpp:425] relu2 <- conv2
I0317 17:40:35.880972  2881 net.cpp:386] relu2 -> conv2 (in-place)
I0317 17:40:35.881232  2881 net.cpp:141] Setting up relu2
I0317 17:40:35.881253  2881 net.cpp:148] Top shape: 64 256 27 27 (11943936)
I0317 17:40:35.881258  2881 net.cpp:156] Memory required for data: 494791936
I0317 17:40:35.881263  2881 layer_factory.hpp:77] Creating layer norm2
I0317 17:40:35.881278  2881 net.cpp:91] Creating Layer norm2
I0317 17:40:35.881283  2881 net.cpp:425] norm2 <- conv2
I0317 17:40:35.881290  2881 net.cpp:399] norm2 -> norm2
I0317 17:40:35.881561  2881 net.cpp:141] Setting up norm2
I0317 17:40:35.881583  2881 net.cpp:148] Top shape: 64 256 27 27 (11943936)
I0317 17:40:35.881588  2881 net.cpp:156] Memory required for data: 542567680
I0317 17:40:35.881594  2881 layer_factory.hpp:77] Creating layer pool2
I0317 17:40:35.881603  2881 net.cpp:91] Creating Layer pool2
I0317 17:40:35.881608  2881 net.cpp:425] pool2 <- norm2
I0317 17:40:35.881618  2881 net.cpp:399] pool2 -> pool2
I0317 17:40:35.881664  2881 net.cpp:141] Setting up pool2
I0317 17:40:35.881680  2881 net.cpp:148] Top shape: 64 256 13 13 (2768896)
I0317 17:40:35.881685  2881 net.cpp:156] Memory required for data: 553643264
I0317 17:40:35.881690  2881 layer_factory.hpp:77] Creating layer conv3
I0317 17:40:35.881706  2881 net.cpp:91] Creating Layer conv3
I0317 17:40:35.881712  2881 net.cpp:425] conv3 <- pool2
I0317 17:40:35.881721  2881 net.cpp:399] conv3 -> conv3
I0317 17:40:35.912072  2881 net.cpp:141] Setting up conv3
I0317 17:40:35.912096  2881 net.cpp:148] Top shape: 64 384 13 13 (4153344)
I0317 17:40:35.912102  2881 net.cpp:156] Memory required for data: 570256640
I0317 17:40:35.912114  2881 layer_factory.hpp:77] Creating layer relu3
I0317 17:40:35.912123  2881 net.cpp:91] Creating Layer relu3
I0317 17:40:35.912128  2881 net.cpp:425] relu3 <- conv3
I0317 17:40:35.912158  2881 net.cpp:386] relu3 -> conv3 (in-place)
I0317 17:40:35.912425  2881 net.cpp:141] Setting up relu3
I0317 17:40:35.912446  2881 net.cpp:148] Top shape: 64 384 13 13 (4153344)
I0317 17:40:35.912451  2881 net.cpp:156] Memory required for data: 586870016
I0317 17:40:35.912456  2881 layer_factory.hpp:77] Creating layer conv4
I0317 17:40:35.912477  2881 net.cpp:91] Creating Layer conv4
I0317 17:40:35.912485  2881 net.cpp:425] conv4 <- conv3
I0317 17:40:35.912494  2881 net.cpp:399] conv4 -> conv4
I0317 17:40:35.936241  2881 net.cpp:141] Setting up conv4
I0317 17:40:35.936270  2881 net.cpp:148] Top shape: 64 384 13 13 (4153344)
I0317 17:40:35.936282  2881 net.cpp:156] Memory required for data: 603483392
I0317 17:40:35.936391  2881 layer_factory.hpp:77] Creating layer relu4
I0317 17:40:35.936413  2881 net.cpp:91] Creating Layer relu4
I0317 17:40:35.936419  2881 net.cpp:425] relu4 <- conv4
I0317 17:40:35.936429  2881 net.cpp:386] relu4 -> conv4 (in-place)
I0317 17:40:35.936687  2881 net.cpp:141] Setting up relu4
I0317 17:40:35.936708  2881 net.cpp:148] Top shape: 64 384 13 13 (4153344)
I0317 17:40:35.936714  2881 net.cpp:156] Memory required for data: 620096768
I0317 17:40:35.936719  2881 layer_factory.hpp:77] Creating layer conv5
I0317 17:40:35.936735  2881 net.cpp:91] Creating Layer conv5
I0317 17:40:35.936741  2881 net.cpp:425] conv5 <- conv4
I0317 17:40:35.936753  2881 net.cpp:399] conv5 -> conv5
I0317 17:40:35.955675  2881 net.cpp:141] Setting up conv5
I0317 17:40:35.955698  2881 net.cpp:148] Top shape: 64 256 13 13 (2768896)
I0317 17:40:35.955704  2881 net.cpp:156] Memory required for data: 631172352
I0317 17:40:35.955716  2881 layer_factory.hpp:77] Creating layer relu5
I0317 17:40:35.955727  2881 net.cpp:91] Creating Layer relu5
I0317 17:40:35.955732  2881 net.cpp:425] relu5 <- conv5
I0317 17:40:35.955739  2881 net.cpp:386] relu5 -> conv5 (in-place)
I0317 17:40:35.955912  2881 net.cpp:141] Setting up relu5
I0317 17:40:35.955931  2881 net.cpp:148] Top shape: 64 256 13 13 (2768896)
I0317 17:40:35.955937  2881 net.cpp:156] Memory required for data: 642247936
I0317 17:40:35.955942  2881 layer_factory.hpp:77] Creating layer pool5
I0317 17:40:35.955955  2881 net.cpp:91] Creating Layer pool5
I0317 17:40:35.955961  2881 net.cpp:425] pool5 <- conv5
I0317 17:40:35.955971  2881 net.cpp:399] pool5 -> pool5
I0317 17:40:35.956032  2881 net.cpp:141] Setting up pool5
I0317 17:40:35.956049  2881 net.cpp:148] Top shape: 64 256 6 6 (589824)
I0317 17:40:35.956054  2881 net.cpp:156] Memory required for data: 644607232
I0317 17:40:35.956060  2881 layer_factory.hpp:77] Creating layer fc6
I0317 17:40:35.956076  2881 net.cpp:91] Creating Layer fc6
I0317 17:40:35.956082  2881 net.cpp:425] fc6 <- pool5
I0317 17:40:35.956089  2881 net.cpp:399] fc6 -> fc6
I0317 17:40:37.233603  2881 net.cpp:141] Setting up fc6
I0317 17:40:37.233655  2881 net.cpp:148] Top shape: 64 4096 (262144)
I0317 17:40:37.233662  2881 net.cpp:156] Memory required for data: 645655808
I0317 17:40:37.233681  2881 layer_factory.hpp:77] Creating layer relu6
I0317 17:40:37.233697  2881 net.cpp:91] Creating Layer relu6
I0317 17:40:37.233705  2881 net.cpp:425] relu6 <- fc6
I0317 17:40:37.233716  2881 net.cpp:386] relu6 -> fc6 (in-place)
I0317 17:40:37.234174  2881 net.cpp:141] Setting up relu6
I0317 17:40:37.234197  2881 net.cpp:148] Top shape: 64 4096 (262144)
I0317 17:40:37.234203  2881 net.cpp:156] Memory required for data: 646704384
I0317 17:40:37.234208  2881 layer_factory.hpp:77] Creating layer drop6
I0317 17:40:37.234225  2881 net.cpp:91] Creating Layer drop6
I0317 17:40:37.234231  2881 net.cpp:425] drop6 <- fc6
I0317 17:40:37.234242  2881 net.cpp:386] drop6 -> fc6 (in-place)
I0317 17:40:37.234313  2881 net.cpp:141] Setting up drop6
I0317 17:40:37.234333  2881 net.cpp:148] Top shape: 64 4096 (262144)
I0317 17:40:37.234338  2881 net.cpp:156] Memory required for data: 647752960
I0317 17:40:37.234344  2881 layer_factory.hpp:77] Creating layer fc7
I0317 17:40:37.234359  2881 net.cpp:91] Creating Layer fc7
I0317 17:40:37.234364  2881 net.cpp:425] fc7 <- fc6
I0317 17:40:37.234412  2881 net.cpp:399] fc7 -> fc7
I0317 17:40:37.798687  2881 net.cpp:141] Setting up fc7
I0317 17:40:37.798740  2881 net.cpp:148] Top shape: 64 4096 (262144)
I0317 17:40:37.798748  2881 net.cpp:156] Memory required for data: 648801536
I0317 17:40:37.798764  2881 layer_factory.hpp:77] Creating layer fc8
I0317 17:40:37.798787  2881 net.cpp:91] Creating Layer fc8
I0317 17:40:37.798795  2881 net.cpp:425] fc8 <- fc7
I0317 17:40:37.798809  2881 net.cpp:399] fc8 -> fc8
I0317 17:40:37.937271  2881 net.cpp:141] Setting up fc8
I0317 17:40:37.937328  2881 net.cpp:148] Top shape: 64 1000 (64000)
I0317 17:40:37.937335  2881 net.cpp:156] Memory required for data: 649057536
I0317 17:40:37.937353  2881 layer_factory.hpp:77] Creating layer conv1_p
I0317 17:40:37.937383  2881 net.cpp:91] Creating Layer conv1_p
I0317 17:40:37.937392  2881 net.cpp:425] conv1_p <- data_p
I0317 17:40:37.937407  2881 net.cpp:399] conv1_p -> conv1_p
I0317 17:40:37.939652  2881 net.cpp:141] Setting up conv1_p
I0317 17:40:37.939677  2881 net.cpp:148] Top shape: 64 96 55 55 (18585600)
I0317 17:40:37.939683  2881 net.cpp:156] Memory required for data: 723399936
I0317 17:40:37.939697  2881 net.cpp:484] Sharing parameters 'conv1_w' owned by layer 'conv1', param index 0
I0317 17:40:37.939703  2881 net.cpp:484] Sharing parameters 'conv1_b' owned by layer 'conv1', param index 1
I0317 17:40:37.939709  2881 layer_factory.hpp:77] Creating layer relu1_p
I0317 17:40:37.939723  2881 net.cpp:91] Creating Layer relu1_p
I0317 17:40:37.939730  2881 net.cpp:425] relu1_p <- conv1_p
I0317 17:40:37.939738  2881 net.cpp:386] relu1_p -> conv1_p (in-place)
I0317 17:40:37.940011  2881 net.cpp:141] Setting up relu1_p
I0317 17:40:37.940032  2881 net.cpp:148] Top shape: 64 96 55 55 (18585600)
I0317 17:40:37.940038  2881 net.cpp:156] Memory required for data: 797742336
I0317 17:40:37.940043  2881 layer_factory.hpp:77] Creating layer norm1_p
I0317 17:40:37.940057  2881 net.cpp:91] Creating Layer norm1_p
I0317 17:40:37.940063  2881 net.cpp:425] norm1_p <- conv1_p
I0317 17:40:37.940071  2881 net.cpp:399] norm1_p -> norm1_p
I0317 17:40:37.940384  2881 net.cpp:141] Setting up norm1_p
I0317 17:40:37.940405  2881 net.cpp:148] Top shape: 64 96 55 55 (18585600)
I0317 17:40:37.940412  2881 net.cpp:156] Memory required for data: 872084736
I0317 17:40:37.940417  2881 layer_factory.hpp:77] Creating layer pool1_p
I0317 17:40:37.940429  2881 net.cpp:91] Creating Layer pool1_p
I0317 17:40:37.940435  2881 net.cpp:425] pool1_p <- norm1_p
I0317 17:40:37.940443  2881 net.cpp:399] pool1_p -> pool1_p
I0317 17:40:37.940495  2881 net.cpp:141] Setting up pool1_p
I0317 17:40:37.940511  2881 net.cpp:148] Top shape: 64 96 27 27 (4478976)
I0317 17:40:37.940516  2881 net.cpp:156] Memory required for data: 890000640
I0317 17:40:37.940522  2881 layer_factory.hpp:77] Creating layer conv2_p
I0317 17:40:37.940538  2881 net.cpp:91] Creating Layer conv2_p
I0317 17:40:37.940547  2881 net.cpp:425] conv2_p <- pool1_p
I0317 17:40:37.940558  2881 net.cpp:399] conv2_p -> conv2_p
I0317 17:40:37.952448  2881 net.cpp:141] Setting up conv2_p
I0317 17:40:37.952476  2881 net.cpp:148] Top shape: 64 256 27 27 (11943936)
I0317 17:40:37.952482  2881 net.cpp:156] Memory required for data: 937776384
I0317 17:40:37.952489  2881 net.cpp:484] Sharing parameters 'conv2_w' owned by layer 'conv2', param index 0
I0317 17:40:37.952497  2881 net.cpp:484] Sharing parameters 'conv2_b' owned by layer 'conv2', param index 1
I0317 17:40:37.952502  2881 layer_factory.hpp:77] Creating layer relu2_p
I0317 17:40:37.952512  2881 net.cpp:91] Creating Layer relu2_p
I0317 17:40:37.952517  2881 net.cpp:425] relu2_p <- conv2_p
I0317 17:40:37.952524  2881 net.cpp:386] relu2_p -> conv2_p (in-place)
I0317 17:40:37.952788  2881 net.cpp:141] Setting up relu2_p
I0317 17:40:37.952810  2881 net.cpp:148] Top shape: 64 256 27 27 (11943936)
I0317 17:40:37.952816  2881 net.cpp:156] Memory required for data: 985552128
I0317 17:40:37.952821  2881 layer_factory.hpp:77] Creating layer norm2_p
I0317 17:40:37.952833  2881 net.cpp:91] Creating Layer norm2_p
I0317 17:40:37.952859  2881 net.cpp:425] norm2_p <- conv2_p
I0317 17:40:37.952870  2881 net.cpp:399] norm2_p -> norm2_p
I0317 17:40:37.953065  2881 net.cpp:141] Setting up norm2_p
I0317 17:40:37.953084  2881 net.cpp:148] Top shape: 64 256 27 27 (11943936)
I0317 17:40:37.953089  2881 net.cpp:156] Memory required for data: 1033327872
I0317 17:40:37.953095  2881 layer_factory.hpp:77] Creating layer pool2_p
I0317 17:40:37.953106  2881 net.cpp:91] Creating Layer pool2_p
I0317 17:40:37.953111  2881 net.cpp:425] pool2_p <- norm2_p
I0317 17:40:37.953121  2881 net.cpp:399] pool2_p -> pool2_p
I0317 17:40:37.953169  2881 net.cpp:141] Setting up pool2_p
I0317 17:40:37.953184  2881 net.cpp:148] Top shape: 64 256 13 13 (2768896)
I0317 17:40:37.953189  2881 net.cpp:156] Memory required for data: 1044403456
I0317 17:40:37.953194  2881 layer_factory.hpp:77] Creating layer conv3_p
I0317 17:40:37.953210  2881 net.cpp:91] Creating Layer conv3_p
I0317 17:40:37.953217  2881 net.cpp:425] conv3_p <- pool2_p
I0317 17:40:37.953227  2881 net.cpp:399] conv3_p -> conv3_p
I0317 17:40:37.983976  2881 net.cpp:141] Setting up conv3_p
I0317 17:40:37.984006  2881 net.cpp:148] Top shape: 64 384 13 13 (4153344)
I0317 17:40:37.984012  2881 net.cpp:156] Memory required for data: 1061016832
I0317 17:40:37.984020  2881 net.cpp:484] Sharing parameters 'conv3_w' owned by layer 'conv3', param index 0
I0317 17:40:37.984027  2881 net.cpp:484] Sharing parameters 'conv3_b' owned by layer 'conv3', param index 1
I0317 17:40:37.984032  2881 layer_factory.hpp:77] Creating layer relu3_p
I0317 17:40:37.984043  2881 net.cpp:91] Creating Layer relu3_p
I0317 17:40:37.984050  2881 net.cpp:425] relu3_p <- conv3_p
I0317 17:40:37.984057  2881 net.cpp:386] relu3_p -> conv3_p (in-place)
I0317 17:40:37.984333  2881 net.cpp:141] Setting up relu3_p
I0317 17:40:37.984354  2881 net.cpp:148] Top shape: 64 384 13 13 (4153344)
I0317 17:40:37.984359  2881 net.cpp:156] Memory required for data: 1077630208
I0317 17:40:37.984364  2881 layer_factory.hpp:77] Creating layer conv4_p
I0317 17:40:37.984387  2881 net.cpp:91] Creating Layer conv4_p
I0317 17:40:37.984400  2881 net.cpp:425] conv4_p <- conv3_p
I0317 17:40:37.984410  2881 net.cpp:399] conv4_p -> conv4_p
I0317 17:40:38.008714  2881 net.cpp:141] Setting up conv4_p
I0317 17:40:38.008740  2881 net.cpp:148] Top shape: 64 384 13 13 (4153344)
I0317 17:40:38.008747  2881 net.cpp:156] Memory required for data: 1094243584
I0317 17:40:38.008754  2881 net.cpp:484] Sharing parameters 'conv4_w' owned by layer 'conv4', param index 0
I0317 17:40:38.008761  2881 net.cpp:484] Sharing parameters 'conv4_b' owned by layer 'conv4', param index 1
I0317 17:40:38.008766  2881 layer_factory.hpp:77] Creating layer relu4_p
I0317 17:40:38.008780  2881 net.cpp:91] Creating Layer relu4_p
I0317 17:40:38.008785  2881 net.cpp:425] relu4_p <- conv4_p
I0317 17:40:38.008800  2881 net.cpp:386] relu4_p -> conv4_p (in-place)
I0317 17:40:38.009076  2881 net.cpp:141] Setting up relu4_p
I0317 17:40:38.009097  2881 net.cpp:148] Top shape: 64 384 13 13 (4153344)
I0317 17:40:38.009104  2881 net.cpp:156] Memory required for data: 1110856960
I0317 17:40:38.009109  2881 layer_factory.hpp:77] Creating layer conv5_p
I0317 17:40:38.009125  2881 net.cpp:91] Creating Layer conv5_p
I0317 17:40:38.009133  2881 net.cpp:425] conv5_p <- conv4_p
I0317 17:40:38.009145  2881 net.cpp:399] conv5_p -> conv5_p
I0317 17:40:38.025723  2881 net.cpp:141] Setting up conv5_p
I0317 17:40:38.025754  2881 net.cpp:148] Top shape: 64 256 13 13 (2768896)
I0317 17:40:38.025763  2881 net.cpp:156] Memory required for data: 1121932544
I0317 17:40:38.025770  2881 net.cpp:484] Sharing parameters 'conv5_w' owned by layer 'conv5', param index 0
I0317 17:40:38.025777  2881 net.cpp:484] Sharing parameters 'conv5_b' owned by layer 'conv5', param index 1
I0317 17:40:38.025782  2881 layer_factory.hpp:77] Creating layer relu5_p
I0317 17:40:38.025791  2881 net.cpp:91] Creating Layer relu5_p
I0317 17:40:38.025799  2881 net.cpp:425] relu5_p <- conv5_p
I0317 17:40:38.025813  2881 net.cpp:386] relu5_p -> conv5_p (in-place)
I0317 17:40:38.026077  2881 net.cpp:141] Setting up relu5_p
I0317 17:40:38.026113  2881 net.cpp:148] Top shape: 64 256 13 13 (2768896)
I0317 17:40:38.026119  2881 net.cpp:156] Memory required for data: 1133008128
I0317 17:40:38.026124  2881 layer_factory.hpp:77] Creating layer pool5_p
I0317 17:40:38.026144  2881 net.cpp:91] Creating Layer pool5_p
I0317 17:40:38.026149  2881 net.cpp:425] pool5_p <- conv5_p
I0317 17:40:38.026160  2881 net.cpp:399] pool5_p -> pool5_p
I0317 17:40:38.026224  2881 net.cpp:141] Setting up pool5_p
I0317 17:40:38.026242  2881 net.cpp:148] Top shape: 64 256 6 6 (589824)
I0317 17:40:38.026247  2881 net.cpp:156] Memory required for data: 1135367424
I0317 17:40:38.026252  2881 layer_factory.hpp:77] Creating layer fc6_p
I0317 17:40:38.026267  2881 net.cpp:91] Creating Layer fc6_p
I0317 17:40:38.026273  2881 net.cpp:425] fc6_p <- pool5_p
I0317 17:40:38.026283  2881 net.cpp:399] fc6_p -> fc6_p
I0317 17:40:39.307963  2881 net.cpp:141] Setting up fc6_p
I0317 17:40:39.308018  2881 net.cpp:148] Top shape: 64 4096 (262144)
I0317 17:40:39.308025  2881 net.cpp:156] Memory required for data: 1136416000
I0317 17:40:39.308037  2881 net.cpp:484] Sharing parameters 'fc6_w' owned by layer 'fc6', param index 0
I0317 17:40:39.308045  2881 net.cpp:484] Sharing parameters 'fc6_b' owned by layer 'fc6', param index 1
I0317 17:40:39.308051  2881 layer_factory.hpp:77] Creating layer relu6_p
I0317 17:40:39.308068  2881 net.cpp:91] Creating Layer relu6_p
I0317 17:40:39.308074  2881 net.cpp:425] relu6_p <- fc6_p
I0317 17:40:39.308087  2881 net.cpp:386] relu6_p -> fc6_p (in-place)
I0317 17:40:39.308344  2881 net.cpp:141] Setting up relu6_p
I0317 17:40:39.308364  2881 net.cpp:148] Top shape: 64 4096 (262144)
I0317 17:40:39.308370  2881 net.cpp:156] Memory required for data: 1137464576
I0317 17:40:39.308375  2881 layer_factory.hpp:77] Creating layer drop6_p
I0317 17:40:39.308387  2881 net.cpp:91] Creating Layer drop6_p
I0317 17:40:39.308392  2881 net.cpp:425] drop6_p <- fc6_p
I0317 17:40:39.308401  2881 net.cpp:386] drop6_p -> fc6_p (in-place)
I0317 17:40:39.308437  2881 net.cpp:141] Setting up drop6_p
I0317 17:40:39.308466  2881 net.cpp:148] Top shape: 64 4096 (262144)
I0317 17:40:39.308472  2881 net.cpp:156] Memory required for data: 1138513152
I0317 17:40:39.308477  2881 layer_factory.hpp:77] Creating layer fc7_p
I0317 17:40:39.308490  2881 net.cpp:91] Creating Layer fc7_p
I0317 17:40:39.308498  2881 net.cpp:425] fc7_p <- fc6_p
I0317 17:40:39.308509  2881 net.cpp:399] fc7_p -> fc7_p
I0317 17:40:39.875476  2881 net.cpp:141] Setting up fc7_p
I0317 17:40:39.875530  2881 net.cpp:148] Top shape: 64 4096 (262144)
I0317 17:40:39.875536  2881 net.cpp:156] Memory required for data: 1139561728
I0317 17:40:39.875548  2881 net.cpp:484] Sharing parameters 'fc7_w' owned by layer 'fc7', param index 0
I0317 17:40:39.875557  2881 net.cpp:484] Sharing parameters 'fc7_b' owned by layer 'fc7', param index 1
I0317 17:40:39.875562  2881 layer_factory.hpp:77] Creating layer fc8_p
I0317 17:40:39.875582  2881 net.cpp:91] Creating Layer fc8_p
I0317 17:40:39.875589  2881 net.cpp:425] fc8_p <- fc7_p
I0317 17:40:39.875604  2881 net.cpp:399] fc8_p -> fc8_p
I0317 17:40:40.013049  2881 net.cpp:141] Setting up fc8_p
I0317 17:40:40.013098  2881 net.cpp:148] Top shape: 64 1000 (64000)
I0317 17:40:40.013104  2881 net.cpp:156] Memory required for data: 1139817728
I0317 17:40:40.013115  2881 net.cpp:484] Sharing parameters 'fc8_w' owned by layer 'fc8', param index 0
I0317 17:40:40.013123  2881 net.cpp:484] Sharing parameters 'fc8_b' owned by layer 'fc8', param index 1
I0317 17:40:40.013129  2881 layer_factory.hpp:77] Creating layer loss
I0317 17:40:40.013151  2881 net.cpp:91] Creating Layer loss
…
I0317 17:40:40.052215  2881 solver.cpp:181] Creating test net (#0) specified by net file: ./siamese_alexnet_train.prototxt
I0317 17:40:40.052335  2881 net.cpp:313] The NetState phase (1) differed from the phase (0) specified by a rule in layer pair_data
I0317 17:40:40.052762  2881 net.cpp:49] Initializing net from parameters: 
name: "SiameseAlexNet"
state {
  phase: TEST
}
layer {
  name: "pair_data"
  type: "Data"
  top: "pair_data"
  top: "sim"
  include {
    phase: TEST
  }
  transform_param {
    scale: 0.00390625
  }
  data_param {
    source: "/home/ubuntu/fyp/data/data-fyp/siamese_test_leveldb"
    batch_size: 100
  }
}
layer {
  name: "slice_pair"
  type: "Slice"
  bottom: "pair_data"
  top: "data"
  top: "data_p"
  slice_param {
    slice_dim: 1
    slice_point: 3
  }
}
layer {
  name: "conv1"
  type: "Convolution"
  bottom: "data"
  top: "conv1"
  param {
    name: "conv1_w"
    lr_mult: 0
    decay_mult: 1
  }
  param {
    name: "conv1_b"
    lr_mult: 0
    decay_mult: 0
  }
  convolution_param {
    num_output: 96
    kernel_size: 11
    stride: 4
    weight_filler {
      type: "gaussian"
      std: 0.01
    }
    bias_filler {
      type: "constant"
      value: 0
    }
  }
}
layer {
  name: "relu1"
  type: "ReLU"
  bottom: "conv1"
  top: "conv1"
}
layer {
  name: "norm1"
  type: "LRN"
  bottom: "conv1"
  top: "norm1"
  lrn_param {
    local_size: 5
    alpha: 0.0001
    beta: 0.75
  }
}
layer {
  name: "pool1"
  type: "Pooling"
  bottom: "norm1"
  top: "pool1"
  pooling_param {
    pool: MAX
    kernel_size: 3
    stride: 2
  }
}
layer {
  name: "conv2"
  type: "Convolution"
  bottom: "pool1"
  top: "conv2"
  param {
    name: "conv2_w"
    lr_mult: 0
    decay_mult: 1
  }
  param {
    name: "conv2_b"
    lr_mult: 0
    decay_mult: 0
  }
  convolution_param {
    num_output: 256
    pad: 2
    kernel_size: 5
    group: 2
    weight_filler {
      type: "gaussian"
      std: 0.01
    }
    bias_filler {
      type: "constant"
      value: 0.1
    }
  }
}
layer {
  name: "relu2"
  type: "ReLU"
  bottom: "conv2"
  top: "conv2"
}
layer {
  name: "norm2"
  type: "LRN"
  bottom: "conv2"
  top: "norm2"
  lrn_param {
    local_size: 5
    alpha: 0.0001
    beta: 0.75
  }
}
layer {
  name: "pool2"
  type: "Pooling"
  bottom: "norm2"
  top: "pool2"
  pooling_param {
    pool: MAX
    kernel_size: 3
    stride: 2
  }
}
layer {
  name: "conv3"
  type: "Convolution"
  bottom: "pool2"
  top: "conv3"
  param {
    name: "conv3_w"
    lr_mult: 0
    decay_mult: 1
  }
  param {
    name: "conv3_b"
    lr_mult: 0
    decay_mult: 0
  }
  convolution_param {
    num_output: 384
    pad: 1
    kernel_size: 3
    weight_filler {
      type: "gaussian"
      std: 0.01
    }
    bias_filler {
      type: "constant"
      value: 0
    }
  }
}
layer {
  name: "relu3"
  type: "ReLU"
  bottom: "conv3"
  top: "conv3"
}
layer {
  name: "conv4"
  type: "Convolution"
  bottom: "conv3"
  top: "conv4"
  param {
    name: "conv4_w"
    lr_mult: 0
    decay_mult: 1
  }
  param {
    name: "conv4_b"
    lr_mult: 0
    decay_mult: 0
  }
  convolution_param {
    num_output: 384
    pad: 1
    kernel_size: 3
    group: 2
    weight_filler {
      type: "gaussian"
      std: 0.01
    }
    bias_filler {
      type: "constant"
      value: 0.1
    }
  }
}
layer {
  name: "relu4"
  type: "ReLU"
  bottom: "conv4"
  top: "conv4"
}
layer {
  name: "conv5"
  type: "Convolution"
  bottom: "conv4"
  top: "conv5"
  param {
    name: "conv5_w"
    lr_mult: 0
    decay_mult: 1
  }
  param {
    name: "conv5_b"
    lr_mult: 0
    decay_mult: 0
  }
  convolution_param {
    num_output: 256
    pad: 1
    kernel_size: 3
    group: 2
    weight_filler {
      type: "gaussian"
      std: 0.01
    }
    bias_filler {
      type: "constant"
      value: 0.1
    }
  }
}
layer {
  name: "relu5"
  type: "ReLU"
  bottom: "conv5"
  top: "conv5"
}
layer {
  name: "pool5"
  type: "Pooling"
  bottom: "conv5"
  top: "pool5"
  pooling_param {
    pool: MAX
    kernel_size: 3
    stride: 2
  }
}
layer {
  name: "fc6"
  type: "InnerProduct"
  bottom: "pool5"
  top: "fc6"
  param {
    name: "fc6_w"
    lr_mult: 0
    decay_mult: 1
  }
  param {
    name: "fc6_b"
    lr_mult: 0
    decay_mult: 0
  }
  inner_product_param {
    num_output: 4096
    weight_filler {
      type: "gaussian"
      std: 0.005
    }
    bias_filler {
      type: "constant"
      value: 0.1
    }
  }
}
layer {
  name: "relu6"
  type: "ReLU"
  bottom: "fc6"
  top: "fc6"
}
layer {
  name: "drop6"
  type: "Dropout"
  bottom: "fc6"
  top: "fc6"
  dropout_param {
    dropout_ratio: 0.5
  }
}
layer {
  name: "fc7"
  type: "InnerProduct"
  bottom: "fc6"
  top: "fc7"
  param {
    name: "fc7_w"
    lr_mult: 0
    decay_mult: 1
  }
  param {
    name: "fc7_b"
    lr_mult: 0
    decay_mult: 0
  }
  inner_product_param {
    num_output: 4096
    weight_filler {
      type: "gaussian"
      std: 0.01
    }
    bias_filler {
      type: "constant"
      value: 0
    }
  }
}
layer {
  name: "fc8"
  type: "InnerProduct"
  bottom: "fc7"
  top: "fc8"
  param {
    name: "fc8_w"
    lr_mult: 1
    decay_mult: 1
  }
  param {
    name: "fc8_b"
    lr_mult: 2
    decay_mult: 0
  }
  inner_product_param {
    num_output: 1000
    weight_filler {
      type: "gaussian"
      std: 0.01
    }
    bias_filler {
      type: "constant"
      value: 0
    }
  }
}
layer {
  name: "conv1_p"
  type: "Convolution"
  bottom: "data_p"
  top: "conv1_p"
  param {
    name: "conv1_w"
    lr_mult: 0
    decay_mult: 1
  }
  param {
    name: "conv1_b"
    lr_mult: 0
    decay_mult: 0
  }
  convolution_param {
    num_output: 96
    kernel_size: 11
    stride: 4
    weight_filler {
      type: "gaussian"
      std: 0.01
    }
    bias_filler {
      type: "constant"
      value: 0
    }
  }
}
layer {
  name: "relu1_p"
  type: "ReLU"
  bottom: "conv1_p"
  top: "conv1_p"
}
layer {
  name: "norm1_p"
  type: "LRN"
  bottom: "conv1_p"
  top: "norm1_p"
  lrn_param {
    local_size: 5
    alpha: 0.0001
    beta: 0.75
  }
}
layer {
  name: "pool1_p"
  type: "Pooling"
  bottom: "norm1_p"
  top: "pool1_p"
  pooling_param {
    pool: MAX
    kernel_size: 3
    stride: 2
  }
}
layer {
  name: "conv2_p"
  type: "Convolution"
  bottom: "pool1_p"
  top: "conv2_p"
  param {
    name: "conv2_w"
    lr_mult: 0
    decay_mult: 1
  }
  param {
    name: "conv2_b"
    lr_mult: 0
    decay_mult: 0
  }
  convolution_param {
    num_output: 256
    pad: 2
    kernel_size: 5
    group: 2
    weight_filler {
      type: "gaussian"
      std: 0.01
    }
    bias_filler {
      type: "constant"
      value: 0.1
    }
  }
}
layer {
  name: "relu2_p"
  type: "ReLU"
  bottom: "conv2_p"
  top: "conv2_p"
}
layer {
  name: "norm2_p"
  type: "LRN"
  bottom: "conv2_p"
  top: "norm2_p"
  lrn_param {
    local_size: 5
    alpha: 0.0001
    beta: 0.75
  }
}
layer {
  name: "pool2_p"
  type: "Pooling"
  bottom: "norm2_p"
  top: "pool2_p"
  pooling_param {
    pool: MAX
    kernel_size: 3
    stride: 2
  }
}
layer {
  name: "conv3_p"
  type: "Convolution"
  bottom: "pool2_p"
  top: "conv3_p"
  param {
    name: "conv3_w"
    lr_mult: 0
    decay_mult: 1
  }
  param {
    name: "conv3_b"
    lr_mult: 0
    decay_mult: 0
  }
  convolution_param {
    num_output: 384
    pad: 1
    kernel_size: 3
    weight_filler {
      type: "gaussian"
      std: 0.01
    }
    bias_filler {
      type: "constant"
      value: 0
    }
  }
}
layer {
  name: "relu3_p"
  type: "ReLU"
  bottom: "conv3_p"
  top: "conv3_p"
}
layer {
  name: "conv4_p"
  type: "Convolution"
  bottom: "conv3_p"
  top: "conv4_p"
  param {
    name: "conv4_w"
    lr_mult: 0
    decay_mult: 1
  }
  param {
    name: "conv4_b"
    lr_mult: 0
    decay_mult: 0
  }
  convolution_param {
    num_output: 384
    pad: 1
    kernel_size: 3
    group: 2
    weight_filler {
      type: "gaussian"
      std: 0.01
    }
    bias_filler {
      type: "constant"
      value: 0.1
    }
  }
}
layer {
  name: "relu4_p"
  type: "ReLU"
  bottom: "conv4_p"
  top: "conv4_p"
}
layer {
  name: "conv5_p"
  type: "Convolution"
  bottom: "conv4_p"
  top: "conv5_p"
  param {
    name: "conv5_w"
    lr_mult: 0
    decay_mult: 1
  }
  param {
    name: "conv5_b"
    lr_mult: 0
    decay_mult: 0
  }
  convolution_param {
    num_output: 256
    pad: 1
    kernel_size: 3
    group: 2
    weight_filler {
      type: "gaussian"
      std: 0.01
    }
    bias_filler {
      type: "constant"
      value: 0.1
    }
  }
}
layer {
  name: "relu5_p"
  type: "ReLU"
  bottom: "conv5_p"
  top: "conv5_p"
}
layer {
  name: "pool5_p"
  type: "Pooling"
  bottom: "conv5_p"
  top: "pool5_p"
  pooling_param {
    pool: MAX
    kernel_size: 3
    stride: 2
  }
}
layer {
  name: "fc6_p"
  type: "InnerProduct"
  bottom: "pool5_p"
  top: "fc6_p"
  param {
    name: "fc6_w"
    lr_mult: 0
    decay_mult: 1
  }
  param {
    name: "fc6_b"
    lr_mult: 0
    decay_mult: 0
  }
  inner_product_param {
    num_output: 4096
    weight_filler {
      type: "gaussian"
      std: 0.005
    }
    bias_filler {
      type: "constant"
      value: 0.1
    }
  }
}
layer {
  name: "relu6_p"
  type: "ReLU"
  bottom: "fc6_p"
  top: "fc6_p"
}
layer {
  name: "drop6_p"
  type: "Dropout"
  bottom: "fc6_p"
  top: "fc6_p"
  dropout_param {
    dropout_ratio: 0.5
  }
}
layer {
  name: "fc7_p"
  type: "InnerProduct"
  bottom: "fc6_p"
  top: "fc7_p"
  param {
    name: "fc7_w"
    lr_mult: 0
    decay_mult: 1
  }
  param {
    name: "fc7_b"
    lr_mult: 0
    decay_mult: 0
  }
  inner_product_param {
    num_output: 4096
    weight_filler {
      type: "gaussian"
      std: 0.01
    }
    bias_filler {
      type: "constant"
      value: 0
    }
  }
}
layer {
  name: "fc8_p"
  type: "InnerProduct"
  bottom: "fc7_p"
  top: "fc8_p"
  param {
    name: "fc8_w"
    lr_mult: 1
    decay_mult: 1
  }
  param {
    name: "fc8_b"
    lr_mult: 2
    decay_mult: 0
  }
  inner_product_param {
    num_output: 1000
    weight_filler {
      type: "gaussian"
      std: 0.01
    }
    bias_filler {
      type: "constant"
      value: 0
    }
  }
}
layer {
  name: "siamese_accuracy"
  type: "SiameseAccuracy"
  bottom: "fc8"
  bottom: "fc8_p"
  bottom: "sim"
  top: "siamese_accuracy"
  include {
    phase: TEST
  }
}
layer {
  name: "loss"
  type: "ContrastiveLoss"
  bottom: "fc8"
  bottom: "fc8_p"
  bottom: "sim"
  top: "loss"
  contrastive_loss_param {
    margin: 10
  }
}
I0317 17:40:40.053078  2881 layer_factory.hpp:77] Creating layer pair_data
I0317 17:40:40.053220  2881 net.cpp:91] Creating Layer pair_data
I0317 17:40:40.053237  2881 net.cpp:399] pair_data -> pair_data
I0317 17:40:40.053251  2881 net.cpp:399] pair_data -> sim
I0317 17:40:40.060746  2887 db_leveldb.cpp:18] Opened leveldb /home/ubuntu/fyp/data/data-fyp/siamese_test_leveldb
I0317 17:40:40.062872  2881 data_layer.cpp:41] output data size: 100,6,227,227
I0317 17:40:40.310425  2881 net.cpp:141] Setting up pair_data
I0317 17:40:40.310477  2881 net.cpp:148] Top shape: 100 6 227 227 (30917400)
I0317 17:40:40.310485  2881 net.cpp:148] Top shape: 100 (100)
I0317 17:40:40.310490  2881 net.cpp:156] Memory required for data: 123670000
I0317 17:40:40.310499  2881 layer_factory.hpp:77] Creating layer sim_pair_data_1_split
I0317 17:40:40.310528  2881 net.cpp:91] Creating Layer sim_pair_data_1_split
I0317 17:40:40.310534  2881 net.cpp:425] sim_pair_data_1_split <- sim
I0317 17:40:40.310546  2881 net.cpp:399] sim_pair_data_1_split -> sim_pair_data_1_split_0
I0317 17:40:40.310562  2881 net.cpp:399] sim_pair_data_1_split -> sim_pair_data_1_split_1
I0317 17:40:40.310696  2881 net.cpp:141] Setting up sim_pair_data_1_split
I0317 17:40:40.310714  2881 net.cpp:148] Top shape: 100 (100)
I0317 17:40:40.310720  2881 net.cpp:148] Top shape: 100 (100)
I0317 17:40:40.310725  2881 net.cpp:156] Memory required for data: 123670800
I0317 17:40:40.310730  2881 layer_factory.hpp:77] Creating layer slice_pair
I0317 17:40:40.310745  2881 net.cpp:91] Creating Layer slice_pair
I0317 17:40:40.310751  2881 net.cpp:425] slice_pair <- pair_data
I0317 17:40:40.310760  2881 net.cpp:399] slice_pair -> data
I0317 17:40:40.310770  2881 net.cpp:399] slice_pair -> data_p
I0317 17:40:40.310863  2881 net.cpp:141] Setting up slice_pair
I0317 17:40:40.310881  2881 net.cpp:148] Top shape: 100 3 227 227 (15458700)
I0317 17:40:40.310889  2881 net.cpp:148] Top shape: 100 3 227 227 (15458700)
I0317 17:40:40.310892  2881 net.cpp:156] Memory required for data: 247340400
I0317 17:40:40.310899  2881 layer_factory.hpp:77] Creating layer conv1
I0317 17:40:40.310920  2881 net.cpp:91] Creating Layer conv1
I0317 17:40:40.310927  2881 net.cpp:425] conv1 <- data
I0317 17:40:40.310966  2881 net.cpp:399] conv1 -> conv1
I0317 17:40:40.327992  2881 net.cpp:141] Setting up conv1
I0317 17:40:40.328033  2881 net.cpp:148] Top shape: 100 96 55 55 (29040000)
I0317 17:40:40.328040  2881 net.cpp:156] Memory required for data: 363500400
I0317 17:40:40.328060  2881 layer_factory.hpp:77] Creating layer relu1
I0317 17:40:40.328079  2881 net.cpp:91] Creating Layer relu1
I0317 17:40:40.328086  2881 net.cpp:425] relu1 <- conv1
I0317 17:40:40.328095  2881 net.cpp:386] relu1 -> conv1 (in-place)
I0317 17:40:40.328380  2881 net.cpp:141] Setting up relu1
I0317 17:40:40.328403  2881 net.cpp:148] Top shape: 100 96 55 55 (29040000)
I0317 17:40:40.328409  2881 net.cpp:156] Memory required for data: 479660400
I0317 17:40:40.328415  2881 layer_factory.hpp:77] Creating layer norm1
I0317 17:40:40.328429  2881 net.cpp:91] Creating Layer norm1
I0317 17:40:40.328435  2881 net.cpp:425] norm1 <- conv1
I0317 17:40:40.328444  2881 net.cpp:399] norm1 -> norm1
I0317 17:40:40.328649  2881 net.cpp:141] Setting up norm1
I0317 17:40:40.328668  2881 net.cpp:148] Top shape: 100 96 55 55 (29040000)
I0317 17:40:40.328673  2881 net.cpp:156] Memory required for data: 595820400
I0317 17:40:40.328680  2881 layer_factory.hpp:77] Creating layer pool1
I0317 17:40:40.328692  2881 net.cpp:91] Creating Layer pool1
I0317 17:40:40.328698  2881 net.cpp:425] pool1 <- norm1
I0317 17:40:40.328706  2881 net.cpp:399] pool1 -> pool1
I0317 17:40:40.328765  2881 net.cpp:141] Setting up pool1
I0317 17:40:40.328783  2881 net.cpp:148] Top shape: 100 96 27 27 (6998400)
I0317 17:40:40.328788  2881 net.cpp:156] Memory required for data: 623814000
I0317 17:40:40.328794  2881 layer_factory.hpp:77] Creating layer conv2
I0317 17:40:40.328811  2881 net.cpp:91] Creating Layer conv2
I0317 17:40:40.328819  2881 net.cpp:425] conv2 <- pool1
I0317 17:40:40.328831  2881 net.cpp:399] conv2 -> conv2
I0317 17:40:40.341323  2881 net.cpp:141] Setting up conv2
I0317 17:40:40.341372  2881 net.cpp:148] Top shape: 100 256 27 27 (18662400)
I0317 17:40:40.341379  2881 net.cpp:156] Memory required for data: 698463600
I0317 17:40:40.341403  2881 layer_factory.hpp:77] Creating layer relu2
I0317 17:40:40.341423  2881 net.cpp:91] Creating Layer relu2
I0317 17:40:40.341429  2881 net.cpp:425] relu2 <- conv2
I0317 17:40:40.341441  2881 net.cpp:386] relu2 -> conv2 (in-place)
I0317 17:40:40.341624  2881 net.cpp:141] Setting up relu2
I0317 17:40:40.341644  2881 net.cpp:148] Top shape: 100 256 27 27 (18662400)
I0317 17:40:40.341648  2881 net.cpp:156] Memory required for data: 773113200
I0317 17:40:40.341655  2881 layer_factory.hpp:77] Creating layer norm2
I0317 17:40:40.341668  2881 net.cpp:91] Creating Layer norm2
I0317 17:40:40.341675  2881 net.cpp:425] norm2 <- conv2
I0317 17:40:40.341681  2881 net.cpp:399] norm2 -> norm2
I0317 17:40:40.341984  2881 net.cpp:141] Setting up norm2
I0317 17:40:40.342005  2881 net.cpp:148] Top shape: 100 256 27 27 (18662400)
I0317 17:40:40.342011  2881 net.cpp:156] Memory required for data: 847762800
I0317 17:40:40.342017  2881 layer_factory.hpp:77] Creating layer pool2
I0317 17:40:40.342028  2881 net.cpp:91] Creating Layer pool2
I0317 17:40:40.342033  2881 net.cpp:425] pool2 <- norm2
I0317 17:40:40.342044  2881 net.cpp:399] pool2 -> pool2
I0317 17:40:40.342103  2881 net.cpp:141] Setting up pool2
I0317 17:40:40.342120  2881 net.cpp:148] Top shape: 100 256 13 13 (4326400)
I0317 17:40:40.342126  2881 net.cpp:156] Memory required for data: 865068400
I0317 17:40:40.342131  2881 layer_factory.hpp:77] Creating layer conv3
I0317 17:40:40.342152  2881 net.cpp:91] Creating Layer conv3
I0317 17:40:40.342159  2881 net.cpp:425] conv3 <- pool2
I0317 17:40:40.342169  2881 net.cpp:399] conv3 -> conv3
I0317 17:40:40.373523  2881 net.cpp:141] Setting up conv3
I0317 17:40:40.373575  2881 net.cpp:148] Top shape: 100 384 13 13 (6489600)
I0317 17:40:40.373582  2881 net.cpp:156] Memory required for data: 891026800
I0317 17:40:40.373610  2881 layer_factory.hpp:77] Creating layer relu3
I0317 17:40:40.373625  2881 net.cpp:91] Creating Layer relu3
I0317 17:40:40.373666  2881 net.cpp:425] relu3 <- conv3
I0317 17:40:40.373678  2881 net.cpp:386] relu3 -> conv3 (in-place)
I0317 17:40:40.373951  2881 net.cpp:141] Setting up relu3
I0317 17:40:40.373975  2881 net.cpp:148] Top shape: 100 384 13 13 (6489600)
I0317 17:40:40.373980  2881 net.cpp:156] Memory required for data: 916985200
I0317 17:40:40.373986  2881 layer_factory.hpp:77] Creating layer conv4
I0317 17:40:40.374004  2881 net.cpp:91] Creating Layer conv4
I0317 17:40:40.374012  2881 net.cpp:425] conv4 <- conv3
I0317 17:40:40.374022  2881 net.cpp:399] conv4 -> conv4
I0317 17:40:40.398555  2881 net.cpp:141] Setting up conv4
I0317 17:40:40.398604  2881 net.cpp:148] Top shape: 100 384 13 13 (6489600)
I0317 17:40:40.398610  2881 net.cpp:156] Memory required for data: 942943600
I0317 17:40:40.398630  2881 layer_factory.hpp:77] Creating layer relu4
I0317 17:40:40.398648  2881 net.cpp:91] Creating Layer relu4
I0317 17:40:40.398654  2881 net.cpp:425] relu4 <- conv4
I0317 17:40:40.398666  2881 net.cpp:386] relu4 -> conv4 (in-place)
I0317 17:40:40.398886  2881 net.cpp:141] Setting up relu4
I0317 17:40:40.398905  2881 net.cpp:148] Top shape: 100 384 13 13 (6489600)
I0317 17:40:40.398911  2881 net.cpp:156] Memory required for data: 968902000
I0317 17:40:40.398916  2881 layer_factory.hpp:77] Creating layer conv5
I0317 17:40:40.398936  2881 net.cpp:91] Creating Layer conv5
I0317 17:40:40.398948  2881 net.cpp:425] conv5 <- conv4
I0317 17:40:40.398960  2881 net.cpp:399] conv5 -> conv5
I0317 17:40:40.416185  2881 net.cpp:141] Setting up conv5
I0317 17:40:40.416242  2881 net.cpp:148] Top shape: 100 256 13 13 (4326400)
I0317 17:40:40.416249  2881 net.cpp:156] Memory required for data: 986207600
I0317 17:40:40.416277  2881 layer_factory.hpp:77] Creating layer relu5
I0317 17:40:40.416316  2881 net.cpp:91] Creating Layer relu5
I0317 17:40:40.416330  2881 net.cpp:425] relu5 <- conv5
I0317 17:40:40.416343  2881 net.cpp:386] relu5 -> conv5 (in-place)
I0317 17:40:40.416636  2881 net.cpp:141] Setting up relu5
I0317 17:40:40.416661  2881 net.cpp:148] Top shape: 100 256 13 13 (4326400)
I0317 17:40:40.416666  2881 net.cpp:156] Memory required for data: 1003513200
I0317 17:40:40.416671  2881 layer_factory.hpp:77] Creating layer pool5
I0317 17:40:40.416685  2881 net.cpp:91] Creating Layer pool5
I0317 17:40:40.416692  2881 net.cpp:425] pool5 <- conv5
I0317 17:40:40.416700  2881 net.cpp:399] pool5 -> pool5
I0317 17:40:40.416776  2881 net.cpp:141] Setting up pool5
I0317 17:40:40.416795  2881 net.cpp:148] Top shape: 100 256 6 6 (921600)
I0317 17:40:40.416800  2881 net.cpp:156] Memory required for data: 1007199600
I0317 17:40:40.416806  2881 layer_factory.hpp:77] Creating layer fc6
I0317 17:40:40.416821  2881 net.cpp:91] Creating Layer fc6
I0317 17:40:40.416826  2881 net.cpp:425] fc6 <- pool5
I0317 17:40:40.416837  2881 net.cpp:399] fc6 -> fc6
I0317 17:40:41.697649  2881 net.cpp:141] Setting up fc6
I0317 17:40:41.697713  2881 net.cpp:148] Top shape: 100 4096 (409600)
I0317 17:40:41.697721  2881 net.cpp:156] Memory required for data: 1008838000
I0317 17:40:41.697739  2881 layer_factory.hpp:77] Creating layer relu6
I0317 17:40:41.697763  2881 net.cpp:91] Creating Layer relu6
I0317 17:40:41.697772  2881 net.cpp:425] relu6 <- fc6
I0317 17:40:41.697780  2881 net.cpp:386] relu6 -> fc6 (in-place)
I0317 17:40:41.698073  2881 net.cpp:141] Setting up relu6
I0317 17:40:41.698092  2881 net.cpp:148] Top shape: 100 4096 (409600)
I0317 17:40:41.698098  2881 net.cpp:156] Memory required for data: 1010476400
I0317 17:40:41.698103  2881 layer_factory.hpp:77] Creating layer drop6
I0317 17:40:41.698120  2881 net.cpp:91] Creating Layer drop6
I0317 17:40:41.698143  2881 net.cpp:425] drop6 <- fc6
I0317 17:40:41.698149  2881 net.cpp:386] drop6 -> fc6 (in-place)
I0317 17:40:41.698189  2881 net.cpp:141] Setting up drop6
I0317 17:40:41.698216  2881 net.cpp:148] Top shape: 100 4096 (409600)
I0317 17:40:41.698221  2881 net.cpp:156] Memory required for data: 1012114800
I0317 17:40:41.698227  2881 layer_factory.hpp:77] Creating layer fc7
I0317 17:40:41.698243  2881 net.cpp:91] Creating Layer fc7
I0317 17:40:41.698273  2881 net.cpp:425] fc7 <- fc6
I0317 17:40:41.698290  2881 net.cpp:399] fc7 -> fc7
I0317 17:40:42.276243  2881 net.cpp:141] Setting up fc7
I0317 17:40:42.276317  2881 net.cpp:148] Top shape: 100 4096 (409600)
I0317 17:40:42.276324  2881 net.cpp:156] Memory required for data: 1013753200
I0317 17:40:42.276343  2881 layer_factory.hpp:77] Creating layer fc8
I0317 17:40:42.276366  2881 net.cpp:91] Creating Layer fc8
I0317 17:40:42.276374  2881 net.cpp:425] fc8 <- fc7
I0317 17:40:42.276389  2881 net.cpp:399] fc8 -> fc8
I0317 17:40:42.414465  2881 net.cpp:141] Setting up fc8
I0317 17:40:42.414505  2881 net.cpp:148] Top shape: 100 1000 (100000)
I0317 17:40:42.414510  2881 net.cpp:156] Memory required for data: 1014153200
I0317 17:40:42.414525  2881 layer_factory.hpp:77] Creating layer fc8_fc8_0_split
I0317 17:40:42.414537  2881 net.cpp:91] Creating Layer fc8_fc8_0_split
I0317 17:40:42.414544  2881 net.cpp:425] fc8_fc8_0_split <- fc8
I0317 17:40:42.414553  2881 net.cpp:399] fc8_fc8_0_split -> fc8_fc8_0_split_0
I0317 17:40:42.414566  2881 net.cpp:399] fc8_fc8_0_split -> fc8_fc8_0_split_1
I0317 17:40:42.414628  2881 net.cpp:141] Setting up fc8_fc8_0_split
I0317 17:40:42.414644  2881 net.cpp:148] Top shape: 100 1000 (100000)
I0317 17:40:42.414650  2881 net.cpp:148] Top shape: 100 1000 (100000)
I0317 17:40:42.414667  2881 net.cpp:156] Memory required for data: 1014953200
I0317 17:40:42.414674  2881 layer_factory.hpp:77] Creating layer conv1_p
I0317 17:40:42.414695  2881 net.cpp:91] Creating Layer conv1_p
I0317 17:40:42.414707  2881 net.cpp:425] conv1_p <- data_p
I0317 17:40:42.414721  2881 net.cpp:399] conv1_p -> conv1_p
I0317 17:40:42.417098  2881 net.cpp:141] Setting up conv1_p
I0317 17:40:42.417127  2881 net.cpp:148] Top shape: 100 96 55 55 (29040000)
I0317 17:40:42.417134  2881 net.cpp:156] Memory required for data: 1131113200
I0317 17:40:42.417150  2881 net.cpp:484] Sharing parameters 'conv1_w' owned by layer 'conv1', param index 0
I0317 17:40:42.417158  2881 net.cpp:484] Sharing parameters 'conv1_b' owned by layer 'conv1', param index 1
I0317 17:40:42.417165  2881 layer_factory.hpp:77] Creating layer relu1_p
I0317 17:40:42.417173  2881 net.cpp:91] Creating Layer relu1_p
I0317 17:40:42.417178  2881 net.cpp:425] relu1_p <- conv1_p
I0317 17:40:42.417186  2881 net.cpp:386] relu1_p -> conv1_p (in-place)
I0317 17:40:42.417367  2881 net.cpp:141] Setting up relu1_p
I0317 17:40:42.417392  2881 net.cpp:148] Top shape: 100 96 55 55 (29040000)
I0317 17:40:42.417402  2881 net.cpp:156] Memory required for data: 1247273200
I0317 17:40:42.417412  2881 layer_factory.hpp:77] Creating layer norm1_p
I0317 17:40:42.417434  2881 net.cpp:91] Creating Layer norm1_p
I0317 17:40:42.417454  2881 net.cpp:425] norm1_p <- conv1_p
I0317 17:40:42.417464  2881 net.cpp:399] norm1_p -> norm1_p
I0317 17:40:42.417783  2881 net.cpp:141] Setting up norm1_p
I0317 17:40:42.417804  2881 net.cpp:148] Top shape: 100 96 55 55 (29040000)
I0317 17:40:42.417809  2881 net.cpp:156] Memory required for data: 1363433200
I0317 17:40:42.417815  2881 layer_factory.hpp:77] Creating layer pool1_p
I0317 17:40:42.417829  2881 net.cpp:91] Creating Layer pool1_p
I0317 17:40:42.417834  2881 net.cpp:425] pool1_p <- norm1_p
I0317 17:40:42.417842  2881 net.cpp:399] pool1_p -> pool1_p
I0317 17:40:42.417903  2881 net.cpp:141] Setting up pool1_p
I0317 17:40:42.417920  2881 net.cpp:148] Top shape: 100 96 27 27 (6998400)
I0317 17:40:42.417925  2881 net.cpp:156] Memory required for data: 1391426800
I0317 17:40:42.417930  2881 layer_factory.hpp:77] Creating layer conv2_p
I0317 17:40:42.417946  2881 net.cpp:91] Creating Layer conv2_p
I0317 17:40:42.417951  2881 net.cpp:425] conv2_p <- pool1_p
I0317 17:40:42.417963  2881 net.cpp:399] conv2_p -> conv2_p
I0317 17:40:42.430177  2881 net.cpp:141] Setting up conv2_p
I0317 17:40:42.430204  2881 net.cpp:148] Top shape: 100 256 27 27 (18662400)
I0317 17:40:42.430210  2881 net.cpp:156] Memory required for data: 1466076400
I0317 17:40:42.430218  2881 net.cpp:484] Sharing parameters 'conv2_w' owned by layer 'conv2', param index 0
I0317 17:40:42.430253  2881 net.cpp:484] Sharing parameters 'conv2_b' owned by layer 'conv2', param index 1
I0317 17:40:42.430259  2881 layer_factory.hpp:77] Creating layer relu2_p
I0317 17:40:42.430271  2881 net.cpp:91] Creating Layer relu2_p
I0317 17:40:42.430277  2881 net.cpp:425] relu2_p <- conv2_p
I0317 17:40:42.430285  2881 net.cpp:386] relu2_p -> conv2_p (in-place)
I0317 17:40:42.430465  2881 net.cpp:141] Setting up relu2_p
I0317 17:40:42.430485  2881 net.cpp:148] Top shape: 100 256 27 27 (18662400)
I0317 17:40:42.430490  2881 net.cpp:156] Memory required for data: 1540726000
I0317 17:40:42.430495  2881 layer_factory.hpp:77] Creating layer norm2_p
I0317 17:40:42.430507  2881 net.cpp:91] Creating Layer norm2_p
I0317 17:40:42.430513  2881 net.cpp:425] norm2_p <- conv2_p
I0317 17:40:42.430522  2881 net.cpp:399] norm2_p -> norm2_p
I0317 17:40:42.430924  2881 net.cpp:141] Setting up norm2_p
I0317 17:40:42.430946  2881 net.cpp:148] Top shape: 100 256 27 27 (18662400)
I0317 17:40:42.430951  2881 net.cpp:156] Memory required for data: 1615375600
I0317 17:40:42.430958  2881 layer_factory.hpp:77] Creating layer pool2_p
I0317 17:40:42.430966  2881 net.cpp:91] Creating Layer pool2_p
I0317 17:40:42.430971  2881 net.cpp:425] pool2_p <- norm2_p
I0317 17:40:42.430982  2881 net.cpp:399] pool2_p -> pool2_p
I0317 17:40:42.431041  2881 net.cpp:141] Setting up pool2_p
I0317 17:40:42.431057  2881 net.cpp:148] Top shape: 100 256 13 13 (4326400)
I0317 17:40:42.431062  2881 net.cpp:156] Memory required for data: 1632681200
I0317 17:40:42.431067  2881 layer_factory.hpp:77] Creating layer conv3_p
I0317 17:40:42.431089  2881 net.cpp:91] Creating Layer conv3_p
I0317 17:40:42.431097  2881 net.cpp:425] conv3_p <- pool2_p
I0317 17:40:42.431110  2881 net.cpp:399] conv3_p -> conv3_p
I0317 17:40:42.461783  2881 net.cpp:141] Setting up conv3_p
I0317 17:40:42.461809  2881 net.cpp:148] Top shape: 100 384 13 13 (6489600)
I0317 17:40:42.461815  2881 net.cpp:156] Memory required for data: 1658639600
I0317 17:40:42.461823  2881 net.cpp:484] Sharing parameters 'conv3_w' owned by layer 'conv3', param index 0
I0317 17:40:42.461829  2881 net.cpp:484] Sharing parameters 'conv3_b' owned by layer 'conv3', param index 1
I0317 17:40:42.461835  2881 layer_factory.hpp:77] Creating layer relu3_p
I0317 17:40:42.461846  2881 net.cpp:91] Creating Layer relu3_p
I0317 17:40:42.461853  2881 net.cpp:425] relu3_p <- conv3_p
I0317 17:40:42.461860  2881 net.cpp:386] relu3_p -> conv3_p (in-place)
I0317 17:40:42.462137  2881 net.cpp:141] Setting up relu3_p
I0317 17:40:42.462158  2881 net.cpp:148] Top shape: 100 384 13 13 (6489600)
I0317 17:40:42.462164  2881 net.cpp:156] Memory required for data: 1684598000
I0317 17:40:42.462169  2881 layer_factory.hpp:77] Creating layer conv4_p
I0317 17:40:42.462187  2881 net.cpp:91] Creating Layer conv4_p
I0317 17:40:42.462193  2881 net.cpp:425] conv4_p <- conv3_p
I0317 17:40:42.462204  2881 net.cpp:399] conv4_p -> conv4_p
I0317 17:40:42.486198  2881 net.cpp:141] Setting up conv4_p
I0317 17:40:42.486222  2881 net.cpp:148] Top shape: 100 384 13 13 (6489600)
I0317 17:40:42.486228  2881 net.cpp:156] Memory required for data: 1710556400
I0317 17:40:42.486235  2881 net.cpp:484] Sharing parameters 'conv4_w' owned by layer 'conv4', param index 0
I0317 17:40:42.486243  2881 net.cpp:484] Sharing parameters 'conv4_b' owned by layer 'conv4', param index 1
I0317 17:40:42.486248  2881 layer_factory.hpp:77] Creating layer relu4_p
I0317 17:40:42.486258  2881 net.cpp:91] Creating Layer relu4_p
I0317 17:40:42.486264  2881 net.cpp:425] relu4_p <- conv4_p
I0317 17:40:42.486271  2881 net.cpp:386] relu4_p -> conv4_p (in-place)
I0317 17:40:42.486439  2881 net.cpp:141] Setting up relu4_p
I0317 17:40:42.486459  2881 net.cpp:148] Top shape: 100 384 13 13 (6489600)
I0317 17:40:42.486464  2881 net.cpp:156] Memory required for data: 1736514800
I0317 17:40:42.486469  2881 layer_factory.hpp:77] Creating layer conv5_p
I0317 17:40:42.486487  2881 net.cpp:91] Creating Layer conv5_p
I0317 17:40:42.486496  2881 net.cpp:425] conv5_p <- conv4_p
I0317 17:40:42.486505  2881 net.cpp:399] conv5_p -> conv5_p
I0317 17:40:42.503193  2881 net.cpp:141] Setting up conv5_p
I0317 17:40:42.503216  2881 net.cpp:148] Top shape: 100 256 13 13 (4326400)
I0317 17:40:42.503222  2881 net.cpp:156] Memory required for data: 1753820400
I0317 17:40:42.503229  2881 net.cpp:484] Sharing parameters 'conv5_w' owned by layer 'conv5', param index 0
I0317 17:40:42.503237  2881 net.cpp:484] Sharing parameters 'conv5_b' owned by layer 'conv5', param index 1
I0317 17:40:42.503242  2881 layer_factory.hpp:77] Creating layer relu5_p
I0317 17:40:42.503253  2881 net.cpp:91] Creating Layer relu5_p
I0317 17:40:42.503259  2881 net.cpp:425] relu5_p <- conv5_p
I0317 17:40:42.503267  2881 net.cpp:386] relu5_p -> conv5_p (in-place)
I0317 17:40:42.503439  2881 net.cpp:141] Setting up relu5_p
I0317 17:40:42.503458  2881 net.cpp:148] Top shape: 100 256 13 13 (4326400)
I0317 17:40:42.503463  2881 net.cpp:156] Memory required for data: 1771126000
I0317 17:40:42.503469  2881 layer_factory.hpp:77] Creating layer pool5_p
I0317 17:40:42.503481  2881 net.cpp:91] Creating Layer pool5_p
I0317 17:40:42.503486  2881 net.cpp:425] pool5_p <- conv5_p
I0317 17:40:42.503494  2881 net.cpp:399] pool5_p -> pool5_p
I0317 17:40:42.503561  2881 net.cpp:141] Setting up pool5_p
I0317 17:40:42.503577  2881 net.cpp:148] Top shape: 100 256 6 6 (921600)
I0317 17:40:42.503582  2881 net.cpp:156] Memory required for data: 1774812400
I0317 17:40:42.503587  2881 layer_factory.hpp:77] Creating layer fc6_p
I0317 17:40:42.503603  2881 net.cpp:91] Creating Layer fc6_p
I0317 17:40:42.503609  2881 net.cpp:425] fc6_p <- pool5_p
I0317 17:40:42.503618  2881 net.cpp:399] fc6_p -> fc6_p
I0317 17:40:43.776664  2881 net.cpp:141] Setting up fc6_p
I0317 17:40:43.776717  2881 net.cpp:148] Top shape: 100 4096 (409600)
I0317 17:40:43.776724  2881 net.cpp:156] Memory required for data: 1776450800
I0317 17:40:43.776737  2881 net.cpp:484] Sharing parameters 'fc6_w' owned by layer 'fc6', param index 0
I0317 17:40:43.776746  2881 net.cpp:484] Sharing parameters 'fc6_b' owned by layer 'fc6', param index 1
I0317 17:40:43.776751  2881 layer_factory.hpp:77] Creating layer relu6_p
I0317 17:40:43.776770  2881 net.cpp:91] Creating Layer relu6_p
I0317 17:40:43.776777  2881 net.cpp:425] relu6_p <- fc6_p
I0317 17:40:43.776788  2881 net.cpp:386] relu6_p -> fc6_p (in-place)
I0317 17:40:43.777268  2881 net.cpp:141] Setting up relu6_p
I0317 17:40:43.777289  2881 net.cpp:148] Top shape: 100 4096 (409600)
I0317 17:40:43.777295  2881 net.cpp:156] Memory required for data: 1778089200
I0317 17:40:43.777302  2881 layer_factory.hpp:77] Creating layer drop6_p
I0317 17:40:43.777314  2881 net.cpp:91] Creating Layer drop6_p
I0317 17:40:43.777319  2881 net.cpp:425] drop6_p <- fc6_p
I0317 17:40:43.777328  2881 net.cpp:386] drop6_p -> fc6_p (in-place)
I0317 17:40:43.777379  2881 net.cpp:141] Setting up drop6_p
I0317 17:40:43.777400  2881 net.cpp:148] Top shape: 100 4096 (409600)
I0317 17:40:43.777406  2881 net.cpp:156] Memory required for data: 1779727600
I0317 17:40:43.777412  2881 layer_factory.hpp:77] Creating layer fc7_p
I0317 17:40:43.777428  2881 net.cpp:91] Creating Layer fc7_p
I0317 17:40:43.777438  2881 net.cpp:425] fc7_p <- fc6_p
I0317 17:40:43.777448  2881 net.cpp:399] fc7_p -> fc7_p
I0317 17:40:44.344393  2881 net.cpp:141] Setting up fc7_p
I0317 17:40:44.344437  2881 net.cpp:148] Top shape: 100 4096 (409600)
I0317 17:40:44.344444  2881 net.cpp:156] Memory required for data: 1781366000
I0317 17:40:44.344456  2881 net.cpp:484] Sharing parameters 'fc7_w' owned by layer 'fc7', param index 0
I0317 17:40:44.344465  2881 net.cpp:484] Sharing parameters 'fc7_b' owned by layer 'fc7', param index 1
I0317 17:40:44.344470  2881 layer_factory.hpp:77] Creating layer fc8_p
I0317 17:40:44.344493  2881 net.cpp:91] Creating Layer fc8_p
I0317 17:40:44.344503  2881 net.cpp:425] fc8_p <- fc7_p
I0317 17:40:44.344518  2881 net.cpp:399] fc8_p -> fc8_p
I0317 17:40:44.481565  2881 net.cpp:141] Setting up fc8_p
I0317 17:40:44.481612  2881 net.cpp:148] Top shape: 100 1000 (100000)
I0317 17:40:44.481618  2881 net.cpp:156] Memory required for data: 1781766000
I0317 17:40:44.481649  2881 net.cpp:484] Sharing parameters 'fc8_w' owned by layer 'fc8', param index 0
I0317 17:40:44.481658  2881 net.cpp:484] Sharing parameters 'fc8_b' owned by layer 'fc8', param index 1
I0317 17:40:44.481664  2881 layer_factory.hpp:77] Creating layer fc8_p_fc8_p_0_split
I0317 17:40:44.481679  2881 net.cpp:91] Creating Layer fc8_p_fc8_p_0_split
I0317 17:40:44.481688  2881 net.cpp:425] fc8_p_fc8_p_0_split <- fc8_p
I0317 17:40:44.481700  2881 net.cpp:399] fc8_p_fc8_p_0_split -> fc8_p_fc8_p_0_split_0
I0317 17:40:44.481714  2881 net.cpp:399] fc8_p_fc8_p_0_split -> fc8_p_fc8_p_0_split_1
I0317 17:40:44.481796  2881 net.cpp:141] Setting up fc8_p_fc8_p_0_split
I0317 17:40:44.481813  2881 net.cpp:148] Top shape: 100 1000 (100000)
I0317 17:40:44.481819  2881 net.cpp:148] Top shape: 100 1000 (100000)
I0317 17:40:44.481824  2881 net.cpp:156] Memory required for data: 1782566000
I0317 17:40:44.481829  2881 layer_factory.hpp:77] Creating layer siamese_accuracy
I0317 17:40:44.481848  2881 net.cpp:91] Creating Layer siamese_accuracy
I0317 17:40:44.481856  2881 net.cpp:425] siamese_accuracy <- fc8_fc8_0_split_0
I0317 17:40:44.481863  2881 net.cpp:425] siamese_accuracy <- fc8_p_fc8_p_0_split_0
…
