…
I0318 05:16:41.528584  3501 net.cpp:313] The NetState phase (0) differed from the phase (1) specified by a rule in layer pair_data
I0318 05:16:41.528648  3501 net.cpp:313] The NetState phase (0) differed from the phase (1) specified by a rule in layer siamese_accuracy
I0318 05:16:41.529060  3501 net.cpp:49] Initializing net from parameters: 
name: "SiameseAlexNet"
state {
  phase: TRAIN
}
layer {
  name: "pair_data"
  type: "Data"
  top: "pair_data"
  top: "sim"
  include {
    phase: TRAIN
  }
  transform_param {
    scale: 0.00390625
  }
  data_param {
    source: "/home/ubuntu/fyp/data/data-fyp/siamese_train_leveldb"
    batch_size: 64
  }
}
layer {
  name: "slice_pair"
  type: "Slice"
  bottom: "pair_data"
  top: "data"
  top: "data_p"
  slice_param {
    slice_dim: 1
    slice_point: 3
  }
}
layer {
  name: "conv1"
  type: "Convolution"
  bottom: "data"
  top: "conv1"
  param {
    name: "conv1_w"
    lr_mult: 0
    decay_mult: 1
  }
  param {
    name: "conv1_b"
    lr_mult: 0
    decay_mult: 0
  }
  convolution_param {
    num_output: 96
    kernel_size: 11
    stride: 4
    weight_filler {
      type: "gaussian"
      std: 0.01
    }
    bias_filler {
      type: "constant"
      value: 0
    }
  }
}
layer {
  name: "relu1"
  type: "ReLU"
  bottom: "conv1"
  top: "conv1"
}
layer {
  name: "norm1"
  type: "LRN"
  bottom: "conv1"
  top: "norm1"
  lrn_param {
    local_size: 5
    alpha: 0.0001
    beta: 0.75
  }
}
layer {
  name: "pool1"
  type: "Pooling"
  bottom: "norm1"
  top: "pool1"
  pooling_param {
    pool: MAX
    kernel_size: 3
    stride: 2
  }
}
layer {
  name: "conv2"
  type: "Convolution"
  bottom: "pool1"
  top: "conv2"
  param {
    name: "conv2_w"
    lr_mult: 0
    decay_mult: 1
  }
  param {
    name: "conv2_b"
    lr_mult: 0
    decay_mult: 0
  }
  convolution_param {
    num_output: 256
    pad: 2
    kernel_size: 5
    group: 2
    weight_filler {
      type: "gaussian"
      std: 0.01
    }
    bias_filler {
      type: "constant"
      value: 0.1
    }
  }
}
layer {
  name: "relu2"
  type: "ReLU"
  bottom: "conv2"
  top: "conv2"
}
layer {
  name: "norm2"
  type: "LRN"
  bottom: "conv2"
  top: "norm2"
  lrn_param {
    local_size: 5
    alpha: 0.0001
    beta: 0.75
  }
}
layer {
  name: "pool2"
  type: "Pooling"
  bottom: "norm2"
  top: "pool2"
  pooling_param {
    pool: MAX
    kernel_size: 3
    stride: 2
  }
}
layer {
  name: "conv3"
  type: "Convolution"
  bottom: "pool2"
  top: "conv3"
  param {
    name: "conv3_w"
    lr_mult: 0
    decay_mult: 1
  }
  param {
    name: "conv3_b"
    lr_mult: 0
    decay_mult: 0
  }
  convolution_param {
    num_output: 384
    pad: 1
    kernel_size: 3
    weight_filler {
      type: "gaussian"
      std: 0.01
    }
    bias_filler {
      type: "constant"
      value: 0
    }
  }
}
layer {
  name: "relu3"
  type: "ReLU"
  bottom: "conv3"
  top: "conv3"
}
layer {
  name: "conv4"
  type: "Convolution"
  bottom: "conv3"
  top: "conv4"
  param {
    name: "conv4_w"
    lr_mult: 0
    decay_mult: 1
  }
  param {
    name: "conv4_b"
    lr_mult: 0
    decay_mult: 0
  }
  convolution_param {
    num_output: 384
    pad: 1
    kernel_size: 3
    group: 2
    weight_filler {
      type: "gaussian"
      std: 0.01
    }
    bias_filler {
      type: "constant"
      value: 0.1
    }
  }
}
layer {
  name: "relu4"
  type: "ReLU"
  bottom: "conv4"
  top: "conv4"
}
layer {
  name: "conv5"
  type: "Convolution"
  bottom: "conv4"
  top: "conv5"
  param {
    name: "conv5_w"
    lr_mult: 0
    decay_mult: 1
  }
  param {
    name: "conv5_b"
    lr_mult: 0
    decay_mult: 0
  }
  convolution_param {
    num_output: 256
    pad: 1
    kernel_size: 3
    group: 2
    weight_filler {
      type: "gaussian"
      std: 0.01
    }
    bias_filler {
      type: "constant"
      value: 0.1
    }
  }
}
layer {
  name: "relu5"
  type: "ReLU"
  bottom: "conv5"
  top: "conv5"
}
layer {
  name: "pool5"
  type: "Pooling"
  bottom: "conv5"
  top: "pool5"
  pooling_param {
    pool: MAX
    kernel_size: 3
    stride: 2
  }
}
layer {
  name: "fc6"
  type: "InnerProduct"
  bottom: "pool5"
  top: "fc6"
  param {
    name: "fc6_w"
    lr_mult: 0
    decay_mult: 1
  }
  param {
    name: "fc6_b"
    lr_mult: 0
    decay_mult: 0
  }
  inner_product_param {
    num_output: 4096
    weight_filler {
      type: "gaussian"
      std: 0.005
    }
    bias_filler {
      type: "constant"
      value: 0.1
    }
  }
}
layer {
  name: "relu6"
  type: "ReLU"
  bottom: "fc6"
  top: "fc6"
}
layer {
  name: "drop6"
  type: "Dropout"
  bottom: "fc6"
  top: "fc6"
  dropout_param {
    dropout_ratio: 0.5
  }
}
layer {
  name: "fc7"
  type: "InnerProduct"
  bottom: "fc6"
  top: "fc7"
  param {
    name: "fc7_w"
    lr_mult: 0
    decay_mult: 1
  }
  param {
    name: "fc7_b"
    lr_mult: 0
    decay_mult: 0
  }
  inner_product_param {
    num_output: 4096
    weight_filler {
      type: "gaussian"
      std: 0.01
    }
    bias_filler {
      type: "constant"
      value: 0
    }
  }
}
layer {
  name: "fc8"
  type: "InnerProduct"
  bottom: "fc7"
  top: "fc8"
  param {
    name: "fc8_w"
    lr_mult: 1
    decay_mult: 1
  }
  param {
    name: "fc8_b"
    lr_mult: 2
    decay_mult: 0
  }
  inner_product_param {
    num_output: 1000
    weight_filler {
      type: "gaussian"
      std: 0.01
    }
    bias_filler {
      type: "constant"
      value: 0
    }
  }
}
layer {
  name: "conv1_p"
  type: "Convolution"
  bottom: "data_p"
  top: "conv1_p"
  param {
    name: "conv1_w"
    lr_mult: 0
    decay_mult: 1
  }
  param {
    name: "conv1_b"
    lr_mult: 0
    decay_mult: 0
  }
  convolution_param {
    num_output: 96
    kernel_size: 11
    stride: 4
    weight_filler {
      type: "gaussian"
      std: 0.01
    }
    bias_filler {
      type: "constant"
      value: 0
    }
  }
}
layer {
  name: "relu1_p"
  type: "ReLU"
  bottom: "conv1_p"
  top: "conv1_p"
}
layer {
  name: "norm1_p"
  type: "LRN"
  bottom: "conv1_p"
  top: "norm1_p"
  lrn_param {
    local_size: 5
    alpha: 0.0001
    beta: 0.75
  }
}
layer {
  name: "pool1_p"
  type: "Pooling"
  bottom: "norm1_p"
  top: "pool1_p"
  pooling_param {
    pool: MAX
    kernel_size: 3
    stride: 2
  }
}
layer {
  name: "conv2_p"
  type: "Convolution"
  bottom: "pool1_p"
  top: "conv2_p"
  param {
    name: "conv2_w"
    lr_mult: 0
    decay_mult: 1
  }
  param {
    name: "conv2_b"
    lr_mult: 0
    decay_mult: 0
  }
  convolution_param {
    num_output: 256
    pad: 2
    kernel_size: 5
    group: 2
    weight_filler {
      type: "gaussian"
      std: 0.01
    }
    bias_filler {
      type: "constant"
      value: 0.1
    }
  }
}
layer {
  name: "relu2_p"
  type: "ReLU"
  bottom: "conv2_p"
  top: "conv2_p"
}
layer {
  name: "norm2_p"
  type: "LRN"
  bottom: "conv2_p"
  top: "norm2_p"
  lrn_param {
    local_size: 5
    alpha: 0.0001
    beta: 0.75
  }
}
layer {
  name: "pool2_p"
  type: "Pooling"
  bottom: "norm2_p"
  top: "pool2_p"
  pooling_param {
    pool: MAX
    kernel_size: 3
    stride: 2
  }
}
layer {
  name: "conv3_p"
  type: "Convolution"
  bottom: "pool2_p"
  top: "conv3_p"
  param {
    name: "conv3_w"
    lr_mult: 0
    decay_mult: 1
  }
  param {
    name: "conv3_b"
    lr_mult: 0
    decay_mult: 0
  }
  convolution_param {
    num_output: 384
    pad: 1
    kernel_size: 3
    weight_filler {
      type: "gaussian"
      std: 0.01
    }
    bias_filler {
      type: "constant"
      value: 0
    }
  }
}
layer {
  name: "relu3_p"
  type: "ReLU"
  bottom: "conv3_p"
  top: "conv3_p"
}
layer {
  name: "conv4_p"
  type: "Convolution"
  bottom: "conv3_p"
  top: "conv4_p"
  param {
    name: "conv4_w"
    lr_mult: 0
    decay_mult: 1
  }
  param {
    name: "conv4_b"
    lr_mult: 0
    decay_mult: 0
  }
  convolution_param {
    num_output: 384
    pad: 1
    kernel_size: 3
    group: 2
    weight_filler {
      type: "gaussian"
      std: 0.01
    }
    bias_filler {
      type: "constant"
      value: 0.1
    }
  }
}
layer {
  name: "relu4_p"
  type: "ReLU"
  bottom: "conv4_p"
  top: "conv4_p"
}
layer {
  name: "conv5_p"
  type: "Convolution"
  bottom: "conv4_p"
  top: "conv5_p"
  param {
    name: "conv5_w"
    lr_mult: 0
    decay_mult: 1
  }
  param {
    name: "conv5_b"
    lr_mult: 0
    decay_mult: 0
  }
  convolution_param {
    num_output: 256
    pad: 1
    kernel_size: 3
    group: 2
    weight_filler {
      type: "gaussian"
      std: 0.01
    }
    bias_filler {
      type: "constant"
      value: 0.1
    }
  }
}
layer {
  name: "relu5_p"
  type: "ReLU"
  bottom: "conv5_p"
  top: "conv5_p"
}
layer {
  name: "pool5_p"
  type: "Pooling"
  bottom: "conv5_p"
  top: "pool5_p"
  pooling_param {
    pool: MAX
    kernel_size: 3
    stride: 2
  }
}
layer {
  name: "fc6_p"
  type: "InnerProduct"
  bottom: "pool5_p"
  top: "fc6_p"
  param {
    name: "fc6_w"
    lr_mult: 0
    decay_mult: 1
  }
  param {
    name: "fc6_b"
    lr_mult: 0
    decay_mult: 0
  }
  inner_product_param {
    num_output: 4096
    weight_filler {
      type: "gaussian"
      std: 0.005
    }
    bias_filler {
      type: "constant"
      value: 0.1
    }
  }
}
layer {
  name: "relu6_p"
  type: "ReLU"
  bottom: "fc6_p"
  top: "fc6_p"
}
layer {
  name: "drop6_p"
  type: "Dropout"
  bottom: "fc6_p"
  top: "fc6_p"
  dropout_param {
    dropout_ratio: 0.5
  }
}
layer {
  name: "fc7_p"
  type: "InnerProduct"
  bottom: "fc6_p"
  top: "fc7_p"
  param {
    name: "fc7_w"
    lr_mult: 0
    decay_mult: 1
  }
  param {
    name: "fc7_b"
    lr_mult: 0
    decay_mult: 0
  }
  inner_product_param {
    num_output: 4096
    weight_filler {
      type: "gaussian"
      std: 0.01
    }
    bias_filler {
      type: "constant"
      value: 0
    }
  }
}
layer {
  name: "fc8_p"
  type: "InnerProduct"
  bottom: "fc7_p"
  top: "fc8_p"
  param {
    name: "fc8_w"
    lr_mult: 1
    decay_mult: 1
  }
  param {
    name: "fc8_b"
    lr_mult: 2
    decay_mult: 0
  }
  inner_product_param {
    num_output: 1000
    weight_filler {
      type: "gaussian"
      std: 0.01
    }
    bias_filler {
      type: "constant"
      value: 0
    }
  }
}
layer {
  name: "loss"
  type: "ContrastiveLoss"
  bottom: "fc8"
  bottom: "fc8_p"
  bottom: "sim"
  top: "loss"
  contrastive_loss_param {
    margin: 100
  }
}
I0318 05:16:41.529305  3501 layer_factory.hpp:77] Creating layer pair_data
I0318 05:16:41.529836  3501 net.cpp:91] Creating Layer pair_data
I0318 05:16:41.529860  3501 net.cpp:399] pair_data -> pair_data
I0318 05:16:41.529932  3501 net.cpp:399] pair_data -> sim
I0318 05:16:41.537737  3505 db_leveldb.cpp:18] Opened leveldb /home/ubuntu/fyp/data/data-fyp/siamese_train_leveldb
I0318 05:16:41.551177  3501 data_layer.cpp:41] output data size: 64,6,227,227
I0318 05:16:41.707916  3501 net.cpp:141] Setting up pair_data
I0318 05:16:41.708022  3501 net.cpp:148] Top shape: 64 6 227 227 (19787136)
I0318 05:16:41.708039  3501 net.cpp:148] Top shape: 64 (64)
I0318 05:16:41.708043  3501 net.cpp:156] Memory required for data: 79148800
I0318 05:16:41.708061  3501 layer_factory.hpp:77] Creating layer slice_pair
I0318 05:16:41.708091  3501 net.cpp:91] Creating Layer slice_pair
I0318 05:16:41.708107  3501 net.cpp:425] slice_pair <- pair_data
I0318 05:16:41.708128  3501 net.cpp:399] slice_pair -> data
I0318 05:16:41.708150  3501 net.cpp:399] slice_pair -> data_p
I0318 05:16:41.708703  3501 net.cpp:141] Setting up slice_pair
I0318 05:16:41.708721  3501 net.cpp:148] Top shape: 64 3 227 227 (9893568)
I0318 05:16:41.708729  3501 net.cpp:148] Top shape: 64 3 227 227 (9893568)
I0318 05:16:41.708734  3501 net.cpp:156] Memory required for data: 158297344
I0318 05:16:41.708739  3501 layer_factory.hpp:77] Creating layer conv1
I0318 05:16:41.708771  3501 net.cpp:91] Creating Layer conv1
I0318 05:16:41.708784  3501 net.cpp:425] conv1 <- data
I0318 05:16:41.708822  3501 net.cpp:399] conv1 -> conv1
I0318 05:16:41.954499  3501 net.cpp:141] Setting up conv1
I0318 05:16:41.954555  3501 net.cpp:148] Top shape: 64 96 55 55 (18585600)
I0318 05:16:41.954568  3501 net.cpp:156] Memory required for data: 232639744
I0318 05:16:41.954610  3501 layer_factory.hpp:77] Creating layer relu1
I0318 05:16:41.954638  3501 net.cpp:91] Creating Layer relu1
I0318 05:16:41.954651  3501 net.cpp:425] relu1 <- conv1
I0318 05:16:41.954669  3501 net.cpp:386] relu1 -> conv1 (in-place)
I0318 05:16:41.954874  3501 net.cpp:141] Setting up relu1
I0318 05:16:41.954900  3501 net.cpp:148] Top shape: 64 96 55 55 (18585600)
I0318 05:16:41.954913  3501 net.cpp:156] Memory required for data: 306982144
I0318 05:16:41.954924  3501 layer_factory.hpp:77] Creating layer norm1
I0318 05:16:41.954955  3501 net.cpp:91] Creating Layer norm1
I0318 05:16:41.954977  3501 net.cpp:425] norm1 <- conv1
I0318 05:16:41.955008  3501 net.cpp:399] norm1 -> norm1
I0318 05:16:41.955314  3501 net.cpp:141] Setting up norm1
I0318 05:16:41.955340  3501 net.cpp:148] Top shape: 64 96 55 55 (18585600)
I0318 05:16:41.955351  3501 net.cpp:156] Memory required for data: 381324544
I0318 05:16:41.955363  3501 layer_factory.hpp:77] Creating layer pool1
I0318 05:16:41.955380  3501 net.cpp:91] Creating Layer pool1
I0318 05:16:41.955392  3501 net.cpp:425] pool1 <- norm1
I0318 05:16:41.955406  3501 net.cpp:399] pool1 -> pool1
I0318 05:16:41.955492  3501 net.cpp:141] Setting up pool1
I0318 05:16:41.955515  3501 net.cpp:148] Top shape: 64 96 27 27 (4478976)
I0318 05:16:41.955525  3501 net.cpp:156] Memory required for data: 399240448
I0318 05:16:41.955536  3501 layer_factory.hpp:77] Creating layer conv2
I0318 05:16:41.955565  3501 net.cpp:91] Creating Layer conv2
I0318 05:16:41.955579  3501 net.cpp:425] conv2 <- pool1
I0318 05:16:41.955596  3501 net.cpp:399] conv2 -> conv2
I0318 05:16:41.967770  3501 net.cpp:141] Setting up conv2
I0318 05:16:41.967802  3501 net.cpp:148] Top shape: 64 256 27 27 (11943936)
I0318 05:16:41.967811  3501 net.cpp:156] Memory required for data: 447016192
I0318 05:16:41.967831  3501 layer_factory.hpp:77] Creating layer relu2
I0318 05:16:41.967847  3501 net.cpp:91] Creating Layer relu2
I0318 05:16:41.967859  3501 net.cpp:425] relu2 <- conv2
I0318 05:16:41.967872  3501 net.cpp:386] relu2 -> conv2 (in-place)
I0318 05:16:41.968150  3501 net.cpp:141] Setting up relu2
I0318 05:16:41.968176  3501 net.cpp:148] Top shape: 64 256 27 27 (11943936)
I0318 05:16:41.968186  3501 net.cpp:156] Memory required for data: 494791936
I0318 05:16:41.968199  3501 layer_factory.hpp:77] Creating layer norm2
I0318 05:16:41.968224  3501 net.cpp:91] Creating Layer norm2
I0318 05:16:41.968235  3501 net.cpp:425] norm2 <- conv2
I0318 05:16:41.968253  3501 net.cpp:399] norm2 -> norm2
I0318 05:16:41.968566  3501 net.cpp:141] Setting up norm2
I0318 05:16:41.968595  3501 net.cpp:148] Top shape: 64 256 27 27 (11943936)
I0318 05:16:41.968605  3501 net.cpp:156] Memory required for data: 542567680
I0318 05:16:41.968616  3501 layer_factory.hpp:77] Creating layer pool2
I0318 05:16:41.968636  3501 net.cpp:91] Creating Layer pool2
I0318 05:16:41.968647  3501 net.cpp:425] pool2 <- norm2
I0318 05:16:41.968662  3501 net.cpp:399] pool2 -> pool2
I0318 05:16:41.968737  3501 net.cpp:141] Setting up pool2
I0318 05:16:41.968760  3501 net.cpp:148] Top shape: 64 256 13 13 (2768896)
I0318 05:16:41.968770  3501 net.cpp:156] Memory required for data: 553643264
I0318 05:16:41.968780  3501 layer_factory.hpp:77] Creating layer conv3
I0318 05:16:41.968809  3501 net.cpp:91] Creating Layer conv3
I0318 05:16:41.968828  3501 net.cpp:425] conv3 <- pool2
I0318 05:16:41.968847  3501 net.cpp:399] conv3 -> conv3
I0318 05:16:41.999155  3501 net.cpp:141] Setting up conv3
I0318 05:16:41.999181  3501 net.cpp:148] Top shape: 64 384 13 13 (4153344)
I0318 05:16:41.999191  3501 net.cpp:156] Memory required for data: 570256640
I0318 05:16:41.999212  3501 layer_factory.hpp:77] Creating layer relu3
I0318 05:16:41.999231  3501 net.cpp:91] Creating Layer relu3
I0318 05:16:41.999243  3501 net.cpp:425] relu3 <- conv3
I0318 05:16:41.999280  3501 net.cpp:386] relu3 -> conv3 (in-place)
I0318 05:16:41.999558  3501 net.cpp:141] Setting up relu3
I0318 05:16:41.999584  3501 net.cpp:148] Top shape: 64 384 13 13 (4153344)
I0318 05:16:41.999594  3501 net.cpp:156] Memory required for data: 586870016
I0318 05:16:41.999604  3501 layer_factory.hpp:77] Creating layer conv4
I0318 05:16:41.999631  3501 net.cpp:91] Creating Layer conv4
I0318 05:16:41.999644  3501 net.cpp:425] conv4 <- conv3
I0318 05:16:41.999665  3501 net.cpp:399] conv4 -> conv4
I0318 05:16:42.023401  3501 net.cpp:141] Setting up conv4
I0318 05:16:42.023430  3501 net.cpp:148] Top shape: 64 384 13 13 (4153344)
I0318 05:16:42.023442  3501 net.cpp:156] Memory required for data: 603483392
I0318 05:16:42.023458  3501 layer_factory.hpp:77] Creating layer relu4
I0318 05:16:42.023479  3501 net.cpp:91] Creating Layer relu4
I0318 05:16:42.023490  3501 net.cpp:425] relu4 <- conv4
I0318 05:16:42.023504  3501 net.cpp:386] relu4 -> conv4 (in-place)
I0318 05:16:42.023769  3501 net.cpp:141] Setting up relu4
I0318 05:16:42.023794  3501 net.cpp:148] Top shape: 64 384 13 13 (4153344)
I0318 05:16:42.023805  3501 net.cpp:156] Memory required for data: 620096768
I0318 05:16:42.023815  3501 layer_factory.hpp:77] Creating layer conv5
I0318 05:16:42.023843  3501 net.cpp:91] Creating Layer conv5
I0318 05:16:42.023854  3501 net.cpp:425] conv5 <- conv4
I0318 05:16:42.023876  3501 net.cpp:399] conv5 -> conv5
I0318 05:16:42.042989  3501 net.cpp:141] Setting up conv5
I0318 05:16:42.043015  3501 net.cpp:148] Top shape: 64 256 13 13 (2768896)
I0318 05:16:42.043025  3501 net.cpp:156] Memory required for data: 631172352
I0318 05:16:42.043046  3501 layer_factory.hpp:77] Creating layer relu5
I0318 05:16:42.043062  3501 net.cpp:91] Creating Layer relu5
I0318 05:16:42.043073  3501 net.cpp:425] relu5 <- conv5
I0318 05:16:42.043092  3501 net.cpp:386] relu5 -> conv5 (in-place)
I0318 05:16:42.043283  3501 net.cpp:141] Setting up relu5
I0318 05:16:42.043308  3501 net.cpp:148] Top shape: 64 256 13 13 (2768896)
I0318 05:16:42.043318  3501 net.cpp:156] Memory required for data: 642247936
I0318 05:16:42.043329  3501 layer_factory.hpp:77] Creating layer pool5
I0318 05:16:42.043351  3501 net.cpp:91] Creating Layer pool5
I0318 05:16:42.043364  3501 net.cpp:425] pool5 <- conv5
I0318 05:16:42.043378  3501 net.cpp:399] pool5 -> pool5
I0318 05:16:42.043457  3501 net.cpp:141] Setting up pool5
I0318 05:16:42.043478  3501 net.cpp:148] Top shape: 64 256 6 6 (589824)
I0318 05:16:42.043488  3501 net.cpp:156] Memory required for data: 644607232
I0318 05:16:42.043499  3501 layer_factory.hpp:77] Creating layer fc6
I0318 05:16:42.043529  3501 net.cpp:91] Creating Layer fc6
I0318 05:16:42.043547  3501 net.cpp:425] fc6 <- pool5
I0318 05:16:42.043565  3501 net.cpp:399] fc6 -> fc6
I0318 05:16:43.313637  3501 net.cpp:141] Setting up fc6
I0318 05:16:43.313694  3501 net.cpp:148] Top shape: 64 4096 (262144)
I0318 05:16:43.313709  3501 net.cpp:156] Memory required for data: 645655808
I0318 05:16:43.313740  3501 layer_factory.hpp:77] Creating layer relu6
I0318 05:16:43.313779  3501 net.cpp:91] Creating Layer relu6
I0318 05:16:43.313792  3501 net.cpp:425] relu6 <- fc6
I0318 05:16:43.313810  3501 net.cpp:386] relu6 -> fc6 (in-place)
I0318 05:16:43.314272  3501 net.cpp:141] Setting up relu6
I0318 05:16:43.314297  3501 net.cpp:148] Top shape: 64 4096 (262144)
I0318 05:16:43.314308  3501 net.cpp:156] Memory required for data: 646704384
I0318 05:16:43.314319  3501 layer_factory.hpp:77] Creating layer drop6
I0318 05:16:43.314347  3501 net.cpp:91] Creating Layer drop6
I0318 05:16:43.314371  3501 net.cpp:425] drop6 <- fc6
I0318 05:16:43.314388  3501 net.cpp:386] drop6 -> fc6 (in-place)
I0318 05:16:43.314479  3501 net.cpp:141] Setting up drop6
I0318 05:16:43.314502  3501 net.cpp:148] Top shape: 64 4096 (262144)
I0318 05:16:43.314512  3501 net.cpp:156] Memory required for data: 647752960
I0318 05:16:43.314522  3501 layer_factory.hpp:77] Creating layer fc7
I0318 05:16:43.314548  3501 net.cpp:91] Creating Layer fc7
I0318 05:16:43.314558  3501 net.cpp:425] fc7 <- fc6
I0318 05:16:43.314613  3501 net.cpp:399] fc7 -> fc7
I0318 05:16:43.878944  3501 net.cpp:141] Setting up fc7
I0318 05:16:43.879001  3501 net.cpp:148] Top shape: 64 4096 (262144)
I0318 05:16:43.879014  3501 net.cpp:156] Memory required for data: 648801536
I0318 05:16:43.879040  3501 layer_factory.hpp:77] Creating layer fc8
I0318 05:16:43.879071  3501 net.cpp:91] Creating Layer fc8
I0318 05:16:43.879084  3501 net.cpp:425] fc8 <- fc7
I0318 05:16:43.879104  3501 net.cpp:399] fc8 -> fc8
I0318 05:16:44.016692  3501 net.cpp:141] Setting up fc8
I0318 05:16:44.016751  3501 net.cpp:148] Top shape: 64 1000 (64000)
I0318 05:16:44.016762  3501 net.cpp:156] Memory required for data: 649057536
I0318 05:16:44.016788  3501 layer_factory.hpp:77] Creating layer conv1_p
I0318 05:16:44.016829  3501 net.cpp:91] Creating Layer conv1_p
I0318 05:16:44.016842  3501 net.cpp:425] conv1_p <- data_p
I0318 05:16:44.016865  3501 net.cpp:399] conv1_p -> conv1_p
I0318 05:16:44.019158  3501 net.cpp:141] Setting up conv1_p
I0318 05:16:44.019186  3501 net.cpp:148] Top shape: 64 96 55 55 (18585600)
I0318 05:16:44.019196  3501 net.cpp:156] Memory required for data: 723399936
I0318 05:16:44.019217  3501 net.cpp:484] Sharing parameters 'conv1_w' owned by layer 'conv1', param index 0
I0318 05:16:44.019232  3501 net.cpp:484] Sharing parameters 'conv1_b' owned by layer 'conv1', param index 1
I0318 05:16:44.019243  3501 layer_factory.hpp:77] Creating layer relu1_p
I0318 05:16:44.019259  3501 net.cpp:91] Creating Layer relu1_p
I0318 05:16:44.019270  3501 net.cpp:425] relu1_p <- conv1_p
I0318 05:16:44.019289  3501 net.cpp:386] relu1_p -> conv1_p (in-place)
I0318 05:16:44.019594  3501 net.cpp:141] Setting up relu1_p
I0318 05:16:44.019619  3501 net.cpp:148] Top shape: 64 96 55 55 (18585600)
I0318 05:16:44.019631  3501 net.cpp:156] Memory required for data: 797742336
I0318 05:16:44.019642  3501 layer_factory.hpp:77] Creating layer norm1_p
I0318 05:16:44.019666  3501 net.cpp:91] Creating Layer norm1_p
I0318 05:16:44.019677  3501 net.cpp:425] norm1_p <- conv1_p
I0318 05:16:44.019692  3501 net.cpp:399] norm1_p -> norm1_p
I0318 05:16:44.020011  3501 net.cpp:141] Setting up norm1_p
I0318 05:16:44.020037  3501 net.cpp:148] Top shape: 64 96 55 55 (18585600)
I0318 05:16:44.020047  3501 net.cpp:156] Memory required for data: 872084736
I0318 05:16:44.020058  3501 layer_factory.hpp:77] Creating layer pool1_p
I0318 05:16:44.020076  3501 net.cpp:91] Creating Layer pool1_p
I0318 05:16:44.020087  3501 net.cpp:425] pool1_p <- norm1_p
I0318 05:16:44.020107  3501 net.cpp:399] pool1_p -> pool1_p
I0318 05:16:44.020177  3501 net.cpp:141] Setting up pool1_p
I0318 05:16:44.020200  3501 net.cpp:148] Top shape: 64 96 27 27 (4478976)
I0318 05:16:44.020210  3501 net.cpp:156] Memory required for data: 890000640
I0318 05:16:44.020221  3501 layer_factory.hpp:77] Creating layer conv2_p
I0318 05:16:44.020251  3501 net.cpp:91] Creating Layer conv2_p
I0318 05:16:44.020267  3501 net.cpp:425] conv2_p <- pool1_p
I0318 05:16:44.020285  3501 net.cpp:399] conv2_p -> conv2_p
I0318 05:16:44.032173  3501 net.cpp:141] Setting up conv2_p
I0318 05:16:44.032202  3501 net.cpp:148] Top shape: 64 256 27 27 (11943936)
I0318 05:16:44.032212  3501 net.cpp:156] Memory required for data: 937776384
I0318 05:16:44.032224  3501 net.cpp:484] Sharing parameters 'conv2_w' owned by layer 'conv2', param index 0
I0318 05:16:44.032238  3501 net.cpp:484] Sharing parameters 'conv2_b' owned by layer 'conv2', param index 1
I0318 05:16:44.032248  3501 layer_factory.hpp:77] Creating layer relu2_p
I0318 05:16:44.032266  3501 net.cpp:91] Creating Layer relu2_p
I0318 05:16:44.032277  3501 net.cpp:425] relu2_p <- conv2_p
I0318 05:16:44.032291  3501 net.cpp:386] relu2_p -> conv2_p (in-place)
I0318 05:16:44.032588  3501 net.cpp:141] Setting up relu2_p
I0318 05:16:44.032614  3501 net.cpp:148] Top shape: 64 256 27 27 (11943936)
I0318 05:16:44.032624  3501 net.cpp:156] Memory required for data: 985552128
I0318 05:16:44.032635  3501 layer_factory.hpp:77] Creating layer norm2_p
I0318 05:16:44.032655  3501 net.cpp:91] Creating Layer norm2_p
I0318 05:16:44.032699  3501 net.cpp:425] norm2_p <- conv2_p
I0318 05:16:44.032717  3501 net.cpp:399] norm2_p -> norm2_p
I0318 05:16:44.032953  3501 net.cpp:141] Setting up norm2_p
I0318 05:16:44.032979  3501 net.cpp:148] Top shape: 64 256 27 27 (11943936)
I0318 05:16:44.032989  3501 net.cpp:156] Memory required for data: 1033327872
I0318 05:16:44.032999  3501 layer_factory.hpp:77] Creating layer pool2_p
I0318 05:16:44.033020  3501 net.cpp:91] Creating Layer pool2_p
I0318 05:16:44.033030  3501 net.cpp:425] pool2_p <- norm2_p
I0318 05:16:44.033046  3501 net.cpp:399] pool2_p -> pool2_p
I0318 05:16:44.033125  3501 net.cpp:141] Setting up pool2_p
I0318 05:16:44.033148  3501 net.cpp:148] Top shape: 64 256 13 13 (2768896)
I0318 05:16:44.033157  3501 net.cpp:156] Memory required for data: 1044403456
I0318 05:16:44.033167  3501 layer_factory.hpp:77] Creating layer conv3_p
I0318 05:16:44.033193  3501 net.cpp:91] Creating Layer conv3_p
I0318 05:16:44.033205  3501 net.cpp:425] conv3_p <- pool2_p
I0318 05:16:44.033226  3501 net.cpp:399] conv3_p -> conv3_p
I0318 05:16:44.063819  3501 net.cpp:141] Setting up conv3_p
I0318 05:16:44.063849  3501 net.cpp:148] Top shape: 64 384 13 13 (4153344)
I0318 05:16:44.063860  3501 net.cpp:156] Memory required for data: 1061016832
I0318 05:16:44.063872  3501 net.cpp:484] Sharing parameters 'conv3_w' owned by layer 'conv3', param index 0
I0318 05:16:44.063886  3501 net.cpp:484] Sharing parameters 'conv3_b' owned by layer 'conv3', param index 1
I0318 05:16:44.063897  3501 layer_factory.hpp:77] Creating layer relu3_p
I0318 05:16:44.063911  3501 net.cpp:91] Creating Layer relu3_p
I0318 05:16:44.063921  3501 net.cpp:425] relu3_p <- conv3_p
I0318 05:16:44.063940  3501 net.cpp:386] relu3_p -> conv3_p (in-place)
I0318 05:16:44.064227  3501 net.cpp:141] Setting up relu3_p
I0318 05:16:44.064256  3501 net.cpp:148] Top shape: 64 384 13 13 (4153344)
I0318 05:16:44.064267  3501 net.cpp:156] Memory required for data: 1077630208
I0318 05:16:44.064278  3501 layer_factory.hpp:77] Creating layer conv4_p
I0318 05:16:44.064327  3501 net.cpp:91] Creating Layer conv4_p
I0318 05:16:44.064342  3501 net.cpp:425] conv4_p <- conv3_p
I0318 05:16:44.064365  3501 net.cpp:399] conv4_p -> conv4_p
I0318 05:16:44.088129  3501 net.cpp:141] Setting up conv4_p
I0318 05:16:44.088155  3501 net.cpp:148] Top shape: 64 384 13 13 (4153344)
I0318 05:16:44.088166  3501 net.cpp:156] Memory required for data: 1094243584
I0318 05:16:44.088178  3501 net.cpp:484] Sharing parameters 'conv4_w' owned by layer 'conv4', param index 0
I0318 05:16:44.088191  3501 net.cpp:484] Sharing parameters 'conv4_b' owned by layer 'conv4', param index 1
I0318 05:16:44.088202  3501 layer_factory.hpp:77] Creating layer relu4_p
I0318 05:16:44.088217  3501 net.cpp:91] Creating Layer relu4_p
I0318 05:16:44.088227  3501 net.cpp:425] relu4_p <- conv4_p
I0318 05:16:44.088245  3501 net.cpp:386] relu4_p -> conv4_p (in-place)
I0318 05:16:44.088546  3501 net.cpp:141] Setting up relu4_p
I0318 05:16:44.088575  3501 net.cpp:148] Top shape: 64 384 13 13 (4153344)
I0318 05:16:44.088585  3501 net.cpp:156] Memory required for data: 1110856960
I0318 05:16:44.088598  3501 layer_factory.hpp:77] Creating layer conv5_p
I0318 05:16:44.088624  3501 net.cpp:91] Creating Layer conv5_p
I0318 05:16:44.088644  3501 net.cpp:425] conv5_p <- conv4_p
I0318 05:16:44.088663  3501 net.cpp:399] conv5_p -> conv5_p
I0318 05:16:44.105103  3501 net.cpp:141] Setting up conv5_p
I0318 05:16:44.105129  3501 net.cpp:148] Top shape: 64 256 13 13 (2768896)
I0318 05:16:44.105139  3501 net.cpp:156] Memory required for data: 1121932544
I0318 05:16:44.105151  3501 net.cpp:484] Sharing parameters 'conv5_w' owned by layer 'conv5', param index 0
I0318 05:16:44.105165  3501 net.cpp:484] Sharing parameters 'conv5_b' owned by layer 'conv5', param index 1
I0318 05:16:44.105176  3501 layer_factory.hpp:77] Creating layer relu5_p
I0318 05:16:44.105197  3501 net.cpp:91] Creating Layer relu5_p
I0318 05:16:44.105209  3501 net.cpp:425] relu5_p <- conv5_p
I0318 05:16:44.105227  3501 net.cpp:386] relu5_p -> conv5_p (in-place)
I0318 05:16:44.105518  3501 net.cpp:141] Setting up relu5_p
I0318 05:16:44.105554  3501 net.cpp:148] Top shape: 64 256 13 13 (2768896)
I0318 05:16:44.105568  3501 net.cpp:156] Memory required for data: 1133008128
I0318 05:16:44.105579  3501 layer_factory.hpp:77] Creating layer pool5_p
I0318 05:16:44.105595  3501 net.cpp:91] Creating Layer pool5_p
I0318 05:16:44.105607  3501 net.cpp:425] pool5_p <- conv5_p
I0318 05:16:44.105621  3501 net.cpp:399] pool5_p -> pool5_p
I0318 05:16:44.105705  3501 net.cpp:141] Setting up pool5_p
I0318 05:16:44.105728  3501 net.cpp:148] Top shape: 64 256 6 6 (589824)
I0318 05:16:44.105738  3501 net.cpp:156] Memory required for data: 1135367424
I0318 05:16:44.105749  3501 layer_factory.hpp:77] Creating layer fc6_p
I0318 05:16:44.105773  3501 net.cpp:91] Creating Layer fc6_p
I0318 05:16:44.105785  3501 net.cpp:425] fc6_p <- pool5_p
I0318 05:16:44.105801  3501 net.cpp:399] fc6_p -> fc6_p
I0318 05:16:45.373831  3501 net.cpp:141] Setting up fc6_p
I0318 05:16:45.373888  3501 net.cpp:148] Top shape: 64 4096 (262144)
I0318 05:16:45.373899  3501 net.cpp:156] Memory required for data: 1136416000
I0318 05:16:45.373915  3501 net.cpp:484] Sharing parameters 'fc6_w' owned by layer 'fc6', param index 0
I0318 05:16:45.373931  3501 net.cpp:484] Sharing parameters 'fc6_b' owned by layer 'fc6', param index 1
I0318 05:16:45.373942  3501 layer_factory.hpp:77] Creating layer relu6_p
I0318 05:16:45.373965  3501 net.cpp:91] Creating Layer relu6_p
I0318 05:16:45.373978  3501 net.cpp:425] relu6_p <- fc6_p
I0318 05:16:45.373996  3501 net.cpp:386] relu6_p -> fc6_p (in-place)
I0318 05:16:45.374258  3501 net.cpp:141] Setting up relu6_p
I0318 05:16:45.374284  3501 net.cpp:148] Top shape: 64 4096 (262144)
I0318 05:16:45.374295  3501 net.cpp:156] Memory required for data: 1137464576
I0318 05:16:45.374307  3501 layer_factory.hpp:77] Creating layer drop6_p
I0318 05:16:45.374325  3501 net.cpp:91] Creating Layer drop6_p
I0318 05:16:45.374336  3501 net.cpp:425] drop6_p <- fc6_p
I0318 05:16:45.374351  3501 net.cpp:386] drop6_p -> fc6_p (in-place)
I0318 05:16:45.374423  3501 net.cpp:141] Setting up drop6_p
I0318 05:16:45.374445  3501 net.cpp:148] Top shape: 64 4096 (262144)
I0318 05:16:45.374455  3501 net.cpp:156] Memory required for data: 1138513152
I0318 05:16:45.374465  3501 layer_factory.hpp:77] Creating layer fc7_p
I0318 05:16:45.374492  3501 net.cpp:91] Creating Layer fc7_p
I0318 05:16:45.374505  3501 net.cpp:425] fc7_p <- fc6_p
I0318 05:16:45.374521  3501 net.cpp:399] fc7_p -> fc7_p
I0318 05:16:45.941449  3501 net.cpp:141] Setting up fc7_p
I0318 05:16:45.941509  3501 net.cpp:148] Top shape: 64 4096 (262144)
I0318 05:16:45.941520  3501 net.cpp:156] Memory required for data: 1139561728
I0318 05:16:45.941537  3501 net.cpp:484] Sharing parameters 'fc7_w' owned by layer 'fc7', param index 0
I0318 05:16:45.941555  3501 net.cpp:484] Sharing parameters 'fc7_b' owned by layer 'fc7', param index 1
I0318 05:16:45.941566  3501 layer_factory.hpp:77] Creating layer fc8_p
I0318 05:16:45.941601  3501 net.cpp:91] Creating Layer fc8_p
I0318 05:16:45.941614  3501 net.cpp:425] fc8_p <- fc7_p
I0318 05:16:45.941638  3501 net.cpp:399] fc8_p -> fc8_p
I0318 05:16:46.078456  3501 net.cpp:141] Setting up fc8_p
I0318 05:16:46.078501  3501 net.cpp:148] Top shape: 64 1000 (64000)
I0318 05:16:46.078513  3501 net.cpp:156] Memory required for data: 1139817728
I0318 05:16:46.078529  3501 net.cpp:484] Sharing parameters 'fc8_w' owned by layer 'fc8', param index 0
I0318 05:16:46.078543  3501 net.cpp:484] Sharing parameters 'fc8_b' owned by layer 'fc8', param index 1
I0318 05:16:46.078554  3501 layer_factory.hpp:77] Creating layer loss
I0318 05:16:46.078583  3501 net.cpp:91] Creating Layer loss
…
I0318 05:16:46.118134  3501 solver.cpp:181] Creating test net (#0) specified by net file: ./siamese_alexnet_train.prototxt
I0318 05:16:46.118254  3501 net.cpp:313] The NetState phase (1) differed from the phase (0) specified by a rule in layer pair_data
I0318 05:16:46.118716  3501 net.cpp:49] Initializing net from parameters: 
name: "SiameseAlexNet"
state {
  phase: TEST
}
layer {
  name: "pair_data"
  type: "Data"
  top: "pair_data"
  top: "sim"
  include {
    phase: TEST
  }
  transform_param {
    scale: 0.00390625
  }
  data_param {
    source: "/home/ubuntu/fyp/data/data-fyp/siamese_test_leveldb"
    batch_size: 100
  }
}
layer {
  name: "slice_pair"
  type: "Slice"
  bottom: "pair_data"
  top: "data"
  top: "data_p"
  slice_param {
    slice_dim: 1
    slice_point: 3
  }
}
layer {
  name: "conv1"
  type: "Convolution"
  bottom: "data"
  top: "conv1"
  param {
    name: "conv1_w"
    lr_mult: 0
    decay_mult: 1
  }
  param {
    name: "conv1_b"
    lr_mult: 0
    decay_mult: 0
  }
  convolution_param {
    num_output: 96
    kernel_size: 11
    stride: 4
    weight_filler {
      type: "gaussian"
      std: 0.01
    }
    bias_filler {
      type: "constant"
      value: 0
    }
  }
}
layer {
  name: "relu1"
  type: "ReLU"
  bottom: "conv1"
  top: "conv1"
}
layer {
  name: "norm1"
  type: "LRN"
  bottom: "conv1"
  top: "norm1"
  lrn_param {
    local_size: 5
    alpha: 0.0001
    beta: 0.75
  }
}
layer {
  name: "pool1"
  type: "Pooling"
  bottom: "norm1"
  top: "pool1"
  pooling_param {
    pool: MAX
    kernel_size: 3
    stride: 2
  }
}
layer {
  name: "conv2"
  type: "Convolution"
  bottom: "pool1"
  top: "conv2"
  param {
    name: "conv2_w"
    lr_mult: 0
    decay_mult: 1
  }
  param {
    name: "conv2_b"
    lr_mult: 0
    decay_mult: 0
  }
  convolution_param {
    num_output: 256
    pad: 2
    kernel_size: 5
    group: 2
    weight_filler {
      type: "gaussian"
      std: 0.01
    }
    bias_filler {
      type: "constant"
      value: 0.1
    }
  }
}
layer {
  name: "relu2"
  type: "ReLU"
  bottom: "conv2"
  top: "conv2"
}
layer {
  name: "norm2"
  type: "LRN"
  bottom: "conv2"
  top: "norm2"
  lrn_param {
    local_size: 5
    alpha: 0.0001
    beta: 0.75
  }
}
layer {
  name: "pool2"
  type: "Pooling"
  bottom: "norm2"
  top: "pool2"
  pooling_param {
    pool: MAX
    kernel_size: 3
    stride: 2
  }
}
layer {
  name: "conv3"
  type: "Convolution"
  bottom: "pool2"
  top: "conv3"
  param {
    name: "conv3_w"
    lr_mult: 0
    decay_mult: 1
  }
  param {
    name: "conv3_b"
    lr_mult: 0
    decay_mult: 0
  }
  convolution_param {
    num_output: 384
    pad: 1
    kernel_size: 3
    weight_filler {
      type: "gaussian"
      std: 0.01
    }
    bias_filler {
      type: "constant"
      value: 0
    }
  }
}
layer {
  name: "relu3"
  type: "ReLU"
  bottom: "conv3"
  top: "conv3"
}
layer {
  name: "conv4"
  type: "Convolution"
  bottom: "conv3"
  top: "conv4"
  param {
    name: "conv4_w"
    lr_mult: 0
    decay_mult: 1
  }
  param {
    name: "conv4_b"
    lr_mult: 0
    decay_mult: 0
  }
  convolution_param {
    num_output: 384
    pad: 1
    kernel_size: 3
    group: 2
    weight_filler {
      type: "gaussian"
      std: 0.01
    }
    bias_filler {
      type: "constant"
      value: 0.1
    }
  }
}
layer {
  name: "relu4"
  type: "ReLU"
  bottom: "conv4"
  top: "conv4"
}
layer {
  name: "conv5"
  type: "Convolution"
  bottom: "conv4"
  top: "conv5"
  param {
    name: "conv5_w"
    lr_mult: 0
    decay_mult: 1
  }
  param {
    name: "conv5_b"
    lr_mult: 0
    decay_mult: 0
  }
  convolution_param {
    num_output: 256
    pad: 1
    kernel_size: 3
    group: 2
    weight_filler {
      type: "gaussian"
      std: 0.01
    }
    bias_filler {
      type: "constant"
      value: 0.1
    }
  }
}
layer {
  name: "relu5"
  type: "ReLU"
  bottom: "conv5"
  top: "conv5"
}
layer {
  name: "pool5"
  type: "Pooling"
  bottom: "conv5"
  top: "pool5"
  pooling_param {
    pool: MAX
    kernel_size: 3
    stride: 2
  }
}
layer {
  name: "fc6"
  type: "InnerProduct"
  bottom: "pool5"
  top: "fc6"
  param {
    name: "fc6_w"
    lr_mult: 0
    decay_mult: 1
  }
  param {
    name: "fc6_b"
    lr_mult: 0
    decay_mult: 0
  }
  inner_product_param {
    num_output: 4096
    weight_filler {
      type: "gaussian"
      std: 0.005
    }
    bias_filler {
      type: "constant"
      value: 0.1
    }
  }
}
layer {
  name: "relu6"
  type: "ReLU"
  bottom: "fc6"
  top: "fc6"
}
layer {
  name: "drop6"
  type: "Dropout"
  bottom: "fc6"
  top: "fc6"
  dropout_param {
    dropout_ratio: 0.5
  }
}
layer {
  name: "fc7"
  type: "InnerProduct"
  bottom: "fc6"
  top: "fc7"
  param {
    name: "fc7_w"
    lr_mult: 0
    decay_mult: 1
  }
  param {
    name: "fc7_b"
    lr_mult: 0
    decay_mult: 0
  }
  inner_product_param {
    num_output: 4096
    weight_filler {
      type: "gaussian"
      std: 0.01
    }
    bias_filler {
      type: "constant"
      value: 0
    }
  }
}
layer {
  name: "fc8"
  type: "InnerProduct"
  bottom: "fc7"
  top: "fc8"
  param {
    name: "fc8_w"
    lr_mult: 1
    decay_mult: 1
  }
  param {
    name: "fc8_b"
    lr_mult: 2
    decay_mult: 0
  }
  inner_product_param {
    num_output: 1000
    weight_filler {
      type: "gaussian"
      std: 0.01
    }
    bias_filler {
      type: "constant"
      value: 0
    }
  }
}
layer {
  name: "conv1_p"
  type: "Convolution"
  bottom: "data_p"
  top: "conv1_p"
  param {
    name: "conv1_w"
    lr_mult: 0
    decay_mult: 1
  }
  param {
    name: "conv1_b"
    lr_mult: 0
    decay_mult: 0
  }
  convolution_param {
    num_output: 96
    kernel_size: 11
    stride: 4
    weight_filler {
      type: "gaussian"
      std: 0.01
    }
    bias_filler {
      type: "constant"
      value: 0
    }
  }
}
layer {
  name: "relu1_p"
  type: "ReLU"
  bottom: "conv1_p"
  top: "conv1_p"
}
layer {
  name: "norm1_p"
  type: "LRN"
  bottom: "conv1_p"
  top: "norm1_p"
  lrn_param {
    local_size: 5
    alpha: 0.0001
    beta: 0.75
  }
}
layer {
  name: "pool1_p"
  type: "Pooling"
  bottom: "norm1_p"
  top: "pool1_p"
  pooling_param {
    pool: MAX
    kernel_size: 3
    stride: 2
  }
}
layer {
  name: "conv2_p"
  type: "Convolution"
  bottom: "pool1_p"
  top: "conv2_p"
  param {
    name: "conv2_w"
    lr_mult: 0
    decay_mult: 1
  }
  param {
    name: "conv2_b"
    lr_mult: 0
    decay_mult: 0
  }
  convolution_param {
    num_output: 256
    pad: 2
    kernel_size: 5
    group: 2
    weight_filler {
      type: "gaussian"
      std: 0.01
    }
    bias_filler {
      type: "constant"
      value: 0.1
    }
  }
}
layer {
  name: "relu2_p"
  type: "ReLU"
  bottom: "conv2_p"
  top: "conv2_p"
}
layer {
  name: "norm2_p"
  type: "LRN"
  bottom: "conv2_p"
  top: "norm2_p"
  lrn_param {
    local_size: 5
    alpha: 0.0001
    beta: 0.75
  }
}
layer {
  name: "pool2_p"
  type: "Pooling"
  bottom: "norm2_p"
  top: "pool2_p"
  pooling_param {
    pool: MAX
    kernel_size: 3
    stride: 2
  }
}
layer {
  name: "conv3_p"
  type: "Convolution"
  bottom: "pool2_p"
  top: "conv3_p"
  param {
    name: "conv3_w"
    lr_mult: 0
    decay_mult: 1
  }
  param {
    name: "conv3_b"
    lr_mult: 0
    decay_mult: 0
  }
  convolution_param {
    num_output: 384
    pad: 1
    kernel_size: 3
    weight_filler {
      type: "gaussian"
      std: 0.01
    }
    bias_filler {
      type: "constant"
      value: 0
    }
  }
}
layer {
  name: "relu3_p"
  type: "ReLU"
  bottom: "conv3_p"
  top: "conv3_p"
}
layer {
  name: "conv4_p"
  type: "Convolution"
  bottom: "conv3_p"
  top: "conv4_p"
  param {
    name: "conv4_w"
    lr_mult: 0
    decay_mult: 1
  }
  param {
    name: "conv4_b"
    lr_mult: 0
    decay_mult: 0
  }
  convolution_param {
    num_output: 384
    pad: 1
    kernel_size: 3
    group: 2
    weight_filler {
      type: "gaussian"
      std: 0.01
    }
    bias_filler {
      type: "constant"
      value: 0.1
    }
  }
}
layer {
  name: "relu4_p"
  type: "ReLU"
  bottom: "conv4_p"
  top: "conv4_p"
}
layer {
  name: "conv5_p"
  type: "Convolution"
  bottom: "conv4_p"
  top: "conv5_p"
  param {
    name: "conv5_w"
    lr_mult: 0
    decay_mult: 1
  }
  param {
    name: "conv5_b"
    lr_mult: 0
    decay_mult: 0
  }
  convolution_param {
    num_output: 256
    pad: 1
    kernel_size: 3
    group: 2
    weight_filler {
      type: "gaussian"
      std: 0.01
    }
    bias_filler {
      type: "constant"
      value: 0.1
    }
  }
}
layer {
  name: "relu5_p"
  type: "ReLU"
  bottom: "conv5_p"
  top: "conv5_p"
}
layer {
  name: "pool5_p"
  type: "Pooling"
  bottom: "conv5_p"
  top: "pool5_p"
  pooling_param {
    pool: MAX
    kernel_size: 3
    stride: 2
  }
}
layer {
  name: "fc6_p"
  type: "InnerProduct"
  bottom: "pool5_p"
  top: "fc6_p"
  param {
    name: "fc6_w"
    lr_mult: 0
    decay_mult: 1
  }
  param {
    name: "fc6_b"
    lr_mult: 0
    decay_mult: 0
  }
  inner_product_param {
    num_output: 4096
    weight_filler {
      type: "gaussian"
      std: 0.005
    }
    bias_filler {
      type: "constant"
      value: 0.1
    }
  }
}
layer {
  name: "relu6_p"
  type: "ReLU"
  bottom: "fc6_p"
  top: "fc6_p"
}
layer {
  name: "drop6_p"
  type: "Dropout"
  bottom: "fc6_p"
  top: "fc6_p"
  dropout_param {
    dropout_ratio: 0.5
  }
}
layer {
  name: "fc7_p"
  type: "InnerProduct"
  bottom: "fc6_p"
  top: "fc7_p"
  param {
    name: "fc7_w"
    lr_mult: 0
    decay_mult: 1
  }
  param {
    name: "fc7_b"
    lr_mult: 0
    decay_mult: 0
  }
  inner_product_param {
    num_output: 4096
    weight_filler {
      type: "gaussian"
      std: 0.01
    }
    bias_filler {
      type: "constant"
      value: 0
    }
  }
}
layer {
  name: "fc8_p"
  type: "InnerProduct"
  bottom: "fc7_p"
  top: "fc8_p"
  param {
    name: "fc8_w"
    lr_mult: 1
    decay_mult: 1
  }
  param {
    name: "fc8_b"
    lr_mult: 2
    decay_mult: 0
  }
  inner_product_param {
    num_output: 1000
    weight_filler {
      type: "gaussian"
      std: 0.01
    }
    bias_filler {
      type: "constant"
      value: 0
    }
  }
}
layer {
  name: "siamese_accuracy"
  type: "SiameseAccuracy"
  bottom: "fc8"
  bottom: "fc8_p"
  bottom: "sim"
  top: "siamese_accuracy"
  include {
    phase: TEST
  }
}
layer {
  name: "loss"
  type: "ContrastiveLoss"
  bottom: "fc8"
  bottom: "fc8_p"
  bottom: "sim"
  top: "loss"
  contrastive_loss_param {
    margin: 100
  }
}
I0318 05:16:46.119122  3501 layer_factory.hpp:77] Creating layer pair_data
I0318 05:16:46.119340  3501 net.cpp:91] Creating Layer pair_data
I0318 05:16:46.119359  3501 net.cpp:399] pair_data -> pair_data
I0318 05:16:46.119388  3501 net.cpp:399] pair_data -> sim
I0318 05:16:46.126886  3507 db_leveldb.cpp:18] Opened leveldb /home/ubuntu/fyp/data/data-fyp/siamese_test_leveldb
I0318 05:16:46.129024  3501 data_layer.cpp:41] output data size: 100,6,227,227
I0318 05:16:46.368677  3501 net.cpp:141] Setting up pair_data
I0318 05:16:46.368727  3501 net.cpp:148] Top shape: 100 6 227 227 (30917400)
I0318 05:16:46.368736  3501 net.cpp:148] Top shape: 100 (100)
I0318 05:16:46.368741  3501 net.cpp:156] Memory required for data: 123670000
I0318 05:16:46.368752  3501 layer_factory.hpp:77] Creating layer sim_pair_data_1_split
I0318 05:16:46.368775  3501 net.cpp:91] Creating Layer sim_pair_data_1_split
I0318 05:16:46.368782  3501 net.cpp:425] sim_pair_data_1_split <- sim
I0318 05:16:46.368798  3501 net.cpp:399] sim_pair_data_1_split -> sim_pair_data_1_split_0
I0318 05:16:46.368814  3501 net.cpp:399] sim_pair_data_1_split -> sim_pair_data_1_split_1
I0318 05:16:46.368923  3501 net.cpp:141] Setting up sim_pair_data_1_split
I0318 05:16:46.368939  3501 net.cpp:148] Top shape: 100 (100)
I0318 05:16:46.368947  3501 net.cpp:148] Top shape: 100 (100)
I0318 05:16:46.368950  3501 net.cpp:156] Memory required for data: 123670800
I0318 05:16:46.368957  3501 layer_factory.hpp:77] Creating layer slice_pair
I0318 05:16:46.368968  3501 net.cpp:91] Creating Layer slice_pair
I0318 05:16:46.368974  3501 net.cpp:425] slice_pair <- pair_data
I0318 05:16:46.368985  3501 net.cpp:399] slice_pair -> data
I0318 05:16:46.368996  3501 net.cpp:399] slice_pair -> data_p
I0318 05:16:46.369058  3501 net.cpp:141] Setting up slice_pair
I0318 05:16:46.369074  3501 net.cpp:148] Top shape: 100 3 227 227 (15458700)
I0318 05:16:46.369081  3501 net.cpp:148] Top shape: 100 3 227 227 (15458700)
I0318 05:16:46.369086  3501 net.cpp:156] Memory required for data: 247340400
I0318 05:16:46.369091  3501 layer_factory.hpp:77] Creating layer conv1
I0318 05:16:46.369113  3501 net.cpp:91] Creating Layer conv1
I0318 05:16:46.369125  3501 net.cpp:425] conv1 <- data
I0318 05:16:46.369173  3501 net.cpp:399] conv1 -> conv1
I0318 05:16:46.386037  3501 net.cpp:141] Setting up conv1
I0318 05:16:46.386085  3501 net.cpp:148] Top shape: 100 96 55 55 (29040000)
I0318 05:16:46.386091  3501 net.cpp:156] Memory required for data: 363500400
I0318 05:16:46.386112  3501 layer_factory.hpp:77] Creating layer relu1
I0318 05:16:46.386132  3501 net.cpp:91] Creating Layer relu1
I0318 05:16:46.386139  3501 net.cpp:425] relu1 <- conv1
I0318 05:16:46.386148  3501 net.cpp:386] relu1 -> conv1 (in-place)
I0318 05:16:46.386428  3501 net.cpp:141] Setting up relu1
I0318 05:16:46.386451  3501 net.cpp:148] Top shape: 100 96 55 55 (29040000)
I0318 05:16:46.386456  3501 net.cpp:156] Memory required for data: 479660400
I0318 05:16:46.386461  3501 layer_factory.hpp:77] Creating layer norm1
I0318 05:16:46.386473  3501 net.cpp:91] Creating Layer norm1
I0318 05:16:46.386478  3501 net.cpp:425] norm1 <- conv1
I0318 05:16:46.386490  3501 net.cpp:399] norm1 -> norm1
I0318 05:16:46.386704  3501 net.cpp:141] Setting up norm1
I0318 05:16:46.386724  3501 net.cpp:148] Top shape: 100 96 55 55 (29040000)
I0318 05:16:46.386729  3501 net.cpp:156] Memory required for data: 595820400
I0318 05:16:46.386734  3501 layer_factory.hpp:77] Creating layer pool1
I0318 05:16:46.386744  3501 net.cpp:91] Creating Layer pool1
I0318 05:16:46.386750  3501 net.cpp:425] pool1 <- norm1
I0318 05:16:46.386761  3501 net.cpp:399] pool1 -> pool1
I0318 05:16:46.386816  3501 net.cpp:141] Setting up pool1
I0318 05:16:46.386840  3501 net.cpp:148] Top shape: 100 96 27 27 (6998400)
I0318 05:16:46.386847  3501 net.cpp:156] Memory required for data: 623814000
I0318 05:16:46.386852  3501 layer_factory.hpp:77] Creating layer conv2
I0318 05:16:46.386878  3501 net.cpp:91] Creating Layer conv2
I0318 05:16:46.386891  3501 net.cpp:425] conv2 <- pool1
I0318 05:16:46.386901  3501 net.cpp:399] conv2 -> conv2
I0318 05:16:46.399448  3501 net.cpp:141] Setting up conv2
I0318 05:16:46.399497  3501 net.cpp:148] Top shape: 100 256 27 27 (18662400)
I0318 05:16:46.399503  3501 net.cpp:156] Memory required for data: 698463600
I0318 05:16:46.399524  3501 layer_factory.hpp:77] Creating layer relu2
I0318 05:16:46.399549  3501 net.cpp:91] Creating Layer relu2
I0318 05:16:46.399557  3501 net.cpp:425] relu2 <- conv2
I0318 05:16:46.399569  3501 net.cpp:386] relu2 -> conv2 (in-place)
I0318 05:16:46.399788  3501 net.cpp:141] Setting up relu2
I0318 05:16:46.399806  3501 net.cpp:148] Top shape: 100 256 27 27 (18662400)
I0318 05:16:46.399811  3501 net.cpp:156] Memory required for data: 773113200
I0318 05:16:46.399816  3501 layer_factory.hpp:77] Creating layer norm2
I0318 05:16:46.399832  3501 net.cpp:91] Creating Layer norm2
I0318 05:16:46.399837  3501 net.cpp:425] norm2 <- conv2
I0318 05:16:46.399847  3501 net.cpp:399] norm2 -> norm2
I0318 05:16:46.400151  3501 net.cpp:141] Setting up norm2
I0318 05:16:46.400173  3501 net.cpp:148] Top shape: 100 256 27 27 (18662400)
I0318 05:16:46.400179  3501 net.cpp:156] Memory required for data: 847762800
I0318 05:16:46.400185  3501 layer_factory.hpp:77] Creating layer pool2
I0318 05:16:46.400195  3501 net.cpp:91] Creating Layer pool2
I0318 05:16:46.400200  3501 net.cpp:425] pool2 <- norm2
I0318 05:16:46.400208  3501 net.cpp:399] pool2 -> pool2
I0318 05:16:46.400277  3501 net.cpp:141] Setting up pool2
I0318 05:16:46.400308  3501 net.cpp:148] Top shape: 100 256 13 13 (4326400)
I0318 05:16:46.400315  3501 net.cpp:156] Memory required for data: 865068400
I0318 05:16:46.400319  3501 layer_factory.hpp:77] Creating layer conv3
I0318 05:16:46.400338  3501 net.cpp:91] Creating Layer conv3
I0318 05:16:46.400352  3501 net.cpp:425] conv3 <- pool2
I0318 05:16:46.400363  3501 net.cpp:399] conv3 -> conv3
I0318 05:16:46.432004  3501 net.cpp:141] Setting up conv3
I0318 05:16:46.432055  3501 net.cpp:148] Top shape: 100 384 13 13 (6489600)
I0318 05:16:46.432061  3501 net.cpp:156] Memory required for data: 891026800
I0318 05:16:46.432083  3501 layer_factory.hpp:77] Creating layer relu3
I0318 05:16:46.432102  3501 net.cpp:91] Creating Layer relu3
I0318 05:16:46.432144  3501 net.cpp:425] relu3 <- conv3
I0318 05:16:46.432157  3501 net.cpp:386] relu3 -> conv3 (in-place)
I0318 05:16:46.432443  3501 net.cpp:141] Setting up relu3
I0318 05:16:46.432464  3501 net.cpp:148] Top shape: 100 384 13 13 (6489600)
I0318 05:16:46.432471  3501 net.cpp:156] Memory required for data: 916985200
I0318 05:16:46.432476  3501 layer_factory.hpp:77] Creating layer conv4
I0318 05:16:46.432494  3501 net.cpp:91] Creating Layer conv4
I0318 05:16:46.432502  3501 net.cpp:425] conv4 <- conv3
I0318 05:16:46.432512  3501 net.cpp:399] conv4 -> conv4
I0318 05:16:46.456934  3501 net.cpp:141] Setting up conv4
I0318 05:16:46.456982  3501 net.cpp:148] Top shape: 100 384 13 13 (6489600)
I0318 05:16:46.456990  3501 net.cpp:156] Memory required for data: 942943600
I0318 05:16:46.457005  3501 layer_factory.hpp:77] Creating layer relu4
I0318 05:16:46.457020  3501 net.cpp:91] Creating Layer relu4
I0318 05:16:46.457027  3501 net.cpp:425] relu4 <- conv4
I0318 05:16:46.457036  3501 net.cpp:386] relu4 -> conv4 (in-place)
I0318 05:16:46.457211  3501 net.cpp:141] Setting up relu4
I0318 05:16:46.457231  3501 net.cpp:148] Top shape: 100 384 13 13 (6489600)
I0318 05:16:46.457237  3501 net.cpp:156] Memory required for data: 968902000
I0318 05:16:46.457242  3501 layer_factory.hpp:77] Creating layer conv5
I0318 05:16:46.457262  3501 net.cpp:91] Creating Layer conv5
I0318 05:16:46.457271  3501 net.cpp:425] conv5 <- conv4
I0318 05:16:46.457283  3501 net.cpp:399] conv5 -> conv5
I0318 05:16:46.474375  3501 net.cpp:141] Setting up conv5
I0318 05:16:46.474431  3501 net.cpp:148] Top shape: 100 256 13 13 (4326400)
I0318 05:16:46.474437  3501 net.cpp:156] Memory required for data: 986207600
I0318 05:16:46.474463  3501 layer_factory.hpp:77] Creating layer relu5
I0318 05:16:46.474484  3501 net.cpp:91] Creating Layer relu5
I0318 05:16:46.474493  3501 net.cpp:425] relu5 <- conv5
I0318 05:16:46.474508  3501 net.cpp:386] relu5 -> conv5 (in-place)
I0318 05:16:46.474798  3501 net.cpp:141] Setting up relu5
I0318 05:16:46.474820  3501 net.cpp:148] Top shape: 100 256 13 13 (4326400)
I0318 05:16:46.474827  3501 net.cpp:156] Memory required for data: 1003513200
I0318 05:16:46.474833  3501 layer_factory.hpp:77] Creating layer pool5
I0318 05:16:46.474845  3501 net.cpp:91] Creating Layer pool5
I0318 05:16:46.474851  3501 net.cpp:425] pool5 <- conv5
I0318 05:16:46.474862  3501 net.cpp:399] pool5 -> pool5
I0318 05:16:46.474932  3501 net.cpp:141] Setting up pool5
I0318 05:16:46.474952  3501 net.cpp:148] Top shape: 100 256 6 6 (921600)
I0318 05:16:46.474957  3501 net.cpp:156] Memory required for data: 1007199600
I0318 05:16:46.474962  3501 layer_factory.hpp:77] Creating layer fc6
I0318 05:16:46.474977  3501 net.cpp:91] Creating Layer fc6
I0318 05:16:46.474983  3501 net.cpp:425] fc6 <- pool5
I0318 05:16:46.474993  3501 net.cpp:399] fc6 -> fc6
I0318 05:16:47.739014  3501 net.cpp:141] Setting up fc6
I0318 05:16:47.739068  3501 net.cpp:148] Top shape: 100 4096 (409600)
I0318 05:16:47.739074  3501 net.cpp:156] Memory required for data: 1008838000
I0318 05:16:47.739091  3501 layer_factory.hpp:77] Creating layer relu6
I0318 05:16:47.739109  3501 net.cpp:91] Creating Layer relu6
I0318 05:16:47.739115  3501 net.cpp:425] relu6 <- fc6
I0318 05:16:47.739128  3501 net.cpp:386] relu6 -> fc6 (in-place)
I0318 05:16:47.739387  3501 net.cpp:141] Setting up relu6
I0318 05:16:47.739408  3501 net.cpp:148] Top shape: 100 4096 (409600)
I0318 05:16:47.739413  3501 net.cpp:156] Memory required for data: 1010476400
I0318 05:16:47.739418  3501 layer_factory.hpp:77] Creating layer drop6
I0318 05:16:47.739431  3501 net.cpp:91] Creating Layer drop6
I0318 05:16:47.739437  3501 net.cpp:425] drop6 <- fc6
I0318 05:16:47.739446  3501 net.cpp:386] drop6 -> fc6 (in-place)
I0318 05:16:47.739497  3501 net.cpp:141] Setting up drop6
I0318 05:16:47.739517  3501 net.cpp:148] Top shape: 100 4096 (409600)
I0318 05:16:47.739522  3501 net.cpp:156] Memory required for data: 1012114800
I0318 05:16:47.739528  3501 layer_factory.hpp:77] Creating layer fc7
I0318 05:16:47.739547  3501 net.cpp:91] Creating Layer fc7
I0318 05:16:47.739578  3501 net.cpp:425] fc7 <- fc6
I0318 05:16:47.739598  3501 net.cpp:399] fc7 -> fc7
I0318 05:16:48.301506  3501 net.cpp:141] Setting up fc7
I0318 05:16:48.301561  3501 net.cpp:148] Top shape: 100 4096 (409600)
I0318 05:16:48.301568  3501 net.cpp:156] Memory required for data: 1013753200
I0318 05:16:48.301585  3501 layer_factory.hpp:77] Creating layer fc8
I0318 05:16:48.301606  3501 net.cpp:91] Creating Layer fc8
I0318 05:16:48.301614  3501 net.cpp:425] fc8 <- fc7
I0318 05:16:48.301627  3501 net.cpp:399] fc8 -> fc8
I0318 05:16:48.438138  3501 net.cpp:141] Setting up fc8
I0318 05:16:48.438180  3501 net.cpp:148] Top shape: 100 1000 (100000)
I0318 05:16:48.438187  3501 net.cpp:156] Memory required for data: 1014153200
I0318 05:16:48.438201  3501 layer_factory.hpp:77] Creating layer fc8_fc8_0_split
I0318 05:16:48.438215  3501 net.cpp:91] Creating Layer fc8_fc8_0_split
I0318 05:16:48.438220  3501 net.cpp:425] fc8_fc8_0_split <- fc8
I0318 05:16:48.438230  3501 net.cpp:399] fc8_fc8_0_split -> fc8_fc8_0_split_0
I0318 05:16:48.438241  3501 net.cpp:399] fc8_fc8_0_split -> fc8_fc8_0_split_1
I0318 05:16:48.438313  3501 net.cpp:141] Setting up fc8_fc8_0_split
I0318 05:16:48.438333  3501 net.cpp:148] Top shape: 100 1000 (100000)
I0318 05:16:48.438340  3501 net.cpp:148] Top shape: 100 1000 (100000)
I0318 05:16:48.438344  3501 net.cpp:156] Memory required for data: 1014953200
I0318 05:16:48.438350  3501 layer_factory.hpp:77] Creating layer conv1_p
I0318 05:16:48.438370  3501 net.cpp:91] Creating Layer conv1_p
I0318 05:16:48.438379  3501 net.cpp:425] conv1_p <- data_p
I0318 05:16:48.438392  3501 net.cpp:399] conv1_p -> conv1_p
I0318 05:16:48.440726  3501 net.cpp:141] Setting up conv1_p
I0318 05:16:48.440749  3501 net.cpp:148] Top shape: 100 96 55 55 (29040000)
I0318 05:16:48.440755  3501 net.cpp:156] Memory required for data: 1131113200
I0318 05:16:48.440768  3501 net.cpp:484] Sharing parameters 'conv1_w' owned by layer 'conv1', param index 0
I0318 05:16:48.440775  3501 net.cpp:484] Sharing parameters 'conv1_b' owned by layer 'conv1', param index 1
I0318 05:16:48.440781  3501 layer_factory.hpp:77] Creating layer relu1_p
I0318 05:16:48.440793  3501 net.cpp:91] Creating Layer relu1_p
I0318 05:16:48.440809  3501 net.cpp:425] relu1_p <- conv1_p
I0318 05:16:48.440819  3501 net.cpp:386] relu1_p -> conv1_p (in-place)
I0318 05:16:48.440991  3501 net.cpp:141] Setting up relu1_p
I0318 05:16:48.441010  3501 net.cpp:148] Top shape: 100 96 55 55 (29040000)
I0318 05:16:48.441015  3501 net.cpp:156] Memory required for data: 1247273200
I0318 05:16:48.441021  3501 layer_factory.hpp:77] Creating layer norm1_p
I0318 05:16:48.441035  3501 net.cpp:91] Creating Layer norm1_p
I0318 05:16:48.441040  3501 net.cpp:425] norm1_p <- conv1_p
I0318 05:16:48.441048  3501 net.cpp:399] norm1_p -> norm1_p
I0318 05:16:48.441365  3501 net.cpp:141] Setting up norm1_p
I0318 05:16:48.441386  3501 net.cpp:148] Top shape: 100 96 55 55 (29040000)
I0318 05:16:48.441391  3501 net.cpp:156] Memory required for data: 1363433200
I0318 05:16:48.441397  3501 layer_factory.hpp:77] Creating layer pool1_p
I0318 05:16:48.441407  3501 net.cpp:91] Creating Layer pool1_p
I0318 05:16:48.441413  3501 net.cpp:425] pool1_p <- norm1_p
I0318 05:16:48.441424  3501 net.cpp:399] pool1_p -> pool1_p
I0318 05:16:48.441483  3501 net.cpp:141] Setting up pool1_p
I0318 05:16:48.441498  3501 net.cpp:148] Top shape: 100 96 27 27 (6998400)
I0318 05:16:48.441504  3501 net.cpp:156] Memory required for data: 1391426800
I0318 05:16:48.441509  3501 layer_factory.hpp:77] Creating layer conv2_p
I0318 05:16:48.441526  3501 net.cpp:91] Creating Layer conv2_p
I0318 05:16:48.441535  3501 net.cpp:425] conv2_p <- pool1_p
I0318 05:16:48.441545  3501 net.cpp:399] conv2_p -> conv2_p
I0318 05:16:48.453713  3501 net.cpp:141] Setting up conv2_p
I0318 05:16:48.453737  3501 net.cpp:148] Top shape: 100 256 27 27 (18662400)
I0318 05:16:48.453742  3501 net.cpp:156] Memory required for data: 1466076400
I0318 05:16:48.453749  3501 net.cpp:484] Sharing parameters 'conv2_w' owned by layer 'conv2', param index 0
I0318 05:16:48.453785  3501 net.cpp:484] Sharing parameters 'conv2_b' owned by layer 'conv2', param index 1
I0318 05:16:48.453793  3501 layer_factory.hpp:77] Creating layer relu2_p
I0318 05:16:48.453800  3501 net.cpp:91] Creating Layer relu2_p
I0318 05:16:48.453806  3501 net.cpp:425] relu2_p <- conv2_p
I0318 05:16:48.453816  3501 net.cpp:386] relu2_p -> conv2_p (in-place)
I0318 05:16:48.453994  3501 net.cpp:141] Setting up relu2_p
I0318 05:16:48.454013  3501 net.cpp:148] Top shape: 100 256 27 27 (18662400)
I0318 05:16:48.454018  3501 net.cpp:156] Memory required for data: 1540726000
I0318 05:16:48.454025  3501 layer_factory.hpp:77] Creating layer norm2_p
I0318 05:16:48.454041  3501 net.cpp:91] Creating Layer norm2_p
I0318 05:16:48.454049  3501 net.cpp:425] norm2_p <- conv2_p
I0318 05:16:48.454058  3501 net.cpp:399] norm2_p -> norm2_p
I0318 05:16:48.454454  3501 net.cpp:141] Setting up norm2_p
I0318 05:16:48.454476  3501 net.cpp:148] Top shape: 100 256 27 27 (18662400)
I0318 05:16:48.454481  3501 net.cpp:156] Memory required for data: 1615375600
I0318 05:16:48.454488  3501 layer_factory.hpp:77] Creating layer pool2_p
I0318 05:16:48.454496  3501 net.cpp:91] Creating Layer pool2_p
I0318 05:16:48.454501  3501 net.cpp:425] pool2_p <- norm2_p
I0318 05:16:48.454511  3501 net.cpp:399] pool2_p -> pool2_p
I0318 05:16:48.454569  3501 net.cpp:141] Setting up pool2_p
I0318 05:16:48.454586  3501 net.cpp:148] Top shape: 100 256 13 13 (4326400)
I0318 05:16:48.454591  3501 net.cpp:156] Memory required for data: 1632681200
I0318 05:16:48.454596  3501 layer_factory.hpp:77] Creating layer conv3_p
I0318 05:16:48.454617  3501 net.cpp:91] Creating Layer conv3_p
I0318 05:16:48.454629  3501 net.cpp:425] conv3_p <- pool2_p
I0318 05:16:48.454639  3501 net.cpp:399] conv3_p -> conv3_p
I0318 05:16:48.484994  3501 net.cpp:141] Setting up conv3_p
I0318 05:16:48.485018  3501 net.cpp:148] Top shape: 100 384 13 13 (6489600)
I0318 05:16:48.485024  3501 net.cpp:156] Memory required for data: 1658639600
I0318 05:16:48.485031  3501 net.cpp:484] Sharing parameters 'conv3_w' owned by layer 'conv3', param index 0
I0318 05:16:48.485038  3501 net.cpp:484] Sharing parameters 'conv3_b' owned by layer 'conv3', param index 1
I0318 05:16:48.485044  3501 layer_factory.hpp:77] Creating layer relu3_p
I0318 05:16:48.485052  3501 net.cpp:91] Creating Layer relu3_p
I0318 05:16:48.485059  3501 net.cpp:425] relu3_p <- conv3_p
I0318 05:16:48.485067  3501 net.cpp:386] relu3_p -> conv3_p (in-place)
I0318 05:16:48.485337  3501 net.cpp:141] Setting up relu3_p
I0318 05:16:48.485358  3501 net.cpp:148] Top shape: 100 384 13 13 (6489600)
I0318 05:16:48.485364  3501 net.cpp:156] Memory required for data: 1684598000
I0318 05:16:48.485369  3501 layer_factory.hpp:77] Creating layer conv4_p
I0318 05:16:48.485386  3501 net.cpp:91] Creating Layer conv4_p
I0318 05:16:48.485393  3501 net.cpp:425] conv4_p <- conv3_p
I0318 05:16:48.485404  3501 net.cpp:399] conv4_p -> conv4_p
I0318 05:16:48.509313  3501 net.cpp:141] Setting up conv4_p
I0318 05:16:48.509336  3501 net.cpp:148] Top shape: 100 384 13 13 (6489600)
I0318 05:16:48.509342  3501 net.cpp:156] Memory required for data: 1710556400
I0318 05:16:48.509349  3501 net.cpp:484] Sharing parameters 'conv4_w' owned by layer 'conv4', param index 0
I0318 05:16:48.509356  3501 net.cpp:484] Sharing parameters 'conv4_b' owned by layer 'conv4', param index 1
I0318 05:16:48.509361  3501 layer_factory.hpp:77] Creating layer relu4_p
I0318 05:16:48.509369  3501 net.cpp:91] Creating Layer relu4_p
I0318 05:16:48.509374  3501 net.cpp:425] relu4_p <- conv4_p
I0318 05:16:48.509384  3501 net.cpp:386] relu4_p -> conv4_p (in-place)
I0318 05:16:48.509555  3501 net.cpp:141] Setting up relu4_p
I0318 05:16:48.509574  3501 net.cpp:148] Top shape: 100 384 13 13 (6489600)
I0318 05:16:48.509583  3501 net.cpp:156] Memory required for data: 1736514800
I0318 05:16:48.509588  3501 layer_factory.hpp:77] Creating layer conv5_p
I0318 05:16:48.509604  3501 net.cpp:91] Creating Layer conv5_p
I0318 05:16:48.509610  3501 net.cpp:425] conv5_p <- conv4_p
I0318 05:16:48.509623  3501 net.cpp:399] conv5_p -> conv5_p
I0318 05:16:48.526391  3501 net.cpp:141] Setting up conv5_p
I0318 05:16:48.526418  3501 net.cpp:148] Top shape: 100 256 13 13 (4326400)
I0318 05:16:48.526424  3501 net.cpp:156] Memory required for data: 1753820400
I0318 05:16:48.526432  3501 net.cpp:484] Sharing parameters 'conv5_w' owned by layer 'conv5', param index 0
I0318 05:16:48.526437  3501 net.cpp:484] Sharing parameters 'conv5_b' owned by layer 'conv5', param index 1
I0318 05:16:48.526443  3501 layer_factory.hpp:77] Creating layer relu5_p
I0318 05:16:48.526451  3501 net.cpp:91] Creating Layer relu5_p
I0318 05:16:48.526456  3501 net.cpp:425] relu5_p <- conv5_p
I0318 05:16:48.526468  3501 net.cpp:386] relu5_p -> conv5_p (in-place)
I0318 05:16:48.526643  3501 net.cpp:141] Setting up relu5_p
I0318 05:16:48.526662  3501 net.cpp:148] Top shape: 100 256 13 13 (4326400)
I0318 05:16:48.526667  3501 net.cpp:156] Memory required for data: 1771126000
I0318 05:16:48.526674  3501 layer_factory.hpp:77] Creating layer pool5_p
I0318 05:16:48.526682  3501 net.cpp:91] Creating Layer pool5_p
I0318 05:16:48.526687  3501 net.cpp:425] pool5_p <- conv5_p
I0318 05:16:48.526698  3501 net.cpp:399] pool5_p -> pool5_p
I0318 05:16:48.526762  3501 net.cpp:141] Setting up pool5_p
I0318 05:16:48.526778  3501 net.cpp:148] Top shape: 100 256 6 6 (921600)
I0318 05:16:48.526783  3501 net.cpp:156] Memory required for data: 1774812400
I0318 05:16:48.526788  3501 layer_factory.hpp:77] Creating layer fc6_p
I0318 05:16:48.526803  3501 net.cpp:91] Creating Layer fc6_p
I0318 05:16:48.526808  3501 net.cpp:425] fc6_p <- pool5_p
I0318 05:16:48.526818  3501 net.cpp:399] fc6_p -> fc6_p
I0318 05:16:49.788250  3501 net.cpp:141] Setting up fc6_p
I0318 05:16:49.788312  3501 net.cpp:148] Top shape: 100 4096 (409600)
I0318 05:16:49.788319  3501 net.cpp:156] Memory required for data: 1776450800
I0318 05:16:49.788332  3501 net.cpp:484] Sharing parameters 'fc6_w' owned by layer 'fc6', param index 0
I0318 05:16:49.788341  3501 net.cpp:484] Sharing parameters 'fc6_b' owned by layer 'fc6', param index 1
I0318 05:16:49.788347  3501 layer_factory.hpp:77] Creating layer relu6_p
I0318 05:16:49.788363  3501 net.cpp:91] Creating Layer relu6_p
I0318 05:16:49.788383  3501 net.cpp:425] relu6_p <- fc6_p
I0318 05:16:49.788398  3501 net.cpp:386] relu6_p -> fc6_p (in-place)
I0318 05:16:49.788857  3501 net.cpp:141] Setting up relu6_p
I0318 05:16:49.788879  3501 net.cpp:148] Top shape: 100 4096 (409600)
I0318 05:16:49.788884  3501 net.cpp:156] Memory required for data: 1778089200
I0318 05:16:49.788890  3501 layer_factory.hpp:77] Creating layer drop6_p
I0318 05:16:49.788902  3501 net.cpp:91] Creating Layer drop6_p
I0318 05:16:49.788908  3501 net.cpp:425] drop6_p <- fc6_p
I0318 05:16:49.788918  3501 net.cpp:386] drop6_p -> fc6_p (in-place)
I0318 05:16:49.788967  3501 net.cpp:141] Setting up drop6_p
I0318 05:16:49.788987  3501 net.cpp:148] Top shape: 100 4096 (409600)
I0318 05:16:49.788992  3501 net.cpp:156] Memory required for data: 1779727600
I0318 05:16:49.788998  3501 layer_factory.hpp:77] Creating layer fc7_p
I0318 05:16:49.789014  3501 net.cpp:91] Creating Layer fc7_p
I0318 05:16:49.789031  3501 net.cpp:425] fc7_p <- fc6_p
I0318 05:16:49.789046  3501 net.cpp:399] fc7_p -> fc7_p
I0318 05:16:50.352656  3501 net.cpp:141] Setting up fc7_p
I0318 05:16:50.352710  3501 net.cpp:148] Top shape: 100 4096 (409600)
I0318 05:16:50.352716  3501 net.cpp:156] Memory required for data: 1781366000
I0318 05:16:50.352728  3501 net.cpp:484] Sharing parameters 'fc7_w' owned by layer 'fc7', param index 0
I0318 05:16:50.352736  3501 net.cpp:484] Sharing parameters 'fc7_b' owned by layer 'fc7', param index 1
I0318 05:16:50.352742  3501 layer_factory.hpp:77] Creating layer fc8_p
I0318 05:16:50.352764  3501 net.cpp:91] Creating Layer fc8_p
I0318 05:16:50.352773  3501 net.cpp:425] fc8_p <- fc7_p
I0318 05:16:50.352785  3501 net.cpp:399] fc8_p -> fc8_p
I0318 05:16:50.489423  3501 net.cpp:141] Setting up fc8_p
I0318 05:16:50.489462  3501 net.cpp:148] Top shape: 100 1000 (100000)
I0318 05:16:50.489470  3501 net.cpp:156] Memory required for data: 1781766000
I0318 05:16:50.489507  3501 net.cpp:484] Sharing parameters 'fc8_w' owned by layer 'fc8', param index 0
I0318 05:16:50.489516  3501 net.cpp:484] Sharing parameters 'fc8_b' owned by layer 'fc8', param index 1
I0318 05:16:50.489521  3501 layer_factory.hpp:77] Creating layer fc8_p_fc8_p_0_split
I0318 05:16:50.489536  3501 net.cpp:91] Creating Layer fc8_p_fc8_p_0_split
I0318 05:16:50.489550  3501 net.cpp:425] fc8_p_fc8_p_0_split <- fc8_p
I0318 05:16:50.489562  3501 net.cpp:399] fc8_p_fc8_p_0_split -> fc8_p_fc8_p_0_split_0
I0318 05:16:50.489573  3501 net.cpp:399] fc8_p_fc8_p_0_split -> fc8_p_fc8_p_0_split_1
I0318 05:16:50.489653  3501 net.cpp:141] Setting up fc8_p_fc8_p_0_split
I0318 05:16:50.489671  3501 net.cpp:148] Top shape: 100 1000 (100000)
I0318 05:16:50.489677  3501 net.cpp:148] Top shape: 100 1000 (100000)
I0318 05:16:50.489682  3501 net.cpp:156] Memory required for data: 1782566000
I0318 05:16:50.489687  3501 layer_factory.hpp:77] Creating layer siamese_accuracy
I0318 05:16:50.489703  3501 net.cpp:91] Creating Layer siamese_accuracy
I0318 05:16:50.489709  3501 net.cpp:425] siamese_accuracy <- fc8_fc8_0_split_0
I0318 05:16:50.489717  3501 net.cpp:425] siamese_accuracy <- fc8_p_fc8_p_0_split_0
…
