…
I0317 09:28:35.814039  3513 net.cpp:313] The NetState phase (0) differed from the phase (1) specified by a rule in layer pair_data
I0317 09:28:35.814103  3513 net.cpp:313] The NetState phase (0) differed from the phase (1) specified by a rule in layer siamese_accuracy
I0317 09:28:35.814538  3513 net.cpp:49] Initializing net from parameters: 
name: "SiameseAlexNet"
state {
  phase: TRAIN
}
layer {
  name: "pair_data"
  type: "Data"
  top: "pair_data"
  top: "sim"
  include {
    phase: TRAIN
  }
  transform_param {
    scale: 0.00390625
  }
  data_param {
    source: "/home/ubuntu/fyp/data/data-fyp/siamese_train_leveldb"
    batch_size: 64
  }
}
layer {
  name: "slice_pair"
  type: "Slice"
  bottom: "pair_data"
  top: "data"
  top: "data_p"
  slice_param {
    slice_dim: 1
    slice_point: 3
  }
}
layer {
  name: "conv1"
  type: "Convolution"
  bottom: "data"
  top: "conv1"
  param {
    name: "conv1_w"
    lr_mult: 0
    decay_mult: 1
  }
  param {
    name: "conv1_b"
    lr_mult: 0
    decay_mult: 0
  }
  convolution_param {
    num_output: 96
    kernel_size: 11
    stride: 4
    weight_filler {
      type: "gaussian"
      std: 0.01
    }
    bias_filler {
      type: "constant"
      value: 0
    }
  }
}
layer {
  name: "relu1"
  type: "ReLU"
  bottom: "conv1"
  top: "conv1"
}
layer {
  name: "norm1"
  type: "LRN"
  bottom: "conv1"
  top: "norm1"
  lrn_param {
    local_size: 5
    alpha: 0.0001
    beta: 0.75
  }
}
layer {
  name: "pool1"
  type: "Pooling"
  bottom: "norm1"
  top: "pool1"
  pooling_param {
    pool: MAX
    kernel_size: 3
    stride: 2
  }
}
layer {
  name: "conv2"
  type: "Convolution"
  bottom: "pool1"
  top: "conv2"
  param {
    name: "conv2_w"
    lr_mult: 0
    decay_mult: 1
  }
  param {
    name: "conv2_b"
    lr_mult: 0
    decay_mult: 0
  }
  convolution_param {
    num_output: 256
    pad: 2
    kernel_size: 5
    group: 2
    weight_filler {
      type: "gaussian"
      std: 0.01
    }
    bias_filler {
      type: "constant"
      value: 0.1
    }
  }
}
layer {
  name: "relu2"
  type: "ReLU"
  bottom: "conv2"
  top: "conv2"
}
layer {
  name: "norm2"
  type: "LRN"
  bottom: "conv2"
  top: "norm2"
  lrn_param {
    local_size: 5
    alpha: 0.0001
    beta: 0.75
  }
}
layer {
  name: "pool2"
  type: "Pooling"
  bottom: "norm2"
  top: "pool2"
  pooling_param {
    pool: MAX
    kernel_size: 3
    stride: 2
  }
}
layer {
  name: "conv3"
  type: "Convolution"
  bottom: "pool2"
  top: "conv3"
  param {
    name: "conv3_w"
    lr_mult: 0
    decay_mult: 1
  }
  param {
    name: "conv3_b"
    lr_mult: 0
    decay_mult: 0
  }
  convolution_param {
    num_output: 384
    pad: 1
    kernel_size: 3
    weight_filler {
      type: "gaussian"
      std: 0.01
    }
    bias_filler {
      type: "constant"
      value: 0
    }
  }
}
layer {
  name: "relu3"
  type: "ReLU"
  bottom: "conv3"
  top: "conv3"
}
layer {
  name: "conv4"
  type: "Convolution"
  bottom: "conv3"
  top: "conv4"
  param {
    name: "conv4_w"
    lr_mult: 0
    decay_mult: 1
  }
  param {
    name: "conv4_b"
    lr_mult: 0
    decay_mult: 0
  }
  convolution_param {
    num_output: 384
    pad: 1
    kernel_size: 3
    group: 2
    weight_filler {
      type: "gaussian"
      std: 0.01
    }
    bias_filler {
      type: "constant"
      value: 0.1
    }
  }
}
layer {
  name: "relu4"
  type: "ReLU"
  bottom: "conv4"
  top: "conv4"
}
layer {
  name: "conv5"
  type: "Convolution"
  bottom: "conv4"
  top: "conv5"
  param {
    name: "conv5_w"
    lr_mult: 0
    decay_mult: 1
  }
  param {
    name: "conv5_b"
    lr_mult: 0
    decay_mult: 0
  }
  convolution_param {
    num_output: 256
    pad: 1
    kernel_size: 3
    group: 2
    weight_filler {
      type: "gaussian"
      std: 0.01
    }
    bias_filler {
      type: "constant"
      value: 0.1
    }
  }
}
layer {
  name: "relu5"
  type: "ReLU"
  bottom: "conv5"
  top: "conv5"
}
layer {
  name: "pool5"
  type: "Pooling"
  bottom: "conv5"
  top: "pool5"
  pooling_param {
    pool: MAX
    kernel_size: 3
    stride: 2
  }
}
layer {
  name: "fc6"
  type: "InnerProduct"
  bottom: "pool5"
  top: "fc6"
  param {
    name: "fc6_w"
    lr_mult: 0
    decay_mult: 1
  }
  param {
    name: "fc6_b"
    lr_mult: 0
    decay_mult: 0
  }
  inner_product_param {
    num_output: 4096
    weight_filler {
      type: "gaussian"
      std: 0.005
    }
    bias_filler {
      type: "constant"
      value: 0.1
    }
  }
}
layer {
  name: "relu6"
  type: "ReLU"
  bottom: "fc6"
  top: "fc6"
}
layer {
  name: "drop6"
  type: "Dropout"
  bottom: "fc6"
  top: "fc6"
  dropout_param {
    dropout_ratio: 0.5
  }
}
layer {
  name: "fc7"
  type: "InnerProduct"
  bottom: "fc6"
  top: "fc7"
  param {
    name: "fc7_w"
    lr_mult: 0
    decay_mult: 1
  }
  param {
    name: "fc7_b"
    lr_mult: 0
    decay_mult: 0
  }
  inner_product_param {
    num_output: 4096
    weight_filler {
      type: "gaussian"
      std: 0.01
    }
    bias_filler {
      type: "constant"
      value: 0
    }
  }
}
layer {
  name: "fc8"
  type: "InnerProduct"
  bottom: "fc7"
  top: "fc8"
  param {
    name: "fc8_w"
    lr_mult: 1
    decay_mult: 1
  }
  param {
    name: "fc8_b"
    lr_mult: 2
    decay_mult: 0
  }
  inner_product_param {
    num_output: 1000
    weight_filler {
      type: "gaussian"
      std: 0.01
    }
    bias_filler {
      type: "constant"
      value: 0
    }
  }
}
layer {
  name: "conv1_p"
  type: "Convolution"
  bottom: "data_p"
  top: "conv1_p"
  param {
    name: "conv1_w"
    lr_mult: 0
    decay_mult: 1
  }
  param {
    name: "conv1_b"
    lr_mult: 0
    decay_mult: 0
  }
  convolution_param {
    num_output: 96
    kernel_size: 11
    stride: 4
    weight_filler {
      type: "gaussian"
      std: 0.01
    }
    bias_filler {
      type: "constant"
      value: 0
    }
  }
}
layer {
  name: "relu1_p"
  type: "ReLU"
  bottom: "conv1_p"
  top: "conv1_p"
}
layer {
  name: "norm1_p"
  type: "LRN"
  bottom: "conv1_p"
  top: "norm1_p"
  lrn_param {
    local_size: 5
    alpha: 0.0001
    beta: 0.75
  }
}
layer {
  name: "pool1_p"
  type: "Pooling"
  bottom: "norm1_p"
  top: "pool1_p"
  pooling_param {
    pool: MAX
    kernel_size: 3
    stride: 2
  }
}
layer {
  name: "conv2_p"
  type: "Convolution"
  bottom: "pool1_p"
  top: "conv2_p"
  param {
    name: "conv2_w"
    lr_mult: 0
    decay_mult: 1
  }
  param {
    name: "conv2_b"
    lr_mult: 0
    decay_mult: 0
  }
  convolution_param {
    num_output: 256
    pad: 2
    kernel_size: 5
    group: 2
    weight_filler {
      type: "gaussian"
      std: 0.01
    }
    bias_filler {
      type: "constant"
      value: 0.1
    }
  }
}
layer {
  name: "relu2_p"
  type: "ReLU"
  bottom: "conv2_p"
  top: "conv2_p"
}
layer {
  name: "norm2_p"
  type: "LRN"
  bottom: "conv2_p"
  top: "norm2_p"
  lrn_param {
    local_size: 5
    alpha: 0.0001
    beta: 0.75
  }
}
layer {
  name: "pool2_p"
  type: "Pooling"
  bottom: "norm2_p"
  top: "pool2_p"
  pooling_param {
    pool: MAX
    kernel_size: 3
    stride: 2
  }
}
layer {
  name: "conv3_p"
  type: "Convolution"
  bottom: "pool2_p"
  top: "conv3_p"
  param {
    name: "conv3_w"
    lr_mult: 0
    decay_mult: 1
  }
  param {
    name: "conv3_b"
    lr_mult: 0
    decay_mult: 0
  }
  convolution_param {
    num_output: 384
    pad: 1
    kernel_size: 3
    weight_filler {
      type: "gaussian"
      std: 0.01
    }
    bias_filler {
      type: "constant"
      value: 0
    }
  }
}
layer {
  name: "relu3_p"
  type: "ReLU"
  bottom: "conv3_p"
  top: "conv3_p"
}
layer {
  name: "conv4_p"
  type: "Convolution"
  bottom: "conv3_p"
  top: "conv4_p"
  param {
    name: "conv4_w"
    lr_mult: 0
    decay_mult: 1
  }
  param {
    name: "conv4_b"
    lr_mult: 0
    decay_mult: 0
  }
  convolution_param {
    num_output: 384
    pad: 1
    kernel_size: 3
    group: 2
    weight_filler {
      type: "gaussian"
      std: 0.01
    }
    bias_filler {
      type: "constant"
      value: 0.1
    }
  }
}
layer {
  name: "relu4_p"
  type: "ReLU"
  bottom: "conv4_p"
  top: "conv4_p"
}
layer {
  name: "conv5_p"
  type: "Convolution"
  bottom: "conv4_p"
  top: "conv5_p"
  param {
    name: "conv5_w"
    lr_mult: 0
    decay_mult: 1
  }
  param {
    name: "conv5_b"
    lr_mult: 0
    decay_mult: 0
  }
  convolution_param {
    num_output: 256
    pad: 1
    kernel_size: 3
    group: 2
    weight_filler {
      type: "gaussian"
      std: 0.01
    }
    bias_filler {
      type: "constant"
      value: 0.1
    }
  }
}
layer {
  name: "relu5_p"
  type: "ReLU"
  bottom: "conv5_p"
  top: "conv5_p"
}
layer {
  name: "pool5_p"
  type: "Pooling"
  bottom: "conv5_p"
  top: "pool5_p"
  pooling_param {
    pool: MAX
    kernel_size: 3
    stride: 2
  }
}
layer {
  name: "fc6_p"
  type: "InnerProduct"
  bottom: "pool5_p"
  top: "fc6_p"
  param {
    name: "fc6_w"
    lr_mult: 0
    decay_mult: 1
  }
  param {
    name: "fc6_b"
    lr_mult: 0
    decay_mult: 0
  }
  inner_product_param {
    num_output: 4096
    weight_filler {
      type: "gaussian"
      std: 0.005
    }
    bias_filler {
      type: "constant"
      value: 0.1
    }
  }
}
layer {
  name: "relu6_p"
  type: "ReLU"
  bottom: "fc6_p"
  top: "fc6_p"
}
layer {
  name: "drop6_p"
  type: "Dropout"
  bottom: "fc6_p"
  top: "fc6_p"
  dropout_param {
    dropout_ratio: 0.5
  }
}
layer {
  name: "fc7_p"
  type: "InnerProduct"
  bottom: "fc6_p"
  top: "fc7_p"
  param {
    name: "fc7_w"
    lr_mult: 0
    decay_mult: 1
  }
  param {
    name: "fc7_b"
    lr_mult: 0
    decay_mult: 0
  }
  inner_product_param {
    num_output: 4096
    weight_filler {
      type: "gaussian"
      std: 0.01
    }
    bias_filler {
      type: "constant"
      value: 0
    }
  }
}
layer {
  name: "fc8_p"
  type: "InnerProduct"
  bottom: "fc7_p"
  top: "fc8_p"
  param {
    name: "fc8_w"
    lr_mult: 1
    decay_mult: 1
  }
  param {
    name: "fc8_b"
    lr_mult: 2
    decay_mult: 0
  }
  inner_product_param {
    num_output: 1000
    weight_filler {
      type: "gaussian"
      std: 0.01
    }
    bias_filler {
      type: "constant"
      value: 0
    }
  }
}
layer {
  name: "loss"
  type: "ContrastiveLoss"
  bottom: "fc8"
  bottom: "fc8_p"
  bottom: "sim"
  top: "loss"
  contrastive_loss_param {
    margin: 1
  }
}
I0317 09:28:35.814796  3513 layer_factory.hpp:77] Creating layer pair_data
I0317 09:28:35.815731  3513 net.cpp:91] Creating Layer pair_data
I0317 09:28:35.815752  3513 net.cpp:399] pair_data -> pair_data
I0317 09:28:35.815790  3513 net.cpp:399] pair_data -> sim
I0317 09:28:35.823587  3517 db_leveldb.cpp:18] Opened leveldb /home/ubuntu/fyp/data/data-fyp/siamese_train_leveldb
I0317 09:28:35.836833  3513 data_layer.cpp:41] output data size: 64,6,227,227
I0317 09:28:35.982453  3513 net.cpp:141] Setting up pair_data
I0317 09:28:35.982552  3513 net.cpp:148] Top shape: 64 6 227 227 (19787136)
I0317 09:28:35.982564  3513 net.cpp:148] Top shape: 64 (64)
I0317 09:28:35.982570  3513 net.cpp:156] Memory required for data: 79148800
I0317 09:28:35.982594  3513 layer_factory.hpp:77] Creating layer slice_pair
I0317 09:28:35.982681  3513 net.cpp:91] Creating Layer slice_pair
I0317 09:28:35.982698  3513 net.cpp:425] slice_pair <- pair_data
I0317 09:28:35.982715  3513 net.cpp:399] slice_pair -> data
I0317 09:28:35.982733  3513 net.cpp:399] slice_pair -> data_p
I0317 09:28:35.982808  3513 net.cpp:141] Setting up slice_pair
I0317 09:28:35.982825  3513 net.cpp:148] Top shape: 64 3 227 227 (9893568)
I0317 09:28:35.982831  3513 net.cpp:148] Top shape: 64 3 227 227 (9893568)
I0317 09:28:35.982836  3513 net.cpp:156] Memory required for data: 158297344
I0317 09:28:35.982841  3513 layer_factory.hpp:77] Creating layer conv1
I0317 09:28:35.982870  3513 net.cpp:91] Creating Layer conv1
I0317 09:28:35.982877  3513 net.cpp:425] conv1 <- data
I0317 09:28:35.982916  3513 net.cpp:399] conv1 -> conv1
I0317 09:28:36.210146  3513 net.cpp:141] Setting up conv1
I0317 09:28:36.210196  3513 net.cpp:148] Top shape: 64 96 55 55 (18585600)
I0317 09:28:36.210203  3513 net.cpp:156] Memory required for data: 232639744
I0317 09:28:36.210232  3513 layer_factory.hpp:77] Creating layer relu1
I0317 09:28:36.210263  3513 net.cpp:91] Creating Layer relu1
I0317 09:28:36.210276  3513 net.cpp:425] relu1 <- conv1
I0317 09:28:36.210292  3513 net.cpp:386] relu1 -> conv1 (in-place)
I0317 09:28:36.210489  3513 net.cpp:141] Setting up relu1
I0317 09:28:36.210513  3513 net.cpp:148] Top shape: 64 96 55 55 (18585600)
I0317 09:28:36.210525  3513 net.cpp:156] Memory required for data: 306982144
I0317 09:28:36.210536  3513 layer_factory.hpp:77] Creating layer norm1
I0317 09:28:36.210566  3513 net.cpp:91] Creating Layer norm1
I0317 09:28:36.210587  3513 net.cpp:425] norm1 <- conv1
I0317 09:28:36.210615  3513 net.cpp:399] norm1 -> norm1
I0317 09:28:36.210916  3513 net.cpp:141] Setting up norm1
I0317 09:28:36.210942  3513 net.cpp:148] Top shape: 64 96 55 55 (18585600)
I0317 09:28:36.210952  3513 net.cpp:156] Memory required for data: 381324544
I0317 09:28:36.210963  3513 layer_factory.hpp:77] Creating layer pool1
I0317 09:28:36.210981  3513 net.cpp:91] Creating Layer pool1
I0317 09:28:36.210993  3513 net.cpp:425] pool1 <- norm1
I0317 09:28:36.211006  3513 net.cpp:399] pool1 -> pool1
I0317 09:28:36.211082  3513 net.cpp:141] Setting up pool1
I0317 09:28:36.211107  3513 net.cpp:148] Top shape: 64 96 27 27 (4478976)
I0317 09:28:36.211117  3513 net.cpp:156] Memory required for data: 399240448
I0317 09:28:36.211128  3513 layer_factory.hpp:77] Creating layer conv2
I0317 09:28:36.211155  3513 net.cpp:91] Creating Layer conv2
I0317 09:28:36.211175  3513 net.cpp:425] conv2 <- pool1
I0317 09:28:36.211194  3513 net.cpp:399] conv2 -> conv2
I0317 09:28:36.223637  3513 net.cpp:141] Setting up conv2
I0317 09:28:36.223687  3513 net.cpp:148] Top shape: 64 256 27 27 (11943936)
I0317 09:28:36.223698  3513 net.cpp:156] Memory required for data: 447016192
I0317 09:28:36.223726  3513 layer_factory.hpp:77] Creating layer relu2
I0317 09:28:36.223748  3513 net.cpp:91] Creating Layer relu2
I0317 09:28:36.223759  3513 net.cpp:425] relu2 <- conv2
I0317 09:28:36.223783  3513 net.cpp:386] relu2 -> conv2 (in-place)
I0317 09:28:36.224067  3513 net.cpp:141] Setting up relu2
I0317 09:28:36.224093  3513 net.cpp:148] Top shape: 64 256 27 27 (11943936)
I0317 09:28:36.224104  3513 net.cpp:156] Memory required for data: 494791936
I0317 09:28:36.224115  3513 layer_factory.hpp:77] Creating layer norm2
I0317 09:28:36.224143  3513 net.cpp:91] Creating Layer norm2
I0317 09:28:36.224154  3513 net.cpp:425] norm2 <- conv2
I0317 09:28:36.224169  3513 net.cpp:399] norm2 -> norm2
I0317 09:28:36.224468  3513 net.cpp:141] Setting up norm2
I0317 09:28:36.224496  3513 net.cpp:148] Top shape: 64 256 27 27 (11943936)
I0317 09:28:36.224506  3513 net.cpp:156] Memory required for data: 542567680
I0317 09:28:36.224516  3513 layer_factory.hpp:77] Creating layer pool2
I0317 09:28:36.224534  3513 net.cpp:91] Creating Layer pool2
I0317 09:28:36.224545  3513 net.cpp:425] pool2 <- norm2
I0317 09:28:36.224565  3513 net.cpp:399] pool2 -> pool2
I0317 09:28:36.224635  3513 net.cpp:141] Setting up pool2
I0317 09:28:36.224659  3513 net.cpp:148] Top shape: 64 256 13 13 (2768896)
I0317 09:28:36.224669  3513 net.cpp:156] Memory required for data: 553643264
I0317 09:28:36.224680  3513 layer_factory.hpp:77] Creating layer conv3
I0317 09:28:36.224709  3513 net.cpp:91] Creating Layer conv3
I0317 09:28:36.224723  3513 net.cpp:425] conv3 <- pool2
I0317 09:28:36.224746  3513 net.cpp:399] conv3 -> conv3
I0317 09:28:36.255393  3513 net.cpp:141] Setting up conv3
I0317 09:28:36.255445  3513 net.cpp:148] Top shape: 64 384 13 13 (4153344)
I0317 09:28:36.255456  3513 net.cpp:156] Memory required for data: 570256640
I0317 09:28:36.255486  3513 layer_factory.hpp:77] Creating layer relu3
I0317 09:28:36.255507  3513 net.cpp:91] Creating Layer relu3
I0317 09:28:36.255519  3513 net.cpp:425] relu3 <- conv3
I0317 09:28:36.255580  3513 net.cpp:386] relu3 -> conv3 (in-place)
I0317 09:28:36.255852  3513 net.cpp:141] Setting up relu3
I0317 09:28:36.255877  3513 net.cpp:148] Top shape: 64 384 13 13 (4153344)
I0317 09:28:36.255888  3513 net.cpp:156] Memory required for data: 586870016
I0317 09:28:36.255899  3513 layer_factory.hpp:77] Creating layer conv4
I0317 09:28:36.255931  3513 net.cpp:91] Creating Layer conv4
I0317 09:28:36.255946  3513 net.cpp:425] conv4 <- conv3
I0317 09:28:36.255964  3513 net.cpp:399] conv4 -> conv4
I0317 09:28:36.279741  3513 net.cpp:141] Setting up conv4
I0317 09:28:36.279788  3513 net.cpp:148] Top shape: 64 384 13 13 (4153344)
I0317 09:28:36.279798  3513 net.cpp:156] Memory required for data: 603483392
I0317 09:28:36.279819  3513 layer_factory.hpp:77] Creating layer relu4
I0317 09:28:36.279842  3513 net.cpp:91] Creating Layer relu4
I0317 09:28:36.279855  3513 net.cpp:425] relu4 <- conv4
I0317 09:28:36.279872  3513 net.cpp:386] relu4 -> conv4 (in-place)
I0317 09:28:36.280139  3513 net.cpp:141] Setting up relu4
I0317 09:28:36.280166  3513 net.cpp:148] Top shape: 64 384 13 13 (4153344)
I0317 09:28:36.280177  3513 net.cpp:156] Memory required for data: 620096768
I0317 09:28:36.280189  3513 layer_factory.hpp:77] Creating layer conv5
I0317 09:28:36.280218  3513 net.cpp:91] Creating Layer conv5
I0317 09:28:36.280238  3513 net.cpp:425] conv5 <- conv4
I0317 09:28:36.280261  3513 net.cpp:399] conv5 -> conv5
I0317 09:28:36.299238  3513 net.cpp:141] Setting up conv5
I0317 09:28:36.299266  3513 net.cpp:148] Top shape: 64 256 13 13 (2768896)
I0317 09:28:36.299278  3513 net.cpp:156] Memory required for data: 631172352
I0317 09:28:36.299306  3513 layer_factory.hpp:77] Creating layer relu5
I0317 09:28:36.299324  3513 net.cpp:91] Creating Layer relu5
I0317 09:28:36.299335  3513 net.cpp:425] relu5 <- conv5
I0317 09:28:36.299351  3513 net.cpp:386] relu5 -> conv5 (in-place)
I0317 09:28:36.299528  3513 net.cpp:141] Setting up relu5
I0317 09:28:36.299553  3513 net.cpp:148] Top shape: 64 256 13 13 (2768896)
I0317 09:28:36.299563  3513 net.cpp:156] Memory required for data: 642247936
I0317 09:28:36.299574  3513 layer_factory.hpp:77] Creating layer pool5
I0317 09:28:36.299600  3513 net.cpp:91] Creating Layer pool5
I0317 09:28:36.299612  3513 net.cpp:425] pool5 <- conv5
I0317 09:28:36.299630  3513 net.cpp:399] pool5 -> pool5
I0317 09:28:36.299707  3513 net.cpp:141] Setting up pool5
I0317 09:28:36.299731  3513 net.cpp:148] Top shape: 64 256 6 6 (589824)
I0317 09:28:36.299741  3513 net.cpp:156] Memory required for data: 644607232
I0317 09:28:36.299751  3513 layer_factory.hpp:77] Creating layer fc6
I0317 09:28:36.299779  3513 net.cpp:91] Creating Layer fc6
I0317 09:28:36.299801  3513 net.cpp:425] fc6 <- pool5
I0317 09:28:36.299824  3513 net.cpp:399] fc6 -> fc6
I0317 09:28:37.563246  3513 net.cpp:141] Setting up fc6
I0317 09:28:37.563308  3513 net.cpp:148] Top shape: 64 4096 (262144)
I0317 09:28:37.563320  3513 net.cpp:156] Memory required for data: 645655808
I0317 09:28:37.563344  3513 layer_factory.hpp:77] Creating layer relu6
I0317 09:28:37.563371  3513 net.cpp:91] Creating Layer relu6
I0317 09:28:37.563385  3513 net.cpp:425] relu6 <- fc6
I0317 09:28:37.563403  3513 net.cpp:386] relu6 -> fc6 (in-place)
I0317 09:28:37.563870  3513 net.cpp:141] Setting up relu6
I0317 09:28:37.563897  3513 net.cpp:148] Top shape: 64 4096 (262144)
I0317 09:28:37.563907  3513 net.cpp:156] Memory required for data: 646704384
I0317 09:28:37.563918  3513 layer_factory.hpp:77] Creating layer drop6
I0317 09:28:37.563943  3513 net.cpp:91] Creating Layer drop6
I0317 09:28:37.563956  3513 net.cpp:425] drop6 <- fc6
I0317 09:28:37.563979  3513 net.cpp:386] drop6 -> fc6 (in-place)
I0317 09:28:37.564072  3513 net.cpp:141] Setting up drop6
I0317 09:28:37.564095  3513 net.cpp:148] Top shape: 64 4096 (262144)
I0317 09:28:37.564119  3513 net.cpp:156] Memory required for data: 647752960
I0317 09:28:37.564131  3513 layer_factory.hpp:77] Creating layer fc7
I0317 09:28:37.564152  3513 net.cpp:91] Creating Layer fc7
I0317 09:28:37.564163  3513 net.cpp:425] fc7 <- fc6
I0317 09:28:37.564220  3513 net.cpp:399] fc7 -> fc7
I0317 09:28:38.127204  3513 net.cpp:141] Setting up fc7
I0317 09:28:38.127279  3513 net.cpp:148] Top shape: 64 4096 (262144)
I0317 09:28:38.127290  3513 net.cpp:156] Memory required for data: 648801536
I0317 09:28:38.127311  3513 layer_factory.hpp:77] Creating layer fc8
I0317 09:28:38.127352  3513 net.cpp:91] Creating Layer fc8
I0317 09:28:38.127367  3513 net.cpp:425] fc8 <- fc7
I0317 09:28:38.127389  3513 net.cpp:399] fc8 -> fc8
I0317 09:28:38.263988  3513 net.cpp:141] Setting up fc8
I0317 09:28:38.264037  3513 net.cpp:148] Top shape: 64 1000 (64000)
I0317 09:28:38.264050  3513 net.cpp:156] Memory required for data: 649057536
I0317 09:28:38.264068  3513 layer_factory.hpp:77] Creating layer conv1_p
I0317 09:28:38.264106  3513 net.cpp:91] Creating Layer conv1_p
I0317 09:28:38.264118  3513 net.cpp:425] conv1_p <- data_p
I0317 09:28:38.264139  3513 net.cpp:399] conv1_p -> conv1_p
I0317 09:28:38.266425  3513 net.cpp:141] Setting up conv1_p
I0317 09:28:38.266453  3513 net.cpp:148] Top shape: 64 96 55 55 (18585600)
I0317 09:28:38.266463  3513 net.cpp:156] Memory required for data: 723399936
I0317 09:28:38.266482  3513 net.cpp:484] Sharing parameters 'conv1_w' owned by layer 'conv1', param index 0
I0317 09:28:38.266499  3513 net.cpp:484] Sharing parameters 'conv1_b' owned by layer 'conv1', param index 1
I0317 09:28:38.266510  3513 layer_factory.hpp:77] Creating layer relu1_p
I0317 09:28:38.266530  3513 net.cpp:91] Creating Layer relu1_p
I0317 09:28:38.266541  3513 net.cpp:425] relu1_p <- conv1_p
I0317 09:28:38.266562  3513 net.cpp:386] relu1_p -> conv1_p (in-place)
I0317 09:28:38.266851  3513 net.cpp:141] Setting up relu1_p
I0317 09:28:38.266877  3513 net.cpp:148] Top shape: 64 96 55 55 (18585600)
I0317 09:28:38.266888  3513 net.cpp:156] Memory required for data: 797742336
I0317 09:28:38.266899  3513 layer_factory.hpp:77] Creating layer norm1_p
I0317 09:28:38.266921  3513 net.cpp:91] Creating Layer norm1_p
I0317 09:28:38.266933  3513 net.cpp:425] norm1_p <- conv1_p
I0317 09:28:38.266957  3513 net.cpp:399] norm1_p -> norm1_p
I0317 09:28:38.267271  3513 net.cpp:141] Setting up norm1_p
I0317 09:28:38.267297  3513 net.cpp:148] Top shape: 64 96 55 55 (18585600)
I0317 09:28:38.267307  3513 net.cpp:156] Memory required for data: 872084736
I0317 09:28:38.267318  3513 layer_factory.hpp:77] Creating layer pool1_p
I0317 09:28:38.267340  3513 net.cpp:91] Creating Layer pool1_p
I0317 09:28:38.267357  3513 net.cpp:425] pool1_p <- norm1_p
I0317 09:28:38.267374  3513 net.cpp:399] pool1_p -> pool1_p
I0317 09:28:38.267452  3513 net.cpp:141] Setting up pool1_p
I0317 09:28:38.267474  3513 net.cpp:148] Top shape: 64 96 27 27 (4478976)
I0317 09:28:38.267484  3513 net.cpp:156] Memory required for data: 890000640
I0317 09:28:38.267495  3513 layer_factory.hpp:77] Creating layer conv2_p
I0317 09:28:38.267521  3513 net.cpp:91] Creating Layer conv2_p
I0317 09:28:38.267542  3513 net.cpp:425] conv2_p <- pool1_p
I0317 09:28:38.267565  3513 net.cpp:399] conv2_p -> conv2_p
I0317 09:28:38.279418  3513 net.cpp:141] Setting up conv2_p
I0317 09:28:38.279445  3513 net.cpp:148] Top shape: 64 256 27 27 (11943936)
I0317 09:28:38.279456  3513 net.cpp:156] Memory required for data: 937776384
I0317 09:28:38.279469  3513 net.cpp:484] Sharing parameters 'conv2_w' owned by layer 'conv2', param index 0
I0317 09:28:38.279484  3513 net.cpp:484] Sharing parameters 'conv2_b' owned by layer 'conv2', param index 1
I0317 09:28:38.279495  3513 layer_factory.hpp:77] Creating layer relu2_p
I0317 09:28:38.279510  3513 net.cpp:91] Creating Layer relu2_p
I0317 09:28:38.279520  3513 net.cpp:425] relu2_p <- conv2_p
I0317 09:28:38.279534  3513 net.cpp:386] relu2_p -> conv2_p (in-place)
I0317 09:28:38.279814  3513 net.cpp:141] Setting up relu2_p
I0317 09:28:38.279840  3513 net.cpp:148] Top shape: 64 256 27 27 (11943936)
I0317 09:28:38.279850  3513 net.cpp:156] Memory required for data: 985552128
I0317 09:28:38.279861  3513 layer_factory.hpp:77] Creating layer norm2_p
I0317 09:28:38.279882  3513 net.cpp:91] Creating Layer norm2_p
I0317 09:28:38.279928  3513 net.cpp:425] norm2_p <- conv2_p
I0317 09:28:38.279945  3513 net.cpp:399] norm2_p -> norm2_p
I0317 09:28:38.280163  3513 net.cpp:141] Setting up norm2_p
I0317 09:28:38.280187  3513 net.cpp:148] Top shape: 64 256 27 27 (11943936)
I0317 09:28:38.280197  3513 net.cpp:156] Memory required for data: 1033327872
I0317 09:28:38.280208  3513 layer_factory.hpp:77] Creating layer pool2_p
I0317 09:28:38.280223  3513 net.cpp:91] Creating Layer pool2_p
I0317 09:28:38.280234  3513 net.cpp:425] pool2_p <- norm2_p
I0317 09:28:38.280253  3513 net.cpp:399] pool2_p -> pool2_p
I0317 09:28:38.280323  3513 net.cpp:141] Setting up pool2_p
I0317 09:28:38.280349  3513 net.cpp:148] Top shape: 64 256 13 13 (2768896)
I0317 09:28:38.280359  3513 net.cpp:156] Memory required for data: 1044403456
I0317 09:28:38.280369  3513 layer_factory.hpp:77] Creating layer conv3_p
I0317 09:28:38.280395  3513 net.cpp:91] Creating Layer conv3_p
I0317 09:28:38.280407  3513 net.cpp:425] conv3_p <- pool2_p
I0317 09:28:38.280426  3513 net.cpp:399] conv3_p -> conv3_p
I0317 09:28:38.310978  3513 net.cpp:141] Setting up conv3_p
I0317 09:28:38.311007  3513 net.cpp:148] Top shape: 64 384 13 13 (4153344)
I0317 09:28:38.311018  3513 net.cpp:156] Memory required for data: 1061016832
I0317 09:28:38.311031  3513 net.cpp:484] Sharing parameters 'conv3_w' owned by layer 'conv3', param index 0
I0317 09:28:38.311045  3513 net.cpp:484] Sharing parameters 'conv3_b' owned by layer 'conv3', param index 1
I0317 09:28:38.311056  3513 layer_factory.hpp:77] Creating layer relu3_p
I0317 09:28:38.311075  3513 net.cpp:91] Creating Layer relu3_p
I0317 09:28:38.311086  3513 net.cpp:425] relu3_p <- conv3_p
I0317 09:28:38.311100  3513 net.cpp:386] relu3_p -> conv3_p (in-place)
I0317 09:28:38.311377  3513 net.cpp:141] Setting up relu3_p
I0317 09:28:38.311403  3513 net.cpp:148] Top shape: 64 384 13 13 (4153344)
I0317 09:28:38.311413  3513 net.cpp:156] Memory required for data: 1077630208
I0317 09:28:38.311422  3513 layer_factory.hpp:77] Creating layer conv4_p
I0317 09:28:38.311460  3513 net.cpp:91] Creating Layer conv4_p
I0317 09:28:38.311480  3513 net.cpp:425] conv4_p <- conv3_p
I0317 09:28:38.311501  3513 net.cpp:399] conv4_p -> conv4_p
I0317 09:28:38.335278  3513 net.cpp:141] Setting up conv4_p
I0317 09:28:38.335307  3513 net.cpp:148] Top shape: 64 384 13 13 (4153344)
I0317 09:28:38.335321  3513 net.cpp:156] Memory required for data: 1094243584
I0317 09:28:38.335335  3513 net.cpp:484] Sharing parameters 'conv4_w' owned by layer 'conv4', param index 0
I0317 09:28:38.335348  3513 net.cpp:484] Sharing parameters 'conv4_b' owned by layer 'conv4', param index 1
I0317 09:28:38.335360  3513 layer_factory.hpp:77] Creating layer relu4_p
I0317 09:28:38.335373  3513 net.cpp:91] Creating Layer relu4_p
I0317 09:28:38.335383  3513 net.cpp:425] relu4_p <- conv4_p
I0317 09:28:38.335397  3513 net.cpp:386] relu4_p -> conv4_p (in-place)
I0317 09:28:38.335676  3513 net.cpp:141] Setting up relu4_p
I0317 09:28:38.335701  3513 net.cpp:148] Top shape: 64 384 13 13 (4153344)
I0317 09:28:38.335712  3513 net.cpp:156] Memory required for data: 1110856960
I0317 09:28:38.335722  3513 layer_factory.hpp:77] Creating layer conv5_p
I0317 09:28:38.335749  3513 net.cpp:91] Creating Layer conv5_p
I0317 09:28:38.335762  3513 net.cpp:425] conv5_p <- conv4_p
I0317 09:28:38.335783  3513 net.cpp:399] conv5_p -> conv5_p
I0317 09:28:38.352165  3513 net.cpp:141] Setting up conv5_p
I0317 09:28:38.352193  3513 net.cpp:148] Top shape: 64 256 13 13 (2768896)
I0317 09:28:38.352205  3513 net.cpp:156] Memory required for data: 1121932544
I0317 09:28:38.352216  3513 net.cpp:484] Sharing parameters 'conv5_w' owned by layer 'conv5', param index 0
I0317 09:28:38.352231  3513 net.cpp:484] Sharing parameters 'conv5_b' owned by layer 'conv5', param index 1
I0317 09:28:38.352242  3513 layer_factory.hpp:77] Creating layer relu5_p
I0317 09:28:38.352259  3513 net.cpp:91] Creating Layer relu5_p
I0317 09:28:38.352270  3513 net.cpp:425] relu5_p <- conv5_p
I0317 09:28:38.352284  3513 net.cpp:386] relu5_p -> conv5_p (in-place)
I0317 09:28:38.352568  3513 net.cpp:141] Setting up relu5_p
I0317 09:28:38.352607  3513 net.cpp:148] Top shape: 64 256 13 13 (2768896)
I0317 09:28:38.352617  3513 net.cpp:156] Memory required for data: 1133008128
I0317 09:28:38.352628  3513 layer_factory.hpp:77] Creating layer pool5_p
I0317 09:28:38.352644  3513 net.cpp:91] Creating Layer pool5_p
I0317 09:28:38.352655  3513 net.cpp:425] pool5_p <- conv5_p
I0317 09:28:38.352674  3513 net.cpp:399] pool5_p -> pool5_p
I0317 09:28:38.352753  3513 net.cpp:141] Setting up pool5_p
I0317 09:28:38.352777  3513 net.cpp:148] Top shape: 64 256 6 6 (589824)
I0317 09:28:38.352787  3513 net.cpp:156] Memory required for data: 1135367424
I0317 09:28:38.352797  3513 layer_factory.hpp:77] Creating layer fc6_p
I0317 09:28:38.352821  3513 net.cpp:91] Creating Layer fc6_p
I0317 09:28:38.352838  3513 net.cpp:425] fc6_p <- pool5_p
I0317 09:28:38.352859  3513 net.cpp:399] fc6_p -> fc6_p
I0317 09:28:39.619467  3513 net.cpp:141] Setting up fc6_p
I0317 09:28:39.619523  3513 net.cpp:148] Top shape: 64 4096 (262144)
I0317 09:28:39.619535  3513 net.cpp:156] Memory required for data: 1136416000
I0317 09:28:39.619550  3513 net.cpp:484] Sharing parameters 'fc6_w' owned by layer 'fc6', param index 0
I0317 09:28:39.619565  3513 net.cpp:484] Sharing parameters 'fc6_b' owned by layer 'fc6', param index 1
I0317 09:28:39.619575  3513 layer_factory.hpp:77] Creating layer relu6_p
I0317 09:28:39.619601  3513 net.cpp:91] Creating Layer relu6_p
I0317 09:28:39.619614  3513 net.cpp:425] relu6_p <- fc6_p
I0317 09:28:39.619632  3513 net.cpp:386] relu6_p -> fc6_p (in-place)
I0317 09:28:39.619894  3513 net.cpp:141] Setting up relu6_p
I0317 09:28:39.619918  3513 net.cpp:148] Top shape: 64 4096 (262144)
I0317 09:28:39.619930  3513 net.cpp:156] Memory required for data: 1137464576
I0317 09:28:39.619945  3513 layer_factory.hpp:77] Creating layer drop6_p
I0317 09:28:39.619961  3513 net.cpp:91] Creating Layer drop6_p
I0317 09:28:39.619971  3513 net.cpp:425] drop6_p <- fc6_p
I0317 09:28:39.619995  3513 net.cpp:386] drop6_p -> fc6_p (in-place)
I0317 09:28:39.620074  3513 net.cpp:141] Setting up drop6_p
I0317 09:28:39.620095  3513 net.cpp:148] Top shape: 64 4096 (262144)
I0317 09:28:39.620106  3513 net.cpp:156] Memory required for data: 1138513152
I0317 09:28:39.620117  3513 layer_factory.hpp:77] Creating layer fc7_p
I0317 09:28:39.620136  3513 net.cpp:91] Creating Layer fc7_p
I0317 09:28:39.620148  3513 net.cpp:425] fc7_p <- fc6_p
I0317 09:28:39.620168  3513 net.cpp:399] fc7_p -> fc7_p
I0317 09:28:40.187782  3513 net.cpp:141] Setting up fc7_p
I0317 09:28:40.187841  3513 net.cpp:148] Top shape: 64 4096 (262144)
I0317 09:28:40.187855  3513 net.cpp:156] Memory required for data: 1139561728
I0317 09:28:40.187871  3513 net.cpp:484] Sharing parameters 'fc7_w' owned by layer 'fc7', param index 0
I0317 09:28:40.187885  3513 net.cpp:484] Sharing parameters 'fc7_b' owned by layer 'fc7', param index 1
I0317 09:28:40.187896  3513 layer_factory.hpp:77] Creating layer fc8_p
I0317 09:28:40.187922  3513 net.cpp:91] Creating Layer fc8_p
I0317 09:28:40.187942  3513 net.cpp:425] fc8_p <- fc7_p
I0317 09:28:40.187963  3513 net.cpp:399] fc8_p -> fc8_p
I0317 09:28:40.325004  3513 net.cpp:141] Setting up fc8_p
I0317 09:28:40.325057  3513 net.cpp:148] Top shape: 64 1000 (64000)
I0317 09:28:40.325067  3513 net.cpp:156] Memory required for data: 1139817728
I0317 09:28:40.325083  3513 net.cpp:484] Sharing parameters 'fc8_w' owned by layer 'fc8', param index 0
I0317 09:28:40.325105  3513 net.cpp:484] Sharing parameters 'fc8_b' owned by layer 'fc8', param index 1
I0317 09:28:40.325116  3513 layer_factory.hpp:77] Creating layer loss
I0317 09:28:40.325143  3513 net.cpp:91] Creating Layer loss
…
I0317 09:28:40.365180  3513 solver.cpp:181] Creating test net (#0) specified by net file: ./siamese_alexnet_train.prototxt
I0317 09:28:40.365308  3513 net.cpp:313] The NetState phase (1) differed from the phase (0) specified by a rule in layer pair_data
I0317 09:28:40.365770  3513 net.cpp:49] Initializing net from parameters: 
name: "SiameseAlexNet"
state {
  phase: TEST
}
layer {
  name: "pair_data"
  type: "Data"
  top: "pair_data"
  top: "sim"
  include {
    phase: TEST
  }
  transform_param {
    scale: 0.00390625
  }
  data_param {
    source: "/home/ubuntu/fyp/data/data-fyp/siamese_test_leveldb"
    batch_size: 100
  }
}
layer {
  name: "slice_pair"
  type: "Slice"
  bottom: "pair_data"
  top: "data"
  top: "data_p"
  slice_param {
    slice_dim: 1
    slice_point: 3
  }
}
layer {
  name: "conv1"
  type: "Convolution"
  bottom: "data"
  top: "conv1"
  param {
    name: "conv1_w"
    lr_mult: 0
    decay_mult: 1
  }
  param {
    name: "conv1_b"
    lr_mult: 0
    decay_mult: 0
  }
  convolution_param {
    num_output: 96
    kernel_size: 11
    stride: 4
    weight_filler {
      type: "gaussian"
      std: 0.01
    }
    bias_filler {
      type: "constant"
      value: 0
    }
  }
}
layer {
  name: "relu1"
  type: "ReLU"
  bottom: "conv1"
  top: "conv1"
}
layer {
  name: "norm1"
  type: "LRN"
  bottom: "conv1"
  top: "norm1"
  lrn_param {
    local_size: 5
    alpha: 0.0001
    beta: 0.75
  }
}
layer {
  name: "pool1"
  type: "Pooling"
  bottom: "norm1"
  top: "pool1"
  pooling_param {
    pool: MAX
    kernel_size: 3
    stride: 2
  }
}
layer {
  name: "conv2"
  type: "Convolution"
  bottom: "pool1"
  top: "conv2"
  param {
    name: "conv2_w"
    lr_mult: 0
    decay_mult: 1
  }
  param {
    name: "conv2_b"
    lr_mult: 0
    decay_mult: 0
  }
  convolution_param {
    num_output: 256
    pad: 2
    kernel_size: 5
    group: 2
    weight_filler {
      type: "gaussian"
      std: 0.01
    }
    bias_filler {
      type: "constant"
      value: 0.1
    }
  }
}
layer {
  name: "relu2"
  type: "ReLU"
  bottom: "conv2"
  top: "conv2"
}
layer {
  name: "norm2"
  type: "LRN"
  bottom: "conv2"
  top: "norm2"
  lrn_param {
    local_size: 5
    alpha: 0.0001
    beta: 0.75
  }
}
layer {
  name: "pool2"
  type: "Pooling"
  bottom: "norm2"
  top: "pool2"
  pooling_param {
    pool: MAX
    kernel_size: 3
    stride: 2
  }
}
layer {
  name: "conv3"
  type: "Convolution"
  bottom: "pool2"
  top: "conv3"
  param {
    name: "conv3_w"
    lr_mult: 0
    decay_mult: 1
  }
  param {
    name: "conv3_b"
    lr_mult: 0
    decay_mult: 0
  }
  convolution_param {
    num_output: 384
    pad: 1
    kernel_size: 3
    weight_filler {
      type: "gaussian"
      std: 0.01
    }
    bias_filler {
      type: "constant"
      value: 0
    }
  }
}
layer {
  name: "relu3"
  type: "ReLU"
  bottom: "conv3"
  top: "conv3"
}
layer {
  name: "conv4"
  type: "Convolution"
  bottom: "conv3"
  top: "conv4"
  param {
    name: "conv4_w"
    lr_mult: 0
    decay_mult: 1
  }
  param {
    name: "conv4_b"
    lr_mult: 0
    decay_mult: 0
  }
  convolution_param {
    num_output: 384
    pad: 1
    kernel_size: 3
    group: 2
    weight_filler {
      type: "gaussian"
      std: 0.01
    }
    bias_filler {
      type: "constant"
      value: 0.1
    }
  }
}
layer {
  name: "relu4"
  type: "ReLU"
  bottom: "conv4"
  top: "conv4"
}
layer {
  name: "conv5"
  type: "Convolution"
  bottom: "conv4"
  top: "conv5"
  param {
    name: "conv5_w"
    lr_mult: 0
    decay_mult: 1
  }
  param {
    name: "conv5_b"
    lr_mult: 0
    decay_mult: 0
  }
  convolution_param {
    num_output: 256
    pad: 1
    kernel_size: 3
    group: 2
    weight_filler {
      type: "gaussian"
      std: 0.01
    }
    bias_filler {
      type: "constant"
      value: 0.1
    }
  }
}
layer {
  name: "relu5"
  type: "ReLU"
  bottom: "conv5"
  top: "conv5"
}
layer {
  name: "pool5"
  type: "Pooling"
  bottom: "conv5"
  top: "pool5"
  pooling_param {
    pool: MAX
    kernel_size: 3
    stride: 2
  }
}
layer {
  name: "fc6"
  type: "InnerProduct"
  bottom: "pool5"
  top: "fc6"
  param {
    name: "fc6_w"
    lr_mult: 0
    decay_mult: 1
  }
  param {
    name: "fc6_b"
    lr_mult: 0
    decay_mult: 0
  }
  inner_product_param {
    num_output: 4096
    weight_filler {
      type: "gaussian"
      std: 0.005
    }
    bias_filler {
      type: "constant"
      value: 0.1
    }
  }
}
layer {
  name: "relu6"
  type: "ReLU"
  bottom: "fc6"
  top: "fc6"
}
layer {
  name: "drop6"
  type: "Dropout"
  bottom: "fc6"
  top: "fc6"
  dropout_param {
    dropout_ratio: 0.5
  }
}
layer {
  name: "fc7"
  type: "InnerProduct"
  bottom: "fc6"
  top: "fc7"
  param {
    name: "fc7_w"
    lr_mult: 0
    decay_mult: 1
  }
  param {
    name: "fc7_b"
    lr_mult: 0
    decay_mult: 0
  }
  inner_product_param {
    num_output: 4096
    weight_filler {
      type: "gaussian"
      std: 0.01
    }
    bias_filler {
      type: "constant"
      value: 0
    }
  }
}
layer {
  name: "fc8"
  type: "InnerProduct"
  bottom: "fc7"
  top: "fc8"
  param {
    name: "fc8_w"
    lr_mult: 1
    decay_mult: 1
  }
  param {
    name: "fc8_b"
    lr_mult: 2
    decay_mult: 0
  }
  inner_product_param {
    num_output: 1000
    weight_filler {
      type: "gaussian"
      std: 0.01
    }
    bias_filler {
      type: "constant"
      value: 0
    }
  }
}
layer {
  name: "conv1_p"
  type: "Convolution"
  bottom: "data_p"
  top: "conv1_p"
  param {
    name: "conv1_w"
    lr_mult: 0
    decay_mult: 1
  }
  param {
    name: "conv1_b"
    lr_mult: 0
    decay_mult: 0
  }
  convolution_param {
    num_output: 96
    kernel_size: 11
    stride: 4
    weight_filler {
      type: "gaussian"
      std: 0.01
    }
    bias_filler {
      type: "constant"
      value: 0
    }
  }
}
layer {
  name: "relu1_p"
  type: "ReLU"
  bottom: "conv1_p"
  top: "conv1_p"
}
layer {
  name: "norm1_p"
  type: "LRN"
  bottom: "conv1_p"
  top: "norm1_p"
  lrn_param {
    local_size: 5
    alpha: 0.0001
    beta: 0.75
  }
}
layer {
  name: "pool1_p"
  type: "Pooling"
  bottom: "norm1_p"
  top: "pool1_p"
  pooling_param {
    pool: MAX
    kernel_size: 3
    stride: 2
  }
}
layer {
  name: "conv2_p"
  type: "Convolution"
  bottom: "pool1_p"
  top: "conv2_p"
  param {
    name: "conv2_w"
    lr_mult: 0
    decay_mult: 1
  }
  param {
    name: "conv2_b"
    lr_mult: 0
    decay_mult: 0
  }
  convolution_param {
    num_output: 256
    pad: 2
    kernel_size: 5
    group: 2
    weight_filler {
      type: "gaussian"
      std: 0.01
    }
    bias_filler {
      type: "constant"
      value: 0.1
    }
  }
}
layer {
  name: "relu2_p"
  type: "ReLU"
  bottom: "conv2_p"
  top: "conv2_p"
}
layer {
  name: "norm2_p"
  type: "LRN"
  bottom: "conv2_p"
  top: "norm2_p"
  lrn_param {
    local_size: 5
    alpha: 0.0001
    beta: 0.75
  }
}
layer {
  name: "pool2_p"
  type: "Pooling"
  bottom: "norm2_p"
  top: "pool2_p"
  pooling_param {
    pool: MAX
    kernel_size: 3
    stride: 2
  }
}
layer {
  name: "conv3_p"
  type: "Convolution"
  bottom: "pool2_p"
  top: "conv3_p"
  param {
    name: "conv3_w"
    lr_mult: 0
    decay_mult: 1
  }
  param {
    name: "conv3_b"
    lr_mult: 0
    decay_mult: 0
  }
  convolution_param {
    num_output: 384
    pad: 1
    kernel_size: 3
    weight_filler {
      type: "gaussian"
      std: 0.01
    }
    bias_filler {
      type: "constant"
      value: 0
    }
  }
}
layer {
  name: "relu3_p"
  type: "ReLU"
  bottom: "conv3_p"
  top: "conv3_p"
}
layer {
  name: "conv4_p"
  type: "Convolution"
  bottom: "conv3_p"
  top: "conv4_p"
  param {
    name: "conv4_w"
    lr_mult: 0
    decay_mult: 1
  }
  param {
    name: "conv4_b"
    lr_mult: 0
    decay_mult: 0
  }
  convolution_param {
    num_output: 384
    pad: 1
    kernel_size: 3
    group: 2
    weight_filler {
      type: "gaussian"
      std: 0.01
    }
    bias_filler {
      type: "constant"
      value: 0.1
    }
  }
}
layer {
  name: "relu4_p"
  type: "ReLU"
  bottom: "conv4_p"
  top: "conv4_p"
}
layer {
  name: "conv5_p"
  type: "Convolution"
  bottom: "conv4_p"
  top: "conv5_p"
  param {
    name: "conv5_w"
    lr_mult: 0
    decay_mult: 1
  }
  param {
    name: "conv5_b"
    lr_mult: 0
    decay_mult: 0
  }
  convolution_param {
    num_output: 256
    pad: 1
    kernel_size: 3
    group: 2
    weight_filler {
      type: "gaussian"
      std: 0.01
    }
    bias_filler {
      type: "constant"
      value: 0.1
    }
  }
}
layer {
  name: "relu5_p"
  type: "ReLU"
  bottom: "conv5_p"
  top: "conv5_p"
}
layer {
  name: "pool5_p"
  type: "Pooling"
  bottom: "conv5_p"
  top: "pool5_p"
  pooling_param {
    pool: MAX
    kernel_size: 3
    stride: 2
  }
}
layer {
  name: "fc6_p"
  type: "InnerProduct"
  bottom: "pool5_p"
  top: "fc6_p"
  param {
    name: "fc6_w"
    lr_mult: 0
    decay_mult: 1
  }
  param {
    name: "fc6_b"
    lr_mult: 0
    decay_mult: 0
  }
  inner_product_param {
    num_output: 4096
    weight_filler {
      type: "gaussian"
      std: 0.005
    }
    bias_filler {
      type: "constant"
      value: 0.1
    }
  }
}
layer {
  name: "relu6_p"
  type: "ReLU"
  bottom: "fc6_p"
  top: "fc6_p"
}
layer {
  name: "drop6_p"
  type: "Dropout"
  bottom: "fc6_p"
  top: "fc6_p"
  dropout_param {
    dropout_ratio: 0.5
  }
}
layer {
  name: "fc7_p"
  type: "InnerProduct"
  bottom: "fc6_p"
  top: "fc7_p"
  param {
    name: "fc7_w"
    lr_mult: 0
    decay_mult: 1
  }
  param {
    name: "fc7_b"
    lr_mult: 0
    decay_mult: 0
  }
  inner_product_param {
    num_output: 4096
    weight_filler {
      type: "gaussian"
      std: 0.01
    }
    bias_filler {
      type: "constant"
      value: 0
    }
  }
}
layer {
  name: "fc8_p"
  type: "InnerProduct"
  bottom: "fc7_p"
  top: "fc8_p"
  param {
    name: "fc8_w"
    lr_mult: 1
    decay_mult: 1
  }
  param {
    name: "fc8_b"
    lr_mult: 2
    decay_mult: 0
  }
  inner_product_param {
    num_output: 1000
    weight_filler {
      type: "gaussian"
      std: 0.01
    }
    bias_filler {
      type: "constant"
      value: 0
    }
  }
}
layer {
  name: "siamese_accuracy"
  type: "SiameseAccuracy"
  bottom: "fc8"
  bottom: "fc8_p"
  bottom: "sim"
  top: "siamese_accuracy"
  include {
    phase: TEST
  }
}
layer {
  name: "loss"
  type: "ContrastiveLoss"
  bottom: "fc8"
  bottom: "fc8_p"
  bottom: "sim"
  top: "loss"
  contrastive_loss_param {
    margin: 1
  }
}
I0317 09:28:40.366170  3513 layer_factory.hpp:77] Creating layer pair_data
I0317 09:28:40.366389  3513 net.cpp:91] Creating Layer pair_data
I0317 09:28:40.366407  3513 net.cpp:399] pair_data -> pair_data
I0317 09:28:40.366439  3513 net.cpp:399] pair_data -> sim
I0317 09:28:40.374105  3519 db_leveldb.cpp:18] Opened leveldb /home/ubuntu/fyp/data/data-fyp/siamese_test_leveldb
I0317 09:28:40.376232  3513 data_layer.cpp:41] output data size: 100,6,227,227
I0317 09:28:40.612112  3513 net.cpp:141] Setting up pair_data
I0317 09:28:40.612162  3513 net.cpp:148] Top shape: 100 6 227 227 (30917400)
I0317 09:28:40.612170  3513 net.cpp:148] Top shape: 100 (100)
I0317 09:28:40.612175  3513 net.cpp:156] Memory required for data: 123670000
I0317 09:28:40.612185  3513 layer_factory.hpp:77] Creating layer sim_pair_data_1_split
I0317 09:28:40.612211  3513 net.cpp:91] Creating Layer sim_pair_data_1_split
I0317 09:28:40.612231  3513 net.cpp:425] sim_pair_data_1_split <- sim
I0317 09:28:40.612246  3513 net.cpp:399] sim_pair_data_1_split -> sim_pair_data_1_split_0
I0317 09:28:40.612262  3513 net.cpp:399] sim_pair_data_1_split -> sim_pair_data_1_split_1
I0317 09:28:40.612351  3513 net.cpp:141] Setting up sim_pair_data_1_split
I0317 09:28:40.612370  3513 net.cpp:148] Top shape: 100 (100)
I0317 09:28:40.612380  3513 net.cpp:148] Top shape: 100 (100)
I0317 09:28:40.612385  3513 net.cpp:156] Memory required for data: 123670800
I0317 09:28:40.612390  3513 layer_factory.hpp:77] Creating layer slice_pair
I0317 09:28:40.612402  3513 net.cpp:91] Creating Layer slice_pair
I0317 09:28:40.612418  3513 net.cpp:425] slice_pair <- pair_data
I0317 09:28:40.612434  3513 net.cpp:399] slice_pair -> data
I0317 09:28:40.612448  3513 net.cpp:399] slice_pair -> data_p
I0317 09:28:40.612519  3513 net.cpp:141] Setting up slice_pair
I0317 09:28:40.612536  3513 net.cpp:148] Top shape: 100 3 227 227 (15458700)
I0317 09:28:40.612543  3513 net.cpp:148] Top shape: 100 3 227 227 (15458700)
I0317 09:28:40.612548  3513 net.cpp:156] Memory required for data: 247340400
I0317 09:28:40.612553  3513 layer_factory.hpp:77] Creating layer conv1
I0317 09:28:40.612573  3513 net.cpp:91] Creating Layer conv1
I0317 09:28:40.612586  3513 net.cpp:425] conv1 <- data
I0317 09:28:40.612624  3513 net.cpp:399] conv1 -> conv1
I0317 09:28:40.628304  3513 net.cpp:141] Setting up conv1
I0317 09:28:40.628347  3513 net.cpp:148] Top shape: 100 96 55 55 (29040000)
I0317 09:28:40.628353  3513 net.cpp:156] Memory required for data: 363500400
I0317 09:28:40.628373  3513 layer_factory.hpp:77] Creating layer relu1
I0317 09:28:40.628389  3513 net.cpp:91] Creating Layer relu1
I0317 09:28:40.628396  3513 net.cpp:425] relu1 <- conv1
I0317 09:28:40.628407  3513 net.cpp:386] relu1 -> conv1 (in-place)
I0317 09:28:40.628675  3513 net.cpp:141] Setting up relu1
I0317 09:28:40.628697  3513 net.cpp:148] Top shape: 100 96 55 55 (29040000)
I0317 09:28:40.628703  3513 net.cpp:156] Memory required for data: 479660400
I0317 09:28:40.628710  3513 layer_factory.hpp:77] Creating layer norm1
I0317 09:28:40.628723  3513 net.cpp:91] Creating Layer norm1
I0317 09:28:40.628729  3513 net.cpp:425] norm1 <- conv1
I0317 09:28:40.628739  3513 net.cpp:399] norm1 -> norm1
I0317 09:28:40.628949  3513 net.cpp:141] Setting up norm1
I0317 09:28:40.628968  3513 net.cpp:148] Top shape: 100 96 55 55 (29040000)
I0317 09:28:40.628973  3513 net.cpp:156] Memory required for data: 595820400
I0317 09:28:40.628978  3513 layer_factory.hpp:77] Creating layer pool1
I0317 09:28:40.628993  3513 net.cpp:91] Creating Layer pool1
I0317 09:28:40.629003  3513 net.cpp:425] pool1 <- norm1
I0317 09:28:40.629010  3513 net.cpp:399] pool1 -> pool1
I0317 09:28:40.629075  3513 net.cpp:141] Setting up pool1
I0317 09:28:40.629187  3513 net.cpp:148] Top shape: 100 96 27 27 (6998400)
I0317 09:28:40.629201  3513 net.cpp:156] Memory required for data: 623814000
I0317 09:28:40.629207  3513 layer_factory.hpp:77] Creating layer conv2
I0317 09:28:40.629226  3513 net.cpp:91] Creating Layer conv2
I0317 09:28:40.629235  3513 net.cpp:425] conv2 <- pool1
I0317 09:28:40.629247  3513 net.cpp:399] conv2 -> conv2
I0317 09:28:40.641801  3513 net.cpp:141] Setting up conv2
I0317 09:28:40.641855  3513 net.cpp:148] Top shape: 100 256 27 27 (18662400)
I0317 09:28:40.641861  3513 net.cpp:156] Memory required for data: 698463600
I0317 09:28:40.641882  3513 layer_factory.hpp:77] Creating layer relu2
I0317 09:28:40.641902  3513 net.cpp:91] Creating Layer relu2
I0317 09:28:40.641911  3513 net.cpp:425] relu2 <- conv2
I0317 09:28:40.641922  3513 net.cpp:386] relu2 -> conv2 (in-place)
I0317 09:28:40.642096  3513 net.cpp:141] Setting up relu2
I0317 09:28:40.642117  3513 net.cpp:148] Top shape: 100 256 27 27 (18662400)
I0317 09:28:40.642122  3513 net.cpp:156] Memory required for data: 773113200
I0317 09:28:40.642127  3513 layer_factory.hpp:77] Creating layer norm2
I0317 09:28:40.642141  3513 net.cpp:91] Creating Layer norm2
I0317 09:28:40.642148  3513 net.cpp:425] norm2 <- conv2
I0317 09:28:40.642155  3513 net.cpp:399] norm2 -> norm2
I0317 09:28:40.642455  3513 net.cpp:141] Setting up norm2
I0317 09:28:40.642479  3513 net.cpp:148] Top shape: 100 256 27 27 (18662400)
I0317 09:28:40.642485  3513 net.cpp:156] Memory required for data: 847762800
I0317 09:28:40.642491  3513 layer_factory.hpp:77] Creating layer pool2
I0317 09:28:40.642501  3513 net.cpp:91] Creating Layer pool2
I0317 09:28:40.642506  3513 net.cpp:425] pool2 <- norm2
I0317 09:28:40.642518  3513 net.cpp:399] pool2 -> pool2
I0317 09:28:40.642571  3513 net.cpp:141] Setting up pool2
I0317 09:28:40.642590  3513 net.cpp:148] Top shape: 100 256 13 13 (4326400)
I0317 09:28:40.642594  3513 net.cpp:156] Memory required for data: 865068400
I0317 09:28:40.642599  3513 layer_factory.hpp:77] Creating layer conv3
I0317 09:28:40.642621  3513 net.cpp:91] Creating Layer conv3
I0317 09:28:40.642633  3513 net.cpp:425] conv3 <- pool2
I0317 09:28:40.642643  3513 net.cpp:399] conv3 -> conv3
I0317 09:28:40.673790  3513 net.cpp:141] Setting up conv3
I0317 09:28:40.673841  3513 net.cpp:148] Top shape: 100 384 13 13 (6489600)
I0317 09:28:40.673848  3513 net.cpp:156] Memory required for data: 891026800
I0317 09:28:40.673871  3513 layer_factory.hpp:77] Creating layer relu3
I0317 09:28:40.673885  3513 net.cpp:91] Creating Layer relu3
I0317 09:28:40.673920  3513 net.cpp:425] relu3 <- conv3
I0317 09:28:40.673933  3513 net.cpp:386] relu3 -> conv3 (in-place)
I0317 09:28:40.674216  3513 net.cpp:141] Setting up relu3
I0317 09:28:40.674238  3513 net.cpp:148] Top shape: 100 384 13 13 (6489600)
I0317 09:28:40.674244  3513 net.cpp:156] Memory required for data: 916985200
I0317 09:28:40.674250  3513 layer_factory.hpp:77] Creating layer conv4
I0317 09:28:40.674268  3513 net.cpp:91] Creating Layer conv4
I0317 09:28:40.674275  3513 net.cpp:425] conv4 <- conv3
I0317 09:28:40.674284  3513 net.cpp:399] conv4 -> conv4
I0317 09:28:40.698777  3513 net.cpp:141] Setting up conv4
I0317 09:28:40.698837  3513 net.cpp:148] Top shape: 100 384 13 13 (6489600)
I0317 09:28:40.698845  3513 net.cpp:156] Memory required for data: 942943600
I0317 09:28:40.698860  3513 layer_factory.hpp:77] Creating layer relu4
I0317 09:28:40.698879  3513 net.cpp:91] Creating Layer relu4
I0317 09:28:40.698886  3513 net.cpp:425] relu4 <- conv4
I0317 09:28:40.698896  3513 net.cpp:386] relu4 -> conv4 (in-place)
I0317 09:28:40.699091  3513 net.cpp:141] Setting up relu4
I0317 09:28:40.699120  3513 net.cpp:148] Top shape: 100 384 13 13 (6489600)
I0317 09:28:40.699126  3513 net.cpp:156] Memory required for data: 968902000
I0317 09:28:40.699131  3513 layer_factory.hpp:77] Creating layer conv5
I0317 09:28:40.699151  3513 net.cpp:91] Creating Layer conv5
I0317 09:28:40.699164  3513 net.cpp:425] conv5 <- conv4
I0317 09:28:40.699177  3513 net.cpp:399] conv5 -> conv5
I0317 09:28:40.716339  3513 net.cpp:141] Setting up conv5
I0317 09:28:40.716393  3513 net.cpp:148] Top shape: 100 256 13 13 (4326400)
I0317 09:28:40.716401  3513 net.cpp:156] Memory required for data: 986207600
I0317 09:28:40.716424  3513 layer_factory.hpp:77] Creating layer relu5
I0317 09:28:40.716455  3513 net.cpp:91] Creating Layer relu5
I0317 09:28:40.716464  3513 net.cpp:425] relu5 <- conv5
I0317 09:28:40.716475  3513 net.cpp:386] relu5 -> conv5 (in-place)
I0317 09:28:40.716795  3513 net.cpp:141] Setting up relu5
I0317 09:28:40.716820  3513 net.cpp:148] Top shape: 100 256 13 13 (4326400)
I0317 09:28:40.716825  3513 net.cpp:156] Memory required for data: 1003513200
I0317 09:28:40.716831  3513 layer_factory.hpp:77] Creating layer pool5
I0317 09:28:40.716846  3513 net.cpp:91] Creating Layer pool5
I0317 09:28:40.716859  3513 net.cpp:425] pool5 <- conv5
I0317 09:28:40.716869  3513 net.cpp:399] pool5 -> pool5
I0317 09:28:40.716943  3513 net.cpp:141] Setting up pool5
I0317 09:28:40.716961  3513 net.cpp:148] Top shape: 100 256 6 6 (921600)
I0317 09:28:40.716966  3513 net.cpp:156] Memory required for data: 1007199600
I0317 09:28:40.716972  3513 layer_factory.hpp:77] Creating layer fc6
I0317 09:28:40.716984  3513 net.cpp:91] Creating Layer fc6
I0317 09:28:40.716990  3513 net.cpp:425] fc6 <- pool5
I0317 09:28:40.717001  3513 net.cpp:399] fc6 -> fc6
I0317 09:28:41.986933  3513 net.cpp:141] Setting up fc6
I0317 09:28:41.986994  3513 net.cpp:148] Top shape: 100 4096 (409600)
I0317 09:28:41.987002  3513 net.cpp:156] Memory required for data: 1008838000
I0317 09:28:41.987020  3513 layer_factory.hpp:77] Creating layer relu6
I0317 09:28:41.987035  3513 net.cpp:91] Creating Layer relu6
I0317 09:28:41.987042  3513 net.cpp:425] relu6 <- fc6
I0317 09:28:41.987053  3513 net.cpp:386] relu6 -> fc6 (in-place)
I0317 09:28:41.987345  3513 net.cpp:141] Setting up relu6
I0317 09:28:41.987366  3513 net.cpp:148] Top shape: 100 4096 (409600)
I0317 09:28:41.987371  3513 net.cpp:156] Memory required for data: 1010476400
I0317 09:28:41.987377  3513 layer_factory.hpp:77] Creating layer drop6
I0317 09:28:41.987391  3513 net.cpp:91] Creating Layer drop6
I0317 09:28:41.987397  3513 net.cpp:425] drop6 <- fc6
I0317 09:28:41.987404  3513 net.cpp:386] drop6 -> fc6 (in-place)
I0317 09:28:41.987447  3513 net.cpp:141] Setting up drop6
I0317 09:28:41.987464  3513 net.cpp:148] Top shape: 100 4096 (409600)
I0317 09:28:41.987471  3513 net.cpp:156] Memory required for data: 1012114800
I0317 09:28:41.987476  3513 layer_factory.hpp:77] Creating layer fc7
I0317 09:28:41.987488  3513 net.cpp:91] Creating Layer fc7
I0317 09:28:41.987524  3513 net.cpp:425] fc7 <- fc6
I0317 09:28:41.987537  3513 net.cpp:399] fc7 -> fc7
I0317 09:28:42.549863  3513 net.cpp:141] Setting up fc7
I0317 09:28:42.549921  3513 net.cpp:148] Top shape: 100 4096 (409600)
I0317 09:28:42.549927  3513 net.cpp:156] Memory required for data: 1013753200
I0317 09:28:42.549943  3513 layer_factory.hpp:77] Creating layer fc8
I0317 09:28:42.549973  3513 net.cpp:91] Creating Layer fc8
I0317 09:28:42.549983  3513 net.cpp:425] fc8 <- fc7
I0317 09:28:42.549993  3513 net.cpp:399] fc8 -> fc8
I0317 09:28:42.686378  3513 net.cpp:141] Setting up fc8
I0317 09:28:42.686419  3513 net.cpp:148] Top shape: 100 1000 (100000)
I0317 09:28:42.686424  3513 net.cpp:156] Memory required for data: 1014153200
I0317 09:28:42.686439  3513 layer_factory.hpp:77] Creating layer fc8_fc8_0_split
I0317 09:28:42.686451  3513 net.cpp:91] Creating Layer fc8_fc8_0_split
I0317 09:28:42.686457  3513 net.cpp:425] fc8_fc8_0_split <- fc8
I0317 09:28:42.686468  3513 net.cpp:399] fc8_fc8_0_split -> fc8_fc8_0_split_0
I0317 09:28:42.686480  3513 net.cpp:399] fc8_fc8_0_split -> fc8_fc8_0_split_1
I0317 09:28:42.686539  3513 net.cpp:141] Setting up fc8_fc8_0_split
I0317 09:28:42.686558  3513 net.cpp:148] Top shape: 100 1000 (100000)
I0317 09:28:42.686564  3513 net.cpp:148] Top shape: 100 1000 (100000)
I0317 09:28:42.686568  3513 net.cpp:156] Memory required for data: 1014953200
I0317 09:28:42.686574  3513 layer_factory.hpp:77] Creating layer conv1_p
I0317 09:28:42.686599  3513 net.cpp:91] Creating Layer conv1_p
I0317 09:28:42.686614  3513 net.cpp:425] conv1_p <- data_p
I0317 09:28:42.686627  3513 net.cpp:399] conv1_p -> conv1_p
I0317 09:28:42.689030  3513 net.cpp:141] Setting up conv1_p
I0317 09:28:42.689055  3513 net.cpp:148] Top shape: 100 96 55 55 (29040000)
I0317 09:28:42.689067  3513 net.cpp:156] Memory required for data: 1131113200
I0317 09:28:42.689080  3513 net.cpp:484] Sharing parameters 'conv1_w' owned by layer 'conv1', param index 0
I0317 09:28:42.689090  3513 net.cpp:484] Sharing parameters 'conv1_b' owned by layer 'conv1', param index 1
I0317 09:28:42.689095  3513 layer_factory.hpp:77] Creating layer relu1_p
I0317 09:28:42.689103  3513 net.cpp:91] Creating Layer relu1_p
I0317 09:28:42.689110  3513 net.cpp:425] relu1_p <- conv1_p
I0317 09:28:42.689116  3513 net.cpp:386] relu1_p -> conv1_p (in-place)
I0317 09:28:42.689302  3513 net.cpp:141] Setting up relu1_p
I0317 09:28:42.689326  3513 net.cpp:148] Top shape: 100 96 55 55 (29040000)
I0317 09:28:42.689332  3513 net.cpp:156] Memory required for data: 1247273200
I0317 09:28:42.689337  3513 layer_factory.hpp:77] Creating layer norm1_p
I0317 09:28:42.689348  3513 net.cpp:91] Creating Layer norm1_p
I0317 09:28:42.689353  3513 net.cpp:425] norm1_p <- conv1_p
I0317 09:28:42.689363  3513 net.cpp:399] norm1_p -> norm1_p
I0317 09:28:42.689677  3513 net.cpp:141] Setting up norm1_p
I0317 09:28:42.689698  3513 net.cpp:148] Top shape: 100 96 55 55 (29040000)
I0317 09:28:42.689704  3513 net.cpp:156] Memory required for data: 1363433200
I0317 09:28:42.689710  3513 layer_factory.hpp:77] Creating layer pool1_p
I0317 09:28:42.689723  3513 net.cpp:91] Creating Layer pool1_p
I0317 09:28:42.689728  3513 net.cpp:425] pool1_p <- norm1_p
I0317 09:28:42.689736  3513 net.cpp:399] pool1_p -> pool1_p
I0317 09:28:42.689798  3513 net.cpp:141] Setting up pool1_p
I0317 09:28:42.689816  3513 net.cpp:148] Top shape: 100 96 27 27 (6998400)
I0317 09:28:42.689821  3513 net.cpp:156] Memory required for data: 1391426800
I0317 09:28:42.689826  3513 layer_factory.hpp:77] Creating layer conv2_p
I0317 09:28:42.689841  3513 net.cpp:91] Creating Layer conv2_p
I0317 09:28:42.689858  3513 net.cpp:425] conv2_p <- pool1_p
I0317 09:28:42.689872  3513 net.cpp:399] conv2_p -> conv2_p
I0317 09:28:42.702046  3513 net.cpp:141] Setting up conv2_p
I0317 09:28:42.702071  3513 net.cpp:148] Top shape: 100 256 27 27 (18662400)
I0317 09:28:42.702077  3513 net.cpp:156] Memory required for data: 1466076400
I0317 09:28:42.702085  3513 net.cpp:484] Sharing parameters 'conv2_w' owned by layer 'conv2', param index 0
I0317 09:28:42.702119  3513 net.cpp:484] Sharing parameters 'conv2_b' owned by layer 'conv2', param index 1
I0317 09:28:42.702126  3513 layer_factory.hpp:77] Creating layer relu2_p
I0317 09:28:42.702137  3513 net.cpp:91] Creating Layer relu2_p
I0317 09:28:42.702143  3513 net.cpp:425] relu2_p <- conv2_p
I0317 09:28:42.702152  3513 net.cpp:386] relu2_p -> conv2_p (in-place)
I0317 09:28:42.702324  3513 net.cpp:141] Setting up relu2_p
I0317 09:28:42.702344  3513 net.cpp:148] Top shape: 100 256 27 27 (18662400)
I0317 09:28:42.702350  3513 net.cpp:156] Memory required for data: 1540726000
I0317 09:28:42.702355  3513 layer_factory.hpp:77] Creating layer norm2_p
I0317 09:28:42.702368  3513 net.cpp:91] Creating Layer norm2_p
I0317 09:28:42.702373  3513 net.cpp:425] norm2_p <- conv2_p
I0317 09:28:42.702383  3513 net.cpp:399] norm2_p -> norm2_p
I0317 09:28:42.702791  3513 net.cpp:141] Setting up norm2_p
I0317 09:28:42.702813  3513 net.cpp:148] Top shape: 100 256 27 27 (18662400)
I0317 09:28:42.702819  3513 net.cpp:156] Memory required for data: 1615375600
I0317 09:28:42.702826  3513 layer_factory.hpp:77] Creating layer pool2_p
I0317 09:28:42.702836  3513 net.cpp:91] Creating Layer pool2_p
I0317 09:28:42.702842  3513 net.cpp:425] pool2_p <- norm2_p
I0317 09:28:42.702850  3513 net.cpp:399] pool2_p -> pool2_p
I0317 09:28:42.702909  3513 net.cpp:141] Setting up pool2_p
I0317 09:28:42.702926  3513 net.cpp:148] Top shape: 100 256 13 13 (4326400)
I0317 09:28:42.702931  3513 net.cpp:156] Memory required for data: 1632681200
I0317 09:28:42.702936  3513 layer_factory.hpp:77] Creating layer conv3_p
I0317 09:28:42.702956  3513 net.cpp:91] Creating Layer conv3_p
I0317 09:28:42.702970  3513 net.cpp:425] conv3_p <- pool2_p
I0317 09:28:42.702981  3513 net.cpp:399] conv3_p -> conv3_p
I0317 09:28:42.733355  3513 net.cpp:141] Setting up conv3_p
I0317 09:28:42.733381  3513 net.cpp:148] Top shape: 100 384 13 13 (6489600)
I0317 09:28:42.733386  3513 net.cpp:156] Memory required for data: 1658639600
I0317 09:28:42.733393  3513 net.cpp:484] Sharing parameters 'conv3_w' owned by layer 'conv3', param index 0
I0317 09:28:42.733400  3513 net.cpp:484] Sharing parameters 'conv3_b' owned by layer 'conv3', param index 1
I0317 09:28:42.733405  3513 layer_factory.hpp:77] Creating layer relu3_p
I0317 09:28:42.733417  3513 net.cpp:91] Creating Layer relu3_p
I0317 09:28:42.733423  3513 net.cpp:425] relu3_p <- conv3_p
I0317 09:28:42.733430  3513 net.cpp:386] relu3_p -> conv3_p (in-place)
I0317 09:28:42.733711  3513 net.cpp:141] Setting up relu3_p
I0317 09:28:42.733732  3513 net.cpp:148] Top shape: 100 384 13 13 (6489600)
I0317 09:28:42.733738  3513 net.cpp:156] Memory required for data: 1684598000
I0317 09:28:42.733744  3513 layer_factory.hpp:77] Creating layer conv4_p
I0317 09:28:42.733759  3513 net.cpp:91] Creating Layer conv4_p
I0317 09:28:42.733777  3513 net.cpp:425] conv4_p <- conv3_p
I0317 09:28:42.733790  3513 net.cpp:399] conv4_p -> conv4_p
I0317 09:28:42.757936  3513 net.cpp:141] Setting up conv4_p
I0317 09:28:42.757961  3513 net.cpp:148] Top shape: 100 384 13 13 (6489600)
I0317 09:28:42.757967  3513 net.cpp:156] Memory required for data: 1710556400
I0317 09:28:42.757974  3513 net.cpp:484] Sharing parameters 'conv4_w' owned by layer 'conv4', param index 0
I0317 09:28:42.757982  3513 net.cpp:484] Sharing parameters 'conv4_b' owned by layer 'conv4', param index 1
I0317 09:28:42.757987  3513 layer_factory.hpp:77] Creating layer relu4_p
I0317 09:28:42.757997  3513 net.cpp:91] Creating Layer relu4_p
I0317 09:28:42.758003  3513 net.cpp:425] relu4_p <- conv4_p
I0317 09:28:42.758011  3513 net.cpp:386] relu4_p -> conv4_p (in-place)
I0317 09:28:42.758182  3513 net.cpp:141] Setting up relu4_p
I0317 09:28:42.758200  3513 net.cpp:148] Top shape: 100 384 13 13 (6489600)
I0317 09:28:42.758206  3513 net.cpp:156] Memory required for data: 1736514800
I0317 09:28:42.758213  3513 layer_factory.hpp:77] Creating layer conv5_p
I0317 09:28:42.758229  3513 net.cpp:91] Creating Layer conv5_p
I0317 09:28:42.758237  3513 net.cpp:425] conv5_p <- conv4_p
I0317 09:28:42.758246  3513 net.cpp:399] conv5_p -> conv5_p
I0317 09:28:42.774904  3513 net.cpp:141] Setting up conv5_p
I0317 09:28:42.774929  3513 net.cpp:148] Top shape: 100 256 13 13 (4326400)
I0317 09:28:42.774935  3513 net.cpp:156] Memory required for data: 1753820400
I0317 09:28:42.774941  3513 net.cpp:484] Sharing parameters 'conv5_w' owned by layer 'conv5', param index 0
I0317 09:28:42.774948  3513 net.cpp:484] Sharing parameters 'conv5_b' owned by layer 'conv5', param index 1
I0317 09:28:42.774953  3513 layer_factory.hpp:77] Creating layer relu5_p
I0317 09:28:42.774965  3513 net.cpp:91] Creating Layer relu5_p
I0317 09:28:42.774971  3513 net.cpp:425] relu5_p <- conv5_p
I0317 09:28:42.774978  3513 net.cpp:386] relu5_p -> conv5_p (in-place)
I0317 09:28:42.775147  3513 net.cpp:141] Setting up relu5_p
I0317 09:28:42.775166  3513 net.cpp:148] Top shape: 100 256 13 13 (4326400)
I0317 09:28:42.775172  3513 net.cpp:156] Memory required for data: 1771126000
I0317 09:28:42.775177  3513 layer_factory.hpp:77] Creating layer pool5_p
I0317 09:28:42.775189  3513 net.cpp:91] Creating Layer pool5_p
I0317 09:28:42.775195  3513 net.cpp:425] pool5_p <- conv5_p
I0317 09:28:42.775203  3513 net.cpp:399] pool5_p -> pool5_p
I0317 09:28:42.775270  3513 net.cpp:141] Setting up pool5_p
I0317 09:28:42.775288  3513 net.cpp:148] Top shape: 100 256 6 6 (921600)
I0317 09:28:42.775293  3513 net.cpp:156] Memory required for data: 1774812400
I0317 09:28:42.775298  3513 layer_factory.hpp:77] Creating layer fc6_p
I0317 09:28:42.775311  3513 net.cpp:91] Creating Layer fc6_p
I0317 09:28:42.775317  3513 net.cpp:425] fc6_p <- pool5_p
I0317 09:28:42.775326  3513 net.cpp:399] fc6_p -> fc6_p
I0317 09:28:44.043890  3513 net.cpp:141] Setting up fc6_p
I0317 09:28:44.043948  3513 net.cpp:148] Top shape: 100 4096 (409600)
I0317 09:28:44.043956  3513 net.cpp:156] Memory required for data: 1776450800
I0317 09:28:44.043967  3513 net.cpp:484] Sharing parameters 'fc6_w' owned by layer 'fc6', param index 0
I0317 09:28:44.043974  3513 net.cpp:484] Sharing parameters 'fc6_b' owned by layer 'fc6', param index 1
I0317 09:28:44.043980  3513 layer_factory.hpp:77] Creating layer relu6_p
I0317 09:28:44.043995  3513 net.cpp:91] Creating Layer relu6_p
I0317 09:28:44.044003  3513 net.cpp:425] relu6_p <- fc6_p
I0317 09:28:44.044014  3513 net.cpp:386] relu6_p -> fc6_p (in-place)
I0317 09:28:44.044508  3513 net.cpp:141] Setting up relu6_p
I0317 09:28:44.044531  3513 net.cpp:148] Top shape: 100 4096 (409600)
I0317 09:28:44.044538  3513 net.cpp:156] Memory required for data: 1778089200
I0317 09:28:44.044543  3513 layer_factory.hpp:77] Creating layer drop6_p
I0317 09:28:44.044556  3513 net.cpp:91] Creating Layer drop6_p
I0317 09:28:44.044562  3513 net.cpp:425] drop6_p <- fc6_p
I0317 09:28:44.044572  3513 net.cpp:386] drop6_p -> fc6_p (in-place)
I0317 09:28:44.044638  3513 net.cpp:141] Setting up drop6_p
I0317 09:28:44.044663  3513 net.cpp:148] Top shape: 100 4096 (409600)
I0317 09:28:44.044673  3513 net.cpp:156] Memory required for data: 1779727600
I0317 09:28:44.044678  3513 layer_factory.hpp:77] Creating layer fc7_p
I0317 09:28:44.044695  3513 net.cpp:91] Creating Layer fc7_p
I0317 09:28:44.044723  3513 net.cpp:425] fc7_p <- fc6_p
I0317 09:28:44.044736  3513 net.cpp:399] fc7_p -> fc7_p
I0317 09:28:44.611433  3513 net.cpp:141] Setting up fc7_p
I0317 09:28:44.611491  3513 net.cpp:148] Top shape: 100 4096 (409600)
I0317 09:28:44.611500  3513 net.cpp:156] Memory required for data: 1781366000
I0317 09:28:44.611511  3513 net.cpp:484] Sharing parameters 'fc7_w' owned by layer 'fc7', param index 0
I0317 09:28:44.611519  3513 net.cpp:484] Sharing parameters 'fc7_b' owned by layer 'fc7', param index 1
I0317 09:28:44.611526  3513 layer_factory.hpp:77] Creating layer fc8_p
I0317 09:28:44.611548  3513 net.cpp:91] Creating Layer fc8_p
I0317 09:28:44.611557  3513 net.cpp:425] fc8_p <- fc7_p
I0317 09:28:44.611572  3513 net.cpp:399] fc8_p -> fc8_p
I0317 09:28:44.748157  3513 net.cpp:141] Setting up fc8_p
I0317 09:28:44.748203  3513 net.cpp:148] Top shape: 100 1000 (100000)
I0317 09:28:44.748208  3513 net.cpp:156] Memory required for data: 1781766000
I0317 09:28:44.748245  3513 net.cpp:484] Sharing parameters 'fc8_w' owned by layer 'fc8', param index 0
I0317 09:28:44.748255  3513 net.cpp:484] Sharing parameters 'fc8_b' owned by layer 'fc8', param index 1
I0317 09:28:44.748260  3513 layer_factory.hpp:77] Creating layer fc8_p_fc8_p_0_split
I0317 09:28:44.748273  3513 net.cpp:91] Creating Layer fc8_p_fc8_p_0_split
I0317 09:28:44.748280  3513 net.cpp:425] fc8_p_fc8_p_0_split <- fc8_p
I0317 09:28:44.748291  3513 net.cpp:399] fc8_p_fc8_p_0_split -> fc8_p_fc8_p_0_split_0
I0317 09:28:44.748311  3513 net.cpp:399] fc8_p_fc8_p_0_split -> fc8_p_fc8_p_0_split_1
I0317 09:28:44.748399  3513 net.cpp:141] Setting up fc8_p_fc8_p_0_split
I0317 09:28:44.748417  3513 net.cpp:148] Top shape: 100 1000 (100000)
I0317 09:28:44.748423  3513 net.cpp:148] Top shape: 100 1000 (100000)
I0317 09:28:44.748437  3513 net.cpp:156] Memory required for data: 1782566000
I0317 09:28:44.748446  3513 layer_factory.hpp:77] Creating layer siamese_accuracy
I0317 09:28:44.748472  3513 net.cpp:91] Creating Layer siamese_accuracy
I0317 09:28:44.748487  3513 net.cpp:425] siamese_accuracy <- fc8_fc8_0_split_0
I0317 09:28:44.748502  3513 net.cpp:425] siamese_accuracy <- fc8_p_fc8_p_0_split_0
…
